model/model_player1.pth (torch, 341015 bytes, 6 tensors)

input_layer.weight f4 [256, 28]
000000 c1 43 a4 bd cf a8 97 3d 38 e6 ab 3b d9 6a 50 3d
       -0.080207355 0.074052446 0.00524595 0.050883148
000010 89 8c 96 bc b4 97 80 3e 4d f1 49 bd 4a a8 df 3b
       -0.01837756 0.2511574 -0.049302388 0.0068254815
000020 5d e7 2d 3e 5a 7d e8 bc cf 22 9e bd b6 f6 04 3d
       0.1698279 -0.028380085 -0.07721483 0.032461844
000030 fc 27 10 bd ed 1c 1f 3d d4 c9 07 3e 43 8c 99 3c
       -0.035194382 0.038845945 0.13260585 0.01874364
000040 76 be 38 be 2f 5b a0 bd 4a 75 3b be 44 a8 cc 3d
       -0.18041405 -0.07829892 -0.18306461 0.099930316
000050 25 0c 94 bb 2d f8 82 bd 13 9d d0 3d 18 4a 29 be
       -0.0045180493 -0.06394992 0.101862095 -0.16532171
000060 88 17 6f be c8 39 3e 3e 60 60 38 be 90 cd 0e bd
       -0.2334882 0.1857673 -0.18005514 -0.03486401
000070 69 13 0e 3e 29 c7 53 be f4 4e b6 bd cd 5d ec 3d
       0.13874592 -0.20681442 -0.08901778 0.115413286
000080 f2 12 f8 bd 9c 33 55 be 70 7a 8f bc 80 f3 74 3d
       -0.121129885 -0.20820469 -0.017514437 0.059802532
000090 68 d5 ed bd 77 c8 cf bd 3d 50 1f 3e 9f 0e 7d 3e
       -0.1161297 -0.101456575 0.15557952 0.24712609
0000a0 40 58 2b be 06 3b 08 be 51 9d f4 3c f3 08 8b 3d
       -0.16732883 -0.13303766 0.02986017 0.06788816
0000b0 e7 87 57 3e 19 f2 18 be 31 65 87 3d 20 03 0d be
       0.21047936 -0.14936103 0.066110976 -0.13770723
0000c0 18 c6 d2 3c 6e e4 0f 3c d1 9b c7 bd ec c8 5f 3e
       0.025729224 0.008782489 -0.097465165 0.2185399
0000d0 1a 61 a6 be 92 d2 50 3d 58 16 c5 bc 74 71 69 bd
       -0.32495958 0.050982065 -0.024058506 -0.056992963
0000e0 3d fe 65 be c9 fc f2 3d 76 af 95 b9 c9 27 33 bd
       -0.22460265 0.11864621 -0.00028550223 -0.043739114
0000f0 48 c3 85 3d 32 92 1b 3e d8 cf 59 3d c2 3a 12 3e
       0.065313876 0.15192488 0.05317673 0.14280227
000100 a0 88 e2 be e6 a8 f1 3d ed 44 e8 3d ec 23 2a 3d
       -0.44244862 0.11799793 0.113412715 0.041538164
000110 61 4a 2b 3d 61 9d 86 36 0d 32 7b 3d 9a 36 21 be
       0.04181898 4.0118325e-06 0.06132703 -0.15743485
000120 8b c9 63 bd 1a c6 2c bd 9e 9a 50 be 4f e0 9c 3d
       -0.05561213 -0.042181112 -0.20371482 0.07659971
000130 52 fe 0e be 28 2a a4 3d 60 99 e3 3d ed ee f4 ba
       -0.13964203 0.08015853 0.11113238 -0.0018686928
000140 51 fa 1d bd 2e 99 8b be 5d 61 49 be 94 a4 1e 3e
       -0.0385688 -0.27265304 -0.19666047 0.15492469
000150 02 5b c7 bb 7a 94 f0 bd 1e 1a de 3b 03 bf f9 3d
       -0.006083847 -0.1174707 0.0067780158 0.12194636
000160 93 b6 97 3d 89 b3 c3 3d 21 9c 67 bd 7e 25 3b 3d
       0.0740787 0.09555728 -0.05654538 0.045690052
000170 4a d8 d3 be 03 cf 9f 3e ef 15 2c 3e 14 8f f1 3d
       -0.41375953 0.31212625 0.16805242 0.11794868
000180 b2 03 01 3e 60 ec a0 3d d5 2b 77 bd 43 07 d0 bd
       0.12599066 0.07857585 -0.060344536 -0.10157635
000190 97 6d 57 3b 65 1b b2 bd 31 59 24 be 6d b3 7e 3d
       0.0032871717 -0.08696631 -0.16049649 0.062182833
0001a0 f5 bc ae ba cc 23 13 be e4 73 f7 3d f6 96 87 3d
       -0.001333146 -0.14369124 0.12082651 0.066205904
0001b0 e3 2a 29 bd e2 86 7b bc cb 5c a6 3d c1 34 60 be
       -0.041300666 -0.015351983 0.081231676 -0.21895124
0001c0 6a df c3 bd 25 68 c4 bd ce 09 e3 3c d2 12 03 bd
       -0.09564097 -0.095901765 0.027714636 -0.03200037
0001d0 be 7b 20 3e 49 5b 2e be ed d1 3f 3d 6e c2 3e 3e
       0.15672204 -0.1702701 0.04683106 0.18628857
0001e0 b4 e7 b0 be c6 89 1d be 82 f9 83 3d b0 83 24 3e
       -0.34551775 -0.15384588 0.06444074 0.1606586
0001f0 d2 25 0e be 7a a2 35 3d 70 83 37 3e 70 c4 32 be
       -0.13881615 0.044344403 0.17921233 -0.17457747
000200 1f b2 c5 3c 49 e2 93 3d 40 18 47 bd a1 8e 89 bd
       0.024132786 0.07220895 -0.04860711 -0.067166574
000210 39 78 31 be bb 1b bf bd 38 3e 83 3e 99 7c 61 be
       -0.17331018 -0.09331461 0.25633407 -0.22020186
000220 1b ba b4 be 7b c1 94 be 65 ee d7 bd 9f 48 73 3e
       -0.35298237 -0.29053864 -0.10543517 0.23758171
000230 0e 38 84 be d0 1e 64 bd 5d ed 42 3d 50 81 c4 3d
       -0.25824016 -0.055693448 0.04758965 0.09594977
000240 03 15 8f bc 28 b0 93 bc 7b 53 38 3e d4 4b 4c 3e
       -0.017466074 -0.018028334 0.18000595 0.19950801
000250 79 f2 c7 bc 7c 66 97 bd 25 4a 80 3d b0 60 5f 3d
       -0.024407612 -0.07392594 0.06264142 0.054535568
000260 46 08 8a bc 0d 0b ee bd a0 e9 67 be f5 a0 10 3d
       -0.016849648 -0.116232015 -0.22647715 0.03530975
000270 20 6e 03 3d a6 a2 74 bd e4 2b 22 bd e0 e5 a7 be
       0.032087445 -0.059725426 -0.03959264 -0.32792568
000280 7f d6 ef 3d 0a af a3 bc ca 97 19 3e 86 01 a4 be
       0.11710834 -0.019980926 0.14999309 -0.32032412
000290 7e 56 a5 be b4 8d 9f bd f0 94 30 be e2 89 81 bd
       -0.3229255 -0.077906996 -0.17244315 -0.06325127
0002a0 88 05 27 3d 95 70 6f 3d d9 2c d4 3d 36 7e f3 3c
       0.04077676 0.058456976 0.103601165 0.029723268
0002b0 7f 4c 49 3e 8e ac ae 3d 38 40 0f 3e 5a 13 e5 bc
       0.19658087 0.08529006 0.13989341 -0.02796333
0002c0 47 02 d7 bd fb f5 1f be f0 d6 1e bd 4b 64 83 3d
       -0.10498481 -0.15621178 -0.0387792 0.06415614
0002d0 84 9e 3d be e8 74 b9 bd ce 7e 10 be 58 5b e5 3d
       -0.185175 -0.09055501 -0.14110872 0.11199063
0002e0 9b 30 35 be 3d 7e de 3c 6b ed 86 bd 01 de 25 be
       -0.17694323 0.027159804 -0.06588253 -0.16197969
0002f0 46 9c 3e 3e e5 ca 1e 3d c1 4d 29 be e4 c5 d8 bd
       0.18614301 0.038767714 -0.16533567 -0.1058462
000300 95 e8 23 bd f9 e4 33 3e 68 b2 c4 bd 06 8a a7 3c
       -0.04001673 0.17567815 -0.09604341 0.020451557
000310 4c 4a dd bd 95 04 27 3e 3d 44 21 3c 56 45 f3 bd
       -0.10805187 0.16310342 0.009842929 -0.11878459
000320 bc b4 f2 bd 2c 8f 52 bc 17 9f 95 3d 95 bc 8a bd
       -0.118508786 -0.012851518 0.073057346 -0.067742504
000330 cc 21 65 be 7c 60 bf 3d c5 f4 6d be 6c a5 c6 3d
       -0.22376174 0.09344575 -0.23237903 0.096995205
000340 ad 9e 03 bc 59 f8 7d bd 54 32 4a 3d e8 e2 89 be
       -0.008033437 -0.06200442 0.049364403 -0.26930928
000350 91 c4 e7 3d 40 95 a2 bc b3 4f 2c bd af 69 84 be
       0.11316789 -0.019846559 -0.042068195 -0.2586188
000360 8d 4d b2 be 0c f1 c2 bd f1 09 4e 3d bc 19 cc bc
       -0.34824792 -0.09518632 0.05030245 -0.024914615
000370 a4 b8 70 be ad 5c 7f bb 12 ac f3 3c a9 14 d3 3d
       -0.23507935 -0.0038965151 0.029745135 0.10306675
000380 01 c7 39 bc 77 19 4a 3d 17 49 e6 bd 91 05 1d be
       -0.01133895 0.04934069 -0.112444095 -0.15334155
000390 46 1c 9c 3d 2e 4a c1 ba 3a 78 d5 3d 3e 8e 38 bc
       0.0762258 -0.0014746839 0.10423322 -0.011264382
0003a0 b7 f6 7c be 88 a7 1f 3e 1f 5a 66 be 60 b2 53 bc
       -0.24703489 0.15591252 -0.22495316 -0.012920946
0003b0 b8 d3 01 3d 4b ae 95 3d ae ce 6b 3e 04 b8 8a bd
       0.03169605 0.07308634 0.23028061 -0.067733794
0003c0 a5 ba 15 be 7a 41 ba bd a2 9b b0 3d 6b d1 a8 bb
       -0.1462198 -0.0909452 0.086234346 -0.0051519177
0003d0 fe 3a 3d be 8f bf be bd b9 5a 87 bd 8d 7c e8 3d
       -0.18479535 -0.09313881 -0.06609101 0.11351881
0003e0 65 cb c6 3d 02 c0 0b be 8f 0d e5 bb eb bd 2c be
       0.09706763 -0.13647464 -0.0069901417 -0.16869323
0003f0 bf c7 53 bd 9d d9 15 3e cb 74 44 bd 79 d6 40 bd
       -0.051704165 0.14633794 -0.047962945 -0.047079537

input_layer.bias f4 [256]
000000 6f 47 c4 bd 6e cb 1a be 9e 35 aa 3d bb 95 a4 3e
       -0.095839374 -0.15116665 0.08311008 0.32145485
000010 4f 9e 4d 3e bc af e6 bd 87 8a 20 be b9 9e 7a 3c
       0.20079921 -0.112639874 -0.15677844 0.0152966315
000020 77 31 5c bd 7e 51 10 3e d3 29 0b be 44 7c 4a 3e
       -0.05375811 0.14093587 -0.13590173 0.19773966
000030 b4 4e ba bd bc 08 4a bb f2 48 8b 3d 6f 09 43 bd
       -0.09097043 -0.003082796 0.068010226 -0.04761642
000040 94 35 b4 3d 1a 37 6c bc fe 3b 39 be 0f aa 21 3d
       0.08799282 -0.014417434 -0.18089291 0.03946882
000050 ea 5b 06 be 4e e6 ee bd a9 ce 16 3e 50 9a b3 3d
       -0.13121 -0.11665021 0.14727272 0.08769667
000060 5f 48 0a bd 8a ff bb bc c1 0b c6 bd e0 e8 b2 3c
       -0.033760425 -0.022948999 -0.09670211 0.02183956
000070 4c 27 64 3e 84 7e 75 be ff 3f ad 3d 6f 8a b2 3b
       0.22280616 -0.23974043 0.08459472 0.0054486315
000080 5a 7c d9 bd 2d 4c 87 3e 0d 15 dd 3b c5 0b 03 3d
       -0.10619421 0.26425305 0.006746894 0.031993646
000090 e3 2a 5d be a3 5e 7d be 5a cf bc 3d 9d 71 0d be
       -0.21598391 -0.24743132 0.09219237 -0.13812871
0000a0 64 2f 16 bc 1d 7c da bd fa 78 1a be 83 7c be bd
       -0.009166572 -0.10668204 -0.15085211 -0.093010925
0000b0 ea 9f 8b bd 2a 81 0e be b3 b1 9c bd 8e 37 b1 3d
       -0.068176106 -0.1391646 -0.07651081 0.08653174
0000c0 04 29 63 be ef b0 09 3d eb 7b 1e be 03 68 16 3e
       -0.22183615 0.033616003 -0.15476958 0.14688115
0000d0 75 f8 58 be 2f dd dd bd 59 fa 2a be 01 e6 be bd
       -0.21188529 -0.10833203 -0.16697063 -0.093212135
0000e0 19 85 2d be 3a 2d ef 3c ac 08 82 be 13 60 a7 3a
       -0.16945304 0.02919637 -0.2539724 0.0012769721
0000f0 c1 39 47 3d 39 d6 a3 bb 5d 8b 6e bb 41 0e 09 3a
       0.048639063 -0.0049999026 -0.0036398985 0.0005228259
000100 79 88 20 be 06 38 ef 3c eb c9 2e 3e 81 7b 84 bd
       -0.1567706 0.029201519 0.17069213 -0.06468869
000110 95 c0 1f be bf c2 21 be 3f a7 b9 bd e7 2c 18 bd
       -0.15600808 -0.15796946 -0.09065103 -0.037152197
000120 2c 46 00 be 68 a2 2f 3e 78 a7 92 3d a3 29 d8 bd
       -0.12526768 0.17151797 0.071608484 -0.105548166
000130 86 46 1b be 26 41 28 3c 6f 2b 8b 3d c9 3f 6b bd
       -0.15163621 0.010269439 0.06795394 -0.057433877
000140 79 b9 0b 3e 6d 21 0f be 6c 69 2d be a0 a1 52 bd
       0.13644971 -0.13977595 -0.16934747 -0.05142367
000150 e5 3a 96 bd 62 d4 77 bc 0a 65 e1 bd c7 05 0b 3e
       -0.07335452 -0.01512632 -0.110056 0.13576423
000160 82 42 0c be 8b 8f 96 bd 13 14 1f bc 47 6c a6 ba
       -0.13697246 -0.073515974 -0.009709376 -0.0012697064
000170 8c 31 12 3d 7d df 75 3e 70 89 03 3e c0 53 31 3e
       0.035691783 0.24011035 0.12845397 0.17317104
000180 4f fa b5 bd 35 47 a8 bd 52 2b 8b bb 1a 98 42 3e
       -0.08885633 -0.08216707 -0.0042471075 0.19003335
000190 07 eb 8d 3b 19 ac e5 bd 1d 0c 58 be 69 a4 06 3e
       0.004330996 -0.11214466 -0.21098371 0.13148655
0001a0 4c 16 21 3d b0 2e 65 be ec e8 7c 3e c3 43 4a be
       0.039327905 -0.22381091 0.24698228 -0.19752412
0001b0 fb 33 ab bd a0 0a 24 be 28 91 a9 bd e9 2b b7 bd
       -0.08359524 -0.16019678 -0.082796395 -0.08943922
0001c0 f8 3c 6a 3d 35 fe 4d 3c 4c 5c e2 3c 4a ca b7 3d
       0.05718705 0.012572815 0.027631901 0.089741305
0001d0 7a 96 1e 3c 2e 9c bc bc 18 c7 4e bd e7 64 53 3e
       0.009679431 -0.023023691 -0.05048284 0.2064396
0001e0 e3 11 c9 bc c4 80 87 3d 61 01 c7 3d 6e d7 8e 3c
       -0.024544662 0.06616357 0.0971706 0.01743671
0001f0 f0 82 3a 3e 05 e4 ed bd 75 37 32 bd 53 6f 7e bd
       0.18214011 -0.11615757 -0.04350992 -0.062117886
000200 c9 b4 3f be 40 41 d9 3c fe e5 85 3d 9e 87 58 be
       -0.18721308 0.026520371 0.06538008 -0.21145484
000210 de 04 02 be 99 52 16 3e 7f 2d 99 bd d2 dc 50 3d
       -0.12697169 0.14679946 -0.07479381 0.05099184
000220 b8 51 fd bd a9 85 4c bd 6a 4a 00 bd e7 95 2d be
       -0.12369102 -0.049932156 -0.031320967 -0.16951714
000230 ff d4 7a be 2f 7c 59 bc 46 ce da 3c ea b9 ae 3d
       -0.24495314 -0.013274237 0.026709687 0.08531554
000240 ab 6f 4f bd 8f 87 20 be 50 d7 f0 bc f6 63 ae bd
       -0.050643604 -0.15676711 -0.029399544 -0.0851516
000250 ca d7 f7 3d 4b 44 d0 3d 54 7f 96 3b e6 93 86 3d
       0.12101705 0.10169276 0.0045928154 0.06571178
000260 ba e5 fd 3d ca c7 b8 bd cf 59 31 be 4b 58 b5 bd
       0.123973325 -0.09022482 -0.17319416 -0.08854731
000270 76 15 82 be d4 9a 82 be b6 4c a7 bd 6e 53 39 3c
       -0.25406998 -0.2550875 -0.08168928 0.011311395
000280 35 f4 c1 3d 7d a4 8c be cb 64 52 bd a7 5d ad bd
       0.09470407 -0.27469245 -0.051365655 -0.084651284
000290 1c 40 9e 3c 8a ee 94 3d dd ef 4d 3d ab 87 14 bc
       0.01931768 0.0727206 0.05027758 -0.009065549
0002a0 a5 e2 a3 bd d8 58 82 3c ef 6d 14 bb 91 cd 55 be
       -0.080022134 0.015911505 -0.0022648533 -0.20879199
0002b0 ef 37 a1 bd 52 5f 08 3e 57 d3 c0 3d bd a2 6e 3e
       -0.078719966 0.13317612 0.0941531 0.23304267
0002c0 30 7d 60 3e 0d 94 49 be 0c 8f d9 bd 5b 94 39 bd
       0.21922755 -0.19685383 -0.10622987 -0.0453075
0002d0 db 06 49 be ea 40 6c bd bd ab 1a bd 86 3a b7 bd
       -0.19631521 -0.057679094 -0.03776144 -0.08946709
0002e0 75 99 4b 3e 63 ea 7b 3d 83 12 c7 3b e9 28 00 3b
       0.19882758 0.061502825 0.006075205 0.0019555634
0002f0 eb 8d c2 bd b8 8f be bd 8b 56 e4 39 36 e6 04 be
       -0.09499725 -0.09304756 0.00043552028 -0.12978444
000300 0c ac 90 3c cb 75 c9 3c f6 81 a1 bd bb 23 2d 3e
       0.017660163 0.0245923 -0.07886116 0.16908161
000310 3a f9 36 3d 16 cb b3 bc aa 5d 3b be c1 57 0b 3c
       0.044671275 -0.021947425 -0.18297449 0.008504809
000320 e6 0f aa 3d 26 85 90 bd ce 19 40 be 90 c8 c3 bd
       0.08303814 -0.07056646 -0.18759844 -0.09559739
000330 c5 04 82 3d 52 1f 03 be 72 87 57 bd 48 e3 30 3d
       0.06348566 -0.12804917 -0.052619405 0.043185502
000340 98 64 7a be d3 c5 44 be 9c 4e 35 3e 5f 45 f5 3d
       -0.24452436 -0.19216089 0.17705768 0.11976122
000350 1e 4a 45 be a2 3c a8 3d ab 15 5a 3c c7 84 c4 bd
       -0.19266555 0.0821469 0.01331083 -0.09595638
000360 40 61 c3 3c c6 b5 76 3d e4 67 24 3e 95 88 93 3c
       0.023850083 0.060231946 0.16055256 0.018009463
000370 af 31 05 3d b5 4e b2 39 34 0e e7 bd 3c c2 84 bd
       0.032518085 0.00034009447 -0.11282006 -0.0648236
000380 18 70 59 bd f1 f3 47 3d 7b 76 a9 3c 06 07 63 be
       -0.053085417 0.048816625 0.020686379 -0.22170648
000390 ef ad b5 bd 72 86 75 3c 2d ad 28 3c 1f 93 38 be
       -0.08871066 0.014985668 0.010295195 -0.18024872
0003a0 65 ce c3 3d 99 86 1d be 7a 1f 66 3d cf ff 5b 3e
       0.09560851 -0.15383376 0.056182362 0.21484302
0003b0 40 24 24 be 64 f1 31 3d 7b a6 1a 3e f3 0a f3 3d
       -0.16029453 0.0434431 0.1510257 0.11867323
0003c0 fe 41 42 bd 60 b9 f6 bd ae 40 52 be 01 00 28 be
       -0.047426216 -0.12047076 -0.20532486 -0.16406251
0003d0 62 81 9e bd 5b cd 2b be 07 5b 05 be 54 f4 21 be
       -0.077395216 -0.16777556 -0.13023005 -0.1581586
0003e0 6b d8 7e bd d7 bd 10 3e c6 a4 c4 bd 1d dd 1f 3e
       -0.06221811 0.14134918 -0.096017405 0.15611692
0003f0 cc 1b 96 3d 94 9f 51 bc 31 53 fb 3d c1 ae 52 be
       0.073295206 -0.012794394 0.12271727 -0.20574476

dl1.weight f4 [256, 256]
000000 bd f6 76 3b 8f 17 35 3c 58 75 ae bd dd 2c 24 3c
       0.0037683689 0.01105298 -0.08518475 0.010020462
000010 9b 11 f1 bc 8d 0f 8b 3c bb bc c2 bb ee c5 92 3c
       -0.02942734 0.016975189 -0.0059429086 0.017916646
000020 24 fc 44 bc 63 cf 18 bb 3f 89 7f bd e1 13 97 bd
       -0.012023006 -0.0023316971 -0.062386747 -0.073768385
000030 aa 67 39 3e 7b ea 7a bd fc df b1 3d d1 68 41 3d
       0.18105951 -0.061258774 0.086853 0.0472191
000040 79 1d 6f bc 26 9d 9c bc b0 b3 20 be b9 94 8e 3d
       -0.014594429 -0.019117903 -0.15693545 0.0696196
000050 5c 6f 86 bd b4 bb 55 3d 02 0d be bc 78 78 d7 bd
       -0.06564209 0.05218096 -0.023199562 -0.105210245
000060 29 3b c7 3b c9 ed c8 3d 31 90 17 be 51 5e 1c bc
       0.0060800505 0.09810979 -0.14801098 -0.009543971
000070 55 f4 8a bd 92 b2 ec bc d0 54 7e 3c 50 29 33 3d
       -0.06784884 -0.028893743 0.015523151 0.04374057
000080 fd 9b e4 3d 84 ee 3d 3d a2 c5 35 be c3 60 72 3c
       0.11162565 0.046370044 -0.17751172 0.014793578
000090 c2 8b cc 3b d6 0a 20 bd a0 3d 8d 3d ea 66 13 bc
       0.0062422464 -0.039072834 0.0689652 -0.008996705
0000a0 45 91 95 bc 5b 43 31 bd 48 c7 cf bc 6d bc a1 3d
       -0.018257746 -0.043277126 -0.02536358 0.078972675
0000b0 de 52 ee 3d 19 44 9c bd 34 3c b5 bd 4e ff 47 bc
       0.116368994 -0.07630176 -0.088493735 -0.0122068655
0000c0 6d 86 f3 bb 4c f5 2d bd a7 4a 50 bd 1f 40 ab bc
       -0.0074317963 -0.04247026 -0.050852444 -0.020904599
0000d0 4e 45 86 3d 4e 0a 23 3e ea b7 3e be 84 82 56 3d
       0.065561876 0.159219 -0.18624845 0.052370563
0000e0 fe 68 17 bd 9a 8c ed bc 3d ca cc 3c 59 31 a1 bd
       -0.036965363 -0.028997708 0.024998778 -0.078707404
0000f0 7f f6 95 bd b5 80 84 3d d7 5b 2c bd fb a4 c4 3d
       -0.07322406 0.064698614 -0.042079773 0.0960178
000100 50 0b 77 bd b8 78 a2 bd f0 3b a4 bc ee 21 33 bd
       -0.060313523 -0.079331815 -0.020048112 -0.04373353
000110 86 71 8c 3d 83 92 24 3d 86 36 75 3e 2f 98 3f be
       0.068575904 0.040178787 0.2394658 -0.18710397
000120 db d1 8e bd 68 e7 e9 bd c8 6e 82 bd 9b 47 c1 bc
       -0.069736205 -0.1142109 -0.06368786 -0.023593714
000130 95 4a 5b bd 5b 12 73 bd e0 e4 62 3d 48 80 67 bc
       -0.053537924 -0.059343677 0.055394053 -0.014129706
000140 18 21 7b bd 19 ca 1a be 6e c0 33 bd 09 84 97 3d
       -0.061310858 -0.15116157 -0.043884687 0.073982306
000150 32 44 6e 3d 12 bc 20 bd f3 31 b9 bd ec 79 83 3c
       0.058170505 -0.039241858 -0.0904273 0.016049348
000160 64 fc cf 3b 56 70 60 3d fe 85 9f bd 0d 37 4a 3c
       0.006347226 0.054794632 -0.07789229 0.012342227
000170 7c 0d 83 bd e9 11 c9 bd 8e 7a e4 bc b9 89 0a be
       -0.06399056 -0.09817869 -0.02789047 -0.135291
000180 fa ee 36 bd 03 19 c4 bc 36 35 d0 ba f7 df 89 3d
       -0.0446615 -0.023937708 -0.0015884999 0.06732171
000190 dc 9e 1e 3d b5 46 d2 3d 90 91 2f bd 84 b4 66 3d
       0.03872572 0.102673925 -0.04286343 0.056324497
0001a0 c8 ff b8 3d b4 54 92 3d 9c cd c5 bc 7b 31 7e bd
       0.090331614 0.07145062 -0.024145894 -0.062058907
0001b0 e7 cb b1 3d c1 79 8b 3d 2c d4 73 3d c0 d9 07 3e
       0.086814694 0.06810332 0.059528515 0.13266659
0001c0 9d 71 a5 3c 4c f2 3f 3c 9d 33 97 3d 24 7b 84 bd
       0.020195777 0.011715483 0.07382891 -0.064688
0001d0 82 79 e8 bc e9 e2 25 3d e2 af c1 3b 46 c9 41 bd
       -0.028378252 0.0404996 0.0059108594 -0.04731109
0001e0 73 50 5b bd c8 f2 10 3d 6e 3b b9 bd f4 68 0f 3d
       -0.05354352 0.035387784 -0.090445384 0.0350122
0001f0 92 a3 28 be a6 fb 4c be 63 48 d3 3d f6 6d 35 bd
       -0.16468647 -0.20017871 0.10316541 -0.04429432
000200 19 37 ec 3c f8 19 79 3d 70 13 8c 3b 64 e8 67 bd
       0.028834866 0.06081578 0.004274778 -0.05661811
000210 a3 b3 8b 3d 4d de 9a bd d9 52 ce 3b 14 08 48 bd
       0.06821372 -0.07561932 0.0062964973 -0.04883583
000220 7e e2 9c 3c 73 90 7b bc e3 9f c4 3d ca 52 b2 3d
       0.019150969 -0.015354264 0.096008085 0.08707197
000230 ee ee 16 bc 77 b2 20 be 19 3f 21 bd ab 42 94 bb
       -0.009212239 -0.15693079 -0.039366815 -0.004524549
000240 03 aa 84 3d 09 d5 a0 bc 38 a8 2d be fd 24 a1 3c
       0.0647774 -0.019632833 -0.16958702 0.019670958
000250 fb 46 fc 3b e6 dc 82 3d b0 df a5 bd 8b cf 4e 3d
       0.007698891 0.06389789 -0.08099306 0.050490897
000260 6a 4b a9 bd 18 f3 69 bd 09 50 40 3d f2 85 51 3c
       -0.08266337 -0.057116598 0.046951327 0.012788283
000270 7b 37 38 3d 0c 2c 1f bd 72 cb 41 3d 60 d9 6b bd
       0.044974785 -0.038860366 0.04731316 -0.05758035
000280 7c 72 a2 3d f1 b8 b5 bd c0 b5 34 3d 2c eb 6c bc
       0.079319924 -0.088731654 0.044118643 -0.014460366
000290 5c 5b 75 bc 6b 25 98 3d 81 d0 a1 3c 40 f9 4e 3c
       -0.014975395 0.07429012 0.019752743 0.012632668
0002a0 13 2b 61 3d 68 b1 54 bd eb 24 50 bd 59 b6 07 3e
       0.05497272 -0.051927 -0.050816458 0.13253154
0002b0 b8 c5 78 3d a6 64 8a bd b0 5e 54 bd bb bf 17 be
       0.060735434 -0.067574784 -0.051848114 -0.14819233
0002c0 dc 51 50 3d be af 0d 3d 85 96 62 3c 6c 3a 7a bd
       0.050859317 0.03459143 0.013829832 -0.06109087
0002d0 9e b9 44 bc de 4e c2 bc 8b b8 d0 3c c4 90 7c bd
       -0.012007145 -0.023719247 0.025478622 -0.061661497
0002e0 ed 11 9f 3d 7f 0d 63 bd 68 eb 39 bd 01 32 a6 3d
       0.07767091 -0.055432793 -0.045390517 0.08115006
0002f0 4e ae 1f bd d4 4c 3b bd 4c 60 39 3d d9 cf bb 3d
       -0.03898459 -0.045727566 0.04525785 0.09170503
000300 be 1e b5 3d 22 20 16 3c 4b b0 6c bd 1c da 68 bd
       0.08843754 0.0091629345 -0.057785314 -0.05684863
000310 48 08 30 bc ef fc 43 bd ab 4d 33 3d 5c 85 05 3b
       -0.010744162 -0.04784864 0.04377524 0.0020373678
000320 ba 02 0d 3d 5f 23 dc bb cc 4b 57 3d 54 22 71 3d
       0.03442643 -0.0067180838 0.05256252 0.05887063
000330 36 69 24 be c2 53 2b 3d 34 b0 13 3e d0 4f 12 bb
       -0.1605576 0.041827925 0.14422685 -0.0022325404
000340 e5 27 89 3d e6 72 b1 3c d5 33 df 3d 18 67 6f 3b
       0.066970624 0.021661233 0.10898558 0.0036529955
000350 d9 eb 2c bc 4b a0 0f bd 2b be 68 3d 74 bb cc 3d
       -0.010554277 -0.035064977 0.056821983 0.09996691
000360 2e 44 3f bc 22 fc 97 3d eb 62 e1 3c 43 5d e6 3d
       -0.01167397 0.074211374 0.027512988 0.11248257
000370 b0 62 0b be d0 93 1a bb ac c5 04 3d fc 41 f9 3d
       -0.13611865 -0.0023586638 0.032415077 0.12170789
000380 8c b4 6c bd 47 4f 88 bd 99 1f 02 bd b0 1a b5 bd
       -0.05778937 -0.06655746 -0.031768415 -0.08842981
000390 52 71 d0 3c a2 d2 32 3d 05 e9 7e 3d 0d b3 a9 bd
       0.02544466 0.043657906 0.062233943 -0.08286104
0003a0 fa 5b 27 bc 59 8c c7 3b 8b a0 97 bd d1 80 ba 3a
       -0.0102148 0.006089729 -0.07403668 0.0014229064
0003b0 98 b3 58 3d 7c 32 b9 bd 26 cf cd bc 83 ed af bd
       0.05290565 -0.09042832 -0.02512319 -0.08590224
0003c0 eb cc 96 bb ca 35 da bc 57 28 df 3d fa dc f5 bd
       -0.004602065 -0.026636977 0.10896366 -0.120050386
0003d0 56 2c 4e bd a0 cd e2 3c c8 98 fb bc 80 d0 e1 bd
       -0.05033525 0.02768594 -0.0307125 -0.11026096
0003e0 93 9e 86 bd 00 25 28 be 01 0f d6 bc 02 9d d6 3d
       -0.065732144 -0.16420364 -0.026130201 0.104791656
0003f0 6f c6 23 bd ab 9e f8 3d cc 17 a1 3d 8f 03 14 bd
       -0.039984163 0.121396385 0.07865867 -0.036136206

dl1.bias f4 [256]
000000 7d 1d c0 bc d8 b2 78 bd a8 ba df bd 3d d9 bd bc
       -0.023451561 -0.060717434 -0.10924274 -0.023174876
000010 08 bf ad bc 68 68 ce bd a6 4e 95 bd 80 34 99 3c
       -0.021209255 -0.10078508 -0.072903916 0.018701792
000020 f1 69 7f bc c4 7b 32 bc b0 16 9a bd 69 e5 88 3c
       -0.015589223 -0.010893766 -0.075238585 0.016710954
000030 e1 b0 68 bd 07 61 c3 bd db 12 97 bd a9 2f 62 bd
       -0.05680931 -0.09539991 -0.07376643 -0.055221234
000040 08 33 02 be 79 78 33 3d 76 df c4 3c d4 8f 61 3c
       -0.1271478 0.043816064 0.024032336 0.013767201
000050 09 fa 64 3c ec 5f 9f 3c 33 42 d5 bc a1 d5 cc 3c
       0.013975629 0.019454919 -0.026032543 0.02500421
000060 81 fa c8 3c bb f3 83 bb 2e 7a d5 bb fd b2 cf bd
       0.024533512 -0.0040268577 -0.006514809 -0.10141561
000070 03 b7 d0 bd 39 a0 b4 bd 2e d1 b3 bd 38 24 b1 3c
       -0.10191157 -0.088196225 -0.08780132 0.021623716
000080 b4 1a d6 bc 80 02 61 3c 73 17 23 3d fc 3e aa 3c
       -0.02613578 0.013733506 0.039817285 0.020781986
000090 9f 23 cc bc 5a 75 49 bd 4c f1 99 bd a6 a3 27 3d
       -0.02491933 -0.04918418 -0.07516727 0.04092755
0000a0 5b e8 5d bd 1a d5 8f bd 16 ce f2 3c fb 92 c5 bd
       -0.05417667 -0.07023068 0.029639285 -0.09647175
0000b0 5b 88 db bd e7 86 29 bd 5a 11 ec 3b 02 54 ab bd
       -0.10719367 -0.04138842 0.007204217 -0.083656326
0000c0 7f 0a 3f bd 71 1c 64 bd d9 73 71 bd 3f 9e b4 3c
       -0.04664087 -0.055691186 -0.05894837 0.022048114
0000d0 26 7f 53 bd 06 60 bd 3b 05 0c 37 bd d3 b4 c6 3c
       -0.05163493 0.005779269 -0.044689197 0.024256146
0000e0 b8 98 e4 bd 82 19 9b 3c 47 23 8d bd 4d 1c 16 bd
       -0.11161941 0.018933062 -0.06891494 -0.036648083
0000f0 75 8a 9b bd 88 b8 1d bd 14 e4 0b bd 57 b2 45 3c
       -0.07594768 -0.03850606 -0.03415306 0.012066445
000100 a8 f9 e0 bd a0 fe db bc e8 13 68 3d d1 8e a2 bd
       -0.10985118 -0.026854813 0.05665961 -0.07937396
000110 74 bf 4d bd 4f 58 e9 3c 22 c9 b9 bd 9d 9d 3a 3e
       -0.050231412 0.028484492 -0.09071566 0.18224187
000120 a1 ce a4 bd 8d d7 c1 bd 35 cb f8 3d 6a 78 67 3b
       -0.08047224 -0.09464941 0.12148134 0.0035319575
000130 92 cb 29 bd 24 6a 10 3d d2 6a 57 bd 9f 2e 8b 3d
       -0.041453905 0.035257474 -0.052592106 0.06796002
000140 b2 92 83 3c d5 12 e7 bd 40 a7 5b 3c 97 53 ba bd
       0.01606116 -0.11282889 0.013406575 -0.09097975
000150 46 85 20 3e 8a 1c 2a 3d c6 5c d3 bb a7 8d a3 bb
       0.1567584 0.041531123 -0.0064502684 -0.0049912515
000160 8d b9 8f bd bd 68 37 bd 28 62 01 be 57 de b5 bd
       -0.07017813 -0.04477762 -0.126351 -0.088802986
000170 90 3b 0e 3d b7 5d ab bd e2 7a ba bd 55 1f 83 bd
       0.034724772 -0.08367484 -0.09105469 -0.064024605
000180 2a 69 07 bd a0 6e b6 3d 5a 89 ec 3c 70 fb 81 bc
       -0.033059277 0.08907819 0.028874088 -0.015866965
000190 b8 1f 6c bd 17 78 69 3d 9b 3f 37 3d 24 96 89 bd
       -0.057647437 0.056999292 0.044738393 -0.0671809
0001a0 ad 4b c2 bd 60 7f b1 bb 8f e2 02 bd 2b 59 be bd
       -0.0948709 -0.0054167956 -0.031954344 -0.09294351
0001b0 81 ee a9 bd 54 09 fa bc 14 87 9b 3d 5e 4e 92 bd
       -0.08297444 -0.030522026 0.075941235 -0.071438536
0001c0 cc fd ac bc 6f a0 6b bd d9 e9 f3 bd df c5 23 bd
       -0.021117114 -0.05752605 -0.11909837 -0.039983626
0001d0 28 98 5f 3d 2f fb 43 bd e7 21 93 bb 43 7b 34 bd
       0.054588467 -0.04784697 -0.0044901255 -0.044062864
0001e0 f9 ce 9c 3d a2 4e a5 bd 31 75 69 bc 64 47 dc bc
       0.076566644 -0.08071639 -0.014249132 -0.02688951
0001f0 a7 c3 a5 bd bc f2 0a 3c 78 7e 8e 3c 69 cd 7d bc
       -0.08093958 0.008480724 0.01739429 -0.015490868
000200 70 00 f6 3d 45 34 7f 3c ca 70 e5 bd 6a 66 03 be
       0.12011802 0.015576427 -0.112031534 -0.12832037
000210 18 0f ba bd 2d 02 c1 bd f1 5f a1 3d e6 98 c4 bb
       -0.0908491 -0.09424243 0.078796275 -0.005999672
000220 22 55 46 bd c6 5f 88 bd c1 e7 bb bd e8 9d ab bc
       -0.048421033 -0.06658892 -0.09175063 -0.020949319
000230 2b 84 fb b9 1b ad 0c bd bb 3f a9 bb 29 2d c7 ba
       -0.00047972923 -0.034344774 -0.005165068 -0.0015195954
000240 73 14 2d bd 38 2c 8a bd 7b b3 79 bd 1e bb d1 3d
       -0.04225583 -0.06746715 -0.06096218 0.10240768
000250 d6 88 9a 3c a0 fb 82 3c 4d 01 3f bb f7 19 f6 bc
       0.018864077 0.015989125 -0.0029145062 -0.030041678
000260 4f 70 6d bb d4 bb 19 be 90 91 ed 3d 51 5e 1e bd
       -0.0036230271 -0.15013057 0.116000295 -0.038664166
000270 d7 ea 20 bd 04 f1 00 bd bd af 8e bd 77 93 03 3d
       -0.03928646 -0.03147985 -0.06967113 0.032123055
000280 c2 9e 2a be 05 83 f8 bc 5d 98 04 bd 66 d4 7a bb
       -0.16662124 -0.030335912 -0.032371867 -0.0038273572
000290 f0 58 a4 bc 06 6b 46 3c 6f 6a 8d bd 7f 46 4a 39
       -0.02006194 0.012110477 -0.06905066 0.00019290483
0002a0 8d 22 a2 bd de 59 19 3c 56 8d a1 bd 91 73 a3 bd
       -0.07916746 0.009359805 -0.07888286 -0.07981027
0002b0 d7 12 7a bb d7 11 43 bd 8c 63 d6 3b a1 90 2d bd
       -0.0038158202 -0.047624435 0.0065426286 -0.042374257
0002c0 34 cb 94 bd 5d 3b 13 3d 47 26 08 bd f5 b6 1a bd
       -0.072653204 0.035945285 -0.03323963 -0.037772138
0002d0 0d 15 0f be ae 2d 5f bc c2 52 e5 bc c7 bf b4 bc
       -0.13972874 -0.013621731 -0.027993564 -0.022064103
0002e0 97 5e b6 bd d4 32 d7 3b 7c 10 92 bd c2 bd c8 bd
       -0.0890476 0.0065673385 -0.071320504 -0.098018184
0002f0 10 52 62 bd 2b 53 b0 bc db 76 cf bc ac d8 03 bd
       -0.055254042 -0.021524033 -0.02532523 -0.032189056
000300 f8 e5 39 3d 76 a6 32 bd ff a3 28 3c 05 14 0d 3d
       0.04538533 -0.04361578 0.010293006 0.03444292
000310 03 0a 12 bd 4b 40 af 3c b3 bf 31 3d 50 fc c3 bc
       -0.03565408 0.021392962 0.04339571 -0.023924023
000320 3c 2f cc bd 59 ad ff 3b ba a2 95 3d e6 89 ff 3d
       -0.09969947 0.007802647 0.07306428 0.12477474
000330 06 97 4e bc 62 2a ef bc 42 65 99 3d 31 0c 87 3b
       -0.012609249 -0.029195014 0.074900165 0.0041213264
000340 0f 43 e6 3c 21 9e e7 bd 20 7d f2 bc 97 6f 2f 3c
       0.028108148 -0.113094576 -0.02960068 0.010707757
000350 02 1d 31 3d e2 bb 6b 3d c2 c8 eb bb e4 83 0b 3c
       0.043240555 0.057552226 -0.007195563 0.008515332
000360 40 14 d2 bc 6b fd 28 bd ca 14 97 bd 0b a0 99 3a
       -0.025644422 -0.041257303 -0.07377012 0.001172067
000370 b1 37 7b 3d 0a 4b 50 bd 63 32 64 bd 5e 2c 73 3d
       0.06133241 -0.050852813 -0.055712115 0.059368484
000380 0a 46 c6 bd dd bc 16 bd e7 e5 0e 3c 1f c8 d1 bc
       -0.09681328 -0.036801208 0.008721805 -0.02560812
000390 ad 14 88 bb 68 34 bf bc 50 3f e5 bd 7d 86 e3 3c
       -0.0041528554 -0.023340419 -0.111937165 0.02777409
0003a0 a4 cf 47 bd 0d b4 09 bd f7 b3 0d bc 12 7d 1b bd
       -0.048782006 -0.033618975 -0.008648864 -0.037961073
0003b0 8a 7a b3 bc 18 fb 1e bd df f6 59 3c 79 1a 9f bd
       -0.021909017 -0.03881368 0.013303488 -0.07768721
0003c0 a7 95 0a be 97 10 04 bd 3f 73 1e bd 49 bc 78 bd
       -0.1353365 -0.032242384 -0.038684126 -0.060726438
0003d0 92 92 4d bd b0 04 83 bd 97 a8 a2 bc 11 bd 4a 3d
       -0.05018861 -0.063973784 -0.01985578 0.049496714
0003e0 b8 c0 fd bd 79 01 01 bd 7e 9c 97 bd c3 b6 12 bd
       -0.12390274 -0.031495545 -0.074028954 -0.035818826
0003f0 25 cb c4 3c f6 41 8a bd 6c 3b c4 3d 58 7d 0b be
       0.024022648 -0.06750862 0.09581646 -0.13622034

output_layer.weight f4 [45, 256]
000000 1b 41 bb 3d 4a d7 57 3d dc 4a 82 3d 2f c0 d2 bb
       0.09143277 0.05269555 0.063619345 -0.0064316015
000010 46 a7 bf bc fb c9 13 3e f7 f8 70 bd 38 75 ca 3d
       -0.023395192 0.14432518 -0.05883118 0.09885639
000020 40 0a 5c bc 8c 91 2e 3e 07 a1 ac bd 72 5e 0c bd
       -0.013430178 0.17047709 -0.08429151 -0.034269758
000030 24 0c 41 3e fd d9 e4 3c e2 71 ca 3d 2c 2e 35 bd
       0.18852288 0.027935976 0.09885003 -0.044233486
000040 b6 d4 ab ba 43 60 90 3c 57 b3 81 3d 14 b7 23 3c
       -0.0013109657 0.017624026 0.063330345 0.00999238
000050 3a ba 18 bd 5f 39 17 3c b0 a7 c3 3e 4e 4a 6d bb
       -0.037286974 0.009229987 0.38213873 -0.003620762
000060 cb ed 2e bb d1 42 75 3c 40 a0 ce bc d4 d4 ac ba
       -0.0026692029 0.014969544 -0.025222898 -0.0013185986
000070 55 0c 48 3c 3e 73 e5 3c 9d 49 57 3d b8 7e c3 3d
       0.012209971 0.028009053 0.052560437 0.09545654
000080 fb d8 dc 3d 82 80 55 3d 21 a3 74 be 1e aa 1b 3d
       0.10783573 0.052124508 -0.23890354 0.038004033
000090 d5 22 45 3e f5 d4 0e be de 35 28 3d 4b e5 ba 3d
       0.19251569 -0.13948424 0.041066997 0.091257654
0000a0 9f dc da 3d d4 49 f1 bd 7a ff 6d bd 52 da 64 bd
       0.106866114 -0.1178166 -0.05810497 -0.05587227
0000b0 86 10 d1 3b 2e 68 4e bd 4c 8d fe bc cd c5 1c 3d
       0.0063801436 -0.050392322 -0.031073235 0.038274575
0000c0 96 24 b9 3d 1a b0 93 bc f2 2d 32 bd 40 d6 98 3c
       0.09040181 -0.018028308 -0.043500848 0.01865685
0000d0 a1 c4 03 3e 06 cf 9f 3d f6 a3 6e bd b3 ac 1c bb
       0.12867977 0.078031585 -0.058261834 -0.0023906648
0000e0 9c 5b b4 3d ca 88 0d be 16 fb 31 3d ea 14 f6 bc
       0.088065356 -0.13821712 0.043452345 -0.03003927
0000f0 fd 86 a8 3d 2f 89 91 3d 90 c7 b9 bb 92 a4 05 be
       0.08228872 0.07106244 -0.0056695417 -0.1305106
000100 ba df 3c be 4d 0e 05 3c 09 48 b7 bc 2d 15 be bd
       -0.1844472 0.008121085 -0.022373216 -0.09281383
000110 8b 98 1f 3e 84 e4 d0 3c 6a c8 bf 3d 80 3c 1c be
       0.15585534 0.02549959 0.09364398 -0.15257454
000120 1a 85 11 3d 90 0b 4b 3c c4 64 cb bd 00 77 77 3d
       0.035527326 0.012392893 -0.09931329 0.06041622
000130 17 81 03 3d 56 41 af 3c 4f 3c 85 3e cf 97 2c 3f
       0.03210553 0.02139346 0.26022574 0.6741914
000140 1c 27 49 be 35 15 8d 3c 20 08 48 3e 67 ad 6a 3d
       -0.19643825 0.017222026 0.1953435 0.057294276
000150 cb d3 91 bd 55 85 4f 3c e2 e7 d8 3d 47 b7 2a be
       -0.071204744 0.012666066 0.10591103 -0.16671477
000160 e0 6d 07 bd b5 b0 8a 3d 5e 8d 20 3e 43 5f 38 3d
       -0.03306377 0.067719854 0.15678927 0.045012724
000170 79 0c 55 bd 47 ec a2 3d d6 91 22 bd f2 a8 6d 3d
       -0.052013848 0.079552226 -0.03968986 0.058022447
000180 c6 d5 0f bd e6 09 49 be da d3 31 bc 94 e2 0c bd
       -0.03511598 -0.19632682 -0.010853732 -0.03439577
000190 0c 72 d7 3c dd e0 15 3d 47 61 a4 3e 70 7b 92 bb
       0.026299499 0.0365914 0.32105467 -0.0044702813
0001a0 d2 c6 86 3c e9 99 08 bd c7 a3 17 bd 0e 80 c6 3d
       0.016452227 -0.033349905 -0.037021425 0.09692393
0001b0 13 42 44 bc ad 5f 68 3d 4c ed 87 bd a0 d4 30 3c
       -0.011978644 0.05673187 -0.06637058 0.010792881
0001c0 c9 05 1e 3d 86 93 4b 3d ab 35 6b bd 4e 71 5d bd
       0.038579736 0.049701236 -0.05742423 -0.054063134
0001d0 02 ea 47 bd bc 65 62 bc df ec 8d bd 27 9e 90 bd
       -0.04880715 -0.013818201 -0.06929945 -0.07061415
0001e0 3f 89 3e 3d c0 5a 62 3d a6 5f 2c 3d 79 7d 8b bc
       0.046517607 0.055262327 0.042083405 -0.017027603
0001f0 c3 38 b3 3d 3e c9 a3 3c 86 46 b6 bd ed 34 9b bc
       0.08751061 0.01999342 -0.0890017 -0.018946135
000200 f8 11 aa be 6a 2f 2a be 17 81 7f 3c 50 f8 b7 3d
       -0.33216834 -0.1661965 0.015594742 0.08982909
000210 e5 e6 41 3d 01 f9 0a be 7a b1 b1 bd 6c 30 24 3d
       0.04733934 -0.1357155 -0.08676429 0.04008524
000220 2a 57 4a 3d 78 78 86 3e c6 f3 28 bd 20 10 c1 bc
       0.049399532 0.26263785 -0.041248105 -0.02356726
000230 75 8a 6a bd 40 e2 2c be 8e 05 7b 3d 60 c5 91 3c
       -0.05726095 -0.16883183 0.061284594 0.017794311
000240 cc 2b ed 3d 00 57 2f 3a c5 04 ad 3e 4a df fe bd
       0.11580619 0.0006688684 0.337927 -0.12444933
000250 66 14 2e bc 4b f7 c3 bc 49 39 aa bd a7 22 c4 bd
       -0.010624981 -0.02392163 -0.083117075 -0.09576922
000260 2e 68 59 bd 15 2b d4 3e fa 96 9c bd 23 db 27 bd
       -0.05307787 0.4143912 -0.07645984 -0.04098047
000270 fc fd e1 3c ec 67 08 3e 34 4a 99 3c 6a 4e ca bd
       0.02758693 0.13320893 0.01871214 -0.098782375
000280 99 eb 0b be 2b 8e 38 be e1 cb a9 3e 7d e6 4e 3b
       -0.13664092 -0.18022983 0.3316336 0.0031570487
000290 66 04 1b 3e 0b f5 15 bd 55 07 83 bc 67 ab f7 bd
       0.15138397 -0.036610644 -0.015994707 -0.12093239
0002a0 d3 11 3b be 86 7d 16 3e 9a ec f6 bd b7 28 02 bb
       -0.18268518 0.14696321 -0.12056847 -0.0019860694
0002b0 2e fe 2e 3d 97 25 a9 bd a7 c6 b7 bd cc b6 21 3d
       0.042722873 -0.08259123 -0.08973437 0.03948097
0002c0 5a d9 32 bd 25 82 2c bd 01 8e 7d bd a1 9c a5 bc
       -0.043664314 -0.042116303 -0.061903004 -0.020216288
0002d0 ca fc 61 3c 67 75 fe bc 45 40 bb 3b 34 5d 80 bc
       0.01379318 -0.031061841 0.0057144486 -0.015669443
0002e0 49 34 08 3e 16 e9 5f be 06 4e 8d 3c b2 fe 9e 3d
       0.13301195 -0.21866259 0.017249119 0.07763423
0002f0 16 d6 cc 3d 96 c5 84 be bc 0d 89 ba 3c a9 c9 3c
       0.10001771 -0.25931996 -0.0010456364 0.02461683
000300 93 f3 39 be d9 d4 98 bd 0a b6 96 b9 8b 19 dd bd
       -0.18159322 -0.074624725 -0.0002874586 -0.107958876
000310 71 65 49 be a8 e9 0a 3d c9 13 b9 bd ee fe cd bd
       -0.19667603 0.03391424 -0.09036977 -0.100583896
000320 35 6e 71 bb 63 8b 02 3e 5b ea dc bd fa 7d 3e be
       -0.003683937 0.12748484 -0.10786887 -0.18602744
000330 08 5e 11 3e f2 b9 59 be 75 ea aa bd 44 27 84 bb
       0.14196026 -0.21262339 -0.083455004 -0.004033001
000340 52 b2 ac bd 9c b6 4c 3b e1 c5 20 3d 9b d3 05 3d
       -0.084324494 0.0031236773 0.039251212 0.032672506
000350 d8 54 3a bd df ff c3 bd a0 ac d8 bd e6 77 fc bc
       -0.04549107 -0.09570288 -0.105798006 -0.03081889
000360 e4 84 70 3d fc e8 09 3e 69 39 5f 3e 0a 22 d5 3c
       0.058720484 0.13467783 0.21799244 0.026017208
000370 6f 4b 45 be a2 e9 0c 3d 32 38 81 3c 13 49 8b 3c
       -0.19267057 0.034402497 0.015773866 0.017002618
000380 3b b5 11 3d 68 30 a5 bc da d2 74 bd 1e cb 71 3d
       0.035573225 -0.020164683 -0.059771396 0.0590316
000390 8b 51 5e 3c 56 4f 2a bd 44 5e 5c 3d b7 bf b5 bc
       0.013569246 -0.041579567 0.053800836 -0.022186143
0003a0 22 d1 8c 3c b9 28 0f 3d a0 ca db 3b dc 91 67 bd
       0.017189566 0.034950946 0.0067075044 -0.056535587
0003b0 5a 7e a9 3d e4 5a 1d bd 2f 51 ab bd b7 bf 2c bd
       0.08276053 -0.03841676 -0.08365094 -0.04217502
0003c0 48 7b 87 3d 88 8a ce 3c ff 26 eb 3d 30 ed 6f bc
       0.06615311 0.025212541 0.11482047 -0.014643952
0003d0 43 e8 c4 3c 80 bd 67 3a 0b b2 cb bc 16 ae 14 bc
       0.024036532 0.00088401884 -0.024865171 -0.009074708
0003e0 97 ec 83 39 2d ec 1e bd 16 b1 2c bc ce be 9c 3c
       0.0002516254 -0.038799454 -0.010540267 0.019133952
0003f0 39 57 82 3e 33 82 4f bc e4 85 d5 bd c9 33 0f bd
       0.2545717 -0.012665319 -0.10425928 -0.034961496

output_layer.bias f4 [45]
000000 2a 7c 91 3c 6c 1b fa 3c 2e 97 af bd 7c fb 4c bd
       0.017759401 0.030530654 -0.08573757 -0.05004452
000010 54 09 07 3d 61 ca d0 bb c0 f8 06 3c d7 78 56 bd
       0.03296788 -0.0063717817 0.008238018 -0.052361336
000020 67 f6 aa 3a a7 92 2d bd ea bf cb bd 3a ad 6a ba
       0.0013043404 -0.042376187 -0.09948714 -0.00089522044
000030 e5 db db 3a 13 5d 1e bd 4b d5 89 bd 99 a7 63 bd
       0.0016773908 -0.03866298 -0.067301355 -0.055579755
000040 fa 76 04 bc 45 f6 e8 bc d8 ca f6 bb 18 b8 4d bc
       -0.008085007 -0.028437743 -0.007531505 -0.012556098
000050 ef e2 87 3c 1f df 5c 3c 9c 3f 90 3d 95 94 8c bd
       0.016587703 0.013480931 0.070433825 -0.06864277
000060 bb 49 cc bc c8 98 7a bc f3 46 77 bd 0d 91 43 3d
       -0.024937501 -0.015295215 -0.060370397 0.047745753
000070 37 01 62 bd 8c 15 a9 3c 58 8d d0 bc de a9 4f bc
       -0.05517694 0.020640157 -0.025458023 -0.012674777
000080 0a de 4f bd fc 7d 72 3d 5f ea 25 bc ff b6 89 bd
       -0.050748862 0.05920218 -0.010126679 -0.06724357
000090 1a 19 57 bd 85 15 1f bc 8b 13 20 bd dd a1 a3 bc
       -0.052514173 -0.0097097205 -0.039081138 -0.019974643
0000a0 c8 43 2b 3d 9e c2 13 bc 59 5f 8d bd 2d c7 90 bc
       0.041812688 -0.009018568 -0.06902952 -0.0176731
0000b0 d4 5b a6 3d
       0.081229836
