model/model_player2.pth (torch, 37655 bytes, 6 tensors)

input_layer.weight f4 [64, 28]
000000 68 57 89 c0 f9 13 59 3f 8a 22 39 3f 7c 66 4e bc
       -4.2919197 0.847961 0.7231833 -0.012597676
000010 ec 79 37 bf 63 a4 91 3f bb 07 3c 3f 77 19 ca be
       -0.71670413 1.1378292 0.73449296 -0.39472553
000020 8a e5 bd bd d1 01 c9 3e 2d c5 93 c0 41 d3 24 3f
       -0.09272297 0.39259198 -4.6178193 0.6438485
000030 3c b8 45 bf bb ce f0 bd 71 ab 8c c0 2f 82 23 3f
       -0.77234244 -0.11758181 -4.395928 0.6387052
000040 89 82 a0 3f b2 91 31 be ed 7b 2b bf fb d0 05 c0
       1.2539836 -0.17340735 -0.6698597 -2.0908802
000050 e9 92 b3 bf 8c 08 25 bf 6f fa 14 c0 15 7d 0c bf
       -1.4029208 -0.64466166 -2.3277853 -0.5487836
000060 10 89 07 c0 59 26 9e bf 1f f5 c1 be 66 97 0b c0
       -2.1177406 -1.2355453 -0.37882325 -2.1811156
000070 83 9e 21 be de 3a 3b be a8 c9 34 be 67 ca 90 bd
       -0.15783124 -0.18284175 -0.17655051 -0.07069855
000080 ae 2d 2a be 17 61 28 be 72 b3 40 be 42 64 66 be
       -0.16618988 -0.16443287 -0.18818453 -0.22499183
000090 c4 9c d1 bd 6e 16 ed bd 36 54 13 bd e5 8f a2 be
       -0.10234979 -0.11576544 -0.03596898 -0.31750408
0000a0 2c 32 52 bd d0 6e ba bd 71 dd a3 3c c7 c7 67 bd
       -0.05131738 -0.09103167 0.020003052 -0.056587007
0000b0 ad bc cf bd bc 8c 78 be 54 e7 cd bd e9 0c 6b bf
       -0.10143409 -0.24272436 -0.10053888 -0.91816574
0000c0 ce d5 8e 3c a7 1b 43 be dc d2 9b be 06 33 82 3c
       0.017435934 -0.19053517 -0.3043431 0.01589347
0000d0 bf 58 68 bf 97 06 b8 bc da d4 03 bc 22 de 74 be
       -0.90760416 -0.02246408 -0.008046353 -0.23912862
0000e0 ef 65 62 3f 56 cc be 3f 0b 24 52 3f e2 9f a0 3f
       0.8843679 1.4906108 0.8208625 1.2548792
0000f0 42 90 5d 3f 07 5f a5 3f be 06 39 3f f2 a0 c6 3f
       0.86548245 1.2919625 0.7227591 1.5517867
000100 bc 0e 89 3f 2d 57 b6 3f 67 f8 4f 3f c3 f6 b7 3f
       1.0707622 1.4245354 0.81238407 1.4372181
000110 57 bd 66 3f 48 44 91 3f 7d e4 38 3f 17 d0 b5 3f
       0.9013266 1.1348963 0.72223645 1.4204129
000120 58 75 82 3f 36 c6 91 3f 65 33 18 3f 7b 1a 41 3f
       1.019206 1.1388614 0.5945342 0.7543103
000130 cc ea 19 3f 78 e6 f5 3e d5 8d 4f 3f 2b ca 26 3f
       0.60123897 0.48027396 0.81075794 0.65152234
000140 4a 0a 50 3f be 6b d5 3e 8c e7 37 3f 9d 4b 5e 3f
       0.812657 0.41683763 0.7183769 0.86834127
000150 b2 f4 e6 be 27 4d f4 be 1e c7 10 bf 78 c9 91 be
       -0.45108563 -0.47715113 -0.5655383 -0.2847402
000160 50 df 18 bf de cc b4 bd a1 37 ee be 1e 97 29 be
       -0.5971575 -0.08828138 -0.46526816 -0.16561553
000170 1a 96 db be d6 36 da bd 0c 0d c7 3b 9f 14 59 bc
       -0.42887956 -0.106549904 0.0060745534 -0.013249545
000180 c2 3b 2d bf 1d e5 f4 bd 14 c3 23 bf fa fc b9 3e
       -0.6766931 -0.119577624 -0.6396954 0.36325818
000190 66 d7 3c bf b9 7b b6 3a ab d8 57 bf a4 4d 4e bf
       -0.7376617 0.001392237 -0.84314984 -0.8058722
0001a0 6b 64 96 3e fa e3 87 bf 3f df 19 bf 66 65 66 bf
       0.29373488 -1.0616448 -0.6010627 -0.8999847
0001b0 2a 7f 42 bf e2 76 9a 3e 1f 9e 84 bf d9 3e 38 bf
       -0.75975287 0.30168825 -1.0360755 -0.719709
0001c0 6f 53 e5 be cc f1 80 bd 6e 20 df 3d 51 4e 54 3d
       -0.44790217 -0.06296119 0.10894857 0.0518325
0001d0 80 ef 1e 3d 90 9a c0 be ec 86 a6 be 24 36 f7 be
       0.038802624 -0.37617922 -0.32524812 -0.48283494
0001e0 68 ae 12 bf e9 62 f4 be fb d4 1e be b2 10 2c be
       -0.5729737 -0.47731712 -0.15510933 -0.16803244
0001f0 67 3e fc bd 1d 90 56 be 19 fe 04 bf 82 4c 9f be
       -0.1231659 -0.20953412 -0.5195022 -0.31113058
000200 8a c0 f5 be e0 c3 4c be 2e a3 b7 be b8 dd 92 3d
       -0.47998458 -0.19996595 -0.35866684 0.07171196
000210 2e c1 88 bf 94 df 3f bf 13 cf 6d be e8 f9 82 be
       -1.0683954 -0.7495053 -0.23223524 -0.25581288
000220 2d 3b 26 3e 87 b9 55 bf 84 0d 7c bf 7f ca f8 be
       0.16233511 -0.8348622 -0.98458123 -0.48591992
000230 fd 73 02 3f d8 92 0b 3e 15 ed ef 3e 02 27 aa be
       0.50958234 0.13630235 0.46860567 -0.33232886
000240 1e 6b d4 3e d1 77 9a bd 83 d3 7c 3e 1b 82 c6 bd
       0.41487974 -0.075423844 0.2469006 -0.096927844
000250 b4 b5 56 3f 3c 56 4a 3e 84 8b 18 3f 61 92 a3 3d
       0.83871007 0.19759458 0.59587884 0.07986904
000260 52 a7 53 3f 5e 6f 74 be c5 58 02 3f e1 28 bc bd
       0.82677186 -0.23870608 0.509167 -0.091874845
000270 57 0b d5 3e 99 9d bf 3c 55 c9 62 bf b3 e0 32 3f
       0.41610214 0.023390578 -0.8858846 0.69874114
000280 b5 53 a3 3f 21 35 da 3f 23 21 ef bf dd 54 2d bf
       1.275992 1.7047464 -1.8681988 -0.67707616
000290 76 4f 3a 3f e8 7e 9e 3f 94 90 d3 3f f0 ea f0 bf
       0.727775 1.2382479 1.6528497 -1.8821697
0002a0 bd 50 1b 3e 8a 51 c6 3f 73 18 96 be dc 40 84 3f
       0.15167518 1.5493634 -0.29315528 1.0332294
0002b0 21 bd a1 3f c1 28 50 3f 0f f0 a1 bd 0f b3 a9 3f
       1.2635843 0.81312186 -0.07907116 1.3257769
0002c0 d8 0f 19 3f 37 be 5f 3f f4 2b cc 3e f0 61 42 3f
       0.597898 0.8739962 0.39877284 0.7593069
0002d0 18 84 5b 3f 9c 71 84 3f 92 23 7b 3e d2 c0 8b 3f
       0.85748434 1.0347171 0.24525288 1.0918219
0002e0 e0 db 66 3f 2b fe 8b 3f 7e a1 c4 bf 7b 63 6b bf
       0.9017925 1.0936941 -1.5361784 -0.9194867
0002f0 10 ef 37 3e 59 2b 01 3f 0b 3a 79 3f f0 d3 ad bf
       0.17962289 0.5045677 0.9735419 -1.3580303
000300 c6 e8 5f bf 34 75 73 3e 0f 15 0e 3f cf 7b 8f 3f
       -0.8746456 0.23775178 0.5550088 1.1209658
000310 20 0d ae bd 43 f1 1a 3f 89 65 a9 3f 8f 58 6d 3f
       -0.08498597 0.60524386 1.3234111 0.92713255
000320 db 3a 11 3f af fc d8 3e 48 1c 9f 3d 6e 75 8e 3f
       0.5673043 0.42380282 0.07769066 1.1129587
000330 1f 40 50 3f a4 38 c7 3e 77 f8 81 be c2 bc 76 3f
       0.8134784 0.389104 -0.25384876 0.9638177
000340 89 1a 79 be 50 6e 1b 3f 2e 87 17 3f ff d1 3d 3f
       -0.24326529 0.607152 0.5919064 0.74148554
000350 33 7f 7b bd d4 23 91 3f 36 12 6a bf 47 7d 1f bd
       -0.061400604 1.1339059 -0.9143404 -0.038937833
000360 1c 94 af 3e 1e 6e 5e 3e b5 e4 b7 3e 63 f5 61 bf
       0.34292686 0.21721694 0.35916677 -0.88265055
000370 08 8d d1 bd 27 9e 94 3e 70 8e 92 3e a8 99 22 3f
       -0.10231978 0.2902691 0.28624296 0.6351571
000380 de 9c e9 3e ac ac 0a 3f a4 c4 74 c0 d9 81 61 3f
       0.45627493 0.54169726 -3.824502 0.88088757
000390 01 39 34 3f 91 72 ac 3e 7b 52 d8 3d 1e df 1a 3f
       0.7039948 0.33681157 0.10562607 0.604967
0003a0 40 89 a6 3c db 80 43 3f 82 08 8c bf 85 a6 31 3f
       0.020329118 0.7636849 -1.0940096 0.69394714
0003b0 92 89 70 c0 05 92 34 3f ff 63 32 3f a3 34 04 3f
       -3.7583966 0.7053531 0.6968383 0.5164282
0003c0 9d 51 1d bf 19 7b 53 3f 82 7a 00 bf b0 77 38 bf
       -0.61452657 0.8260971 -0.5018693 -0.7205763
0003d0 fd a8 b7 be 20 94 90 be 28 fe 09 be ef cc 97 be
       -0.35871115 -0.2823801 -0.13475859 -0.2964854
0003e0 c6 5a cf be 64 57 1e bf a1 03 a6 be 0e 6f ca bd
       -0.40498942 -0.618521 -0.32424644 -0.09884463
0003f0 bb a6 a1 bd 81 39 00 bd f2 a3 0c bf 6e 9a b7 be
       -0.078931294 -0.03130484 -0.5493766 -0.35860008

input_layer.bias f4 [64]
000000 2b e2 35 bd 54 72 64 bc a5 41 fc c0 65 83 27 bf
       -0.044405144 -0.013943274 -7.8830132 -0.6543487
000010 4e aa c0 be c2 05 75 be d0 07 91 c0 d6 70 87 c0
       -0.37629932 -0.23927978 -4.5322037 -4.232524
000020 79 0b b8 3e 0a a5 22 bf 89 bf 2a bf 8f 7b ac 3e
       0.35946253 -0.6353308 -0.6669851 0.33688018
000030 c7 82 67 c0 9e 34 84 be 88 98 97 c0 d9 1d 85 c0
       -3.617357 -0.25821394 -4.7373695 -4.1598935
000040 e6 ec a5 be d1 76 05 c0 33 89 fc bf 82 d1 8f be
       -0.32407302 -2.085377 -1.972937 -0.2808953
000050 27 8b 00 c0 d1 bd 7e c0 76 b7 9b 3f c4 8e e3 bd
       -2.0084932 -3.9803355 1.2165363 -0.11111215
000060 7f 10 85 be 3b e4 8f be 37 5b 27 41 82 05 9f c0
       -0.25989148 -0.28103814 10.459769 -4.9694223
000070 b0 d7 83 bf 13 6d b6 40 c0 33 1b c0 ed b1 2f bf
       -1.0300198 5.7008147 -2.4250336 -0.6863087
000080 90 24 9e be 25 98 df be 9a 82 d1 be 28 4a ab c0
       -0.3088727 -0.43670765 -0.40919954 -5.3528023
000090 a4 df 19 c0 15 39 d2 c0 cc 3f 92 c0 37 2f dd be
       -2.404275 -6.569468 -4.5702877 -0.43200085
0000a0 ed ae 22 40 10 ba d5 bf 26 05 b9 c0 dd 45 77 c0
       2.5419266 -1.6697407 -5.7818785 -3.863639
0000b0 b6 72 95 be 26 b9 91 be 5e 8b c6 c0 ff 2e 7b c0
       -0.2918908 -0.2846157 -6.2045126 -3.9247434
0000c0 9b ff 2e c0 8f 16 a5 c0 5b 62 6b c0 f9 c4 83 c0
       -2.734351 -5.1590037 -3.6778781 -4.1177945
0000d0 49 c3 d0 3e f4 1c c8 3d 1b cb dc be 38 be af c0
       0.4077399 0.09771147 -0.43123707 -5.49197
0000e0 f1 97 d9 bf 5f ae 2e 3f 22 ad ac 40 65 7e 33 c0
       -1.6999494 0.6823482 5.3961344 -2.8045895
0000f0 6e 02 3d c0 c6 a9 21 c0 f7 ae 99 be bb 32 4d c0
       -2.9532733 -2.5259871 -0.300163 -3.2062213

dl1.weight f4 [64, 64]
000000 7b 0a af be 27 4d 52 be 72 3d 49 be 83 b2 0b be
       -0.34187683 -0.20537244 -0.19652346 -0.13642316
000010 2a b3 84 be 62 6c ed 3e bc e1 94 3f be 8a 08 40
       -0.2591794 0.46371752 1.1631389 2.1334682
000020 36 f1 37 bf cf 45 8e bd 1d fb 22 3e 59 ca c5 be
       -0.71852434 -0.06946909 0.15916105 -0.38630942
000030 a7 db 06 3f 48 fa 6d 3e 59 b2 c4 3f d6 81 67 3f
       0.5267891 0.23240006 1.5366927 0.9043249
000040 48 99 0d be d1 31 f4 be 23 52 30 bf c3 2c e7 be
       -0.13828003 -0.47694257 -0.6887533 -0.45151338
000050 59 e5 c0 3f a7 b8 25 40 df 11 55 bf 29 f0 42 bd
       1.5069991 2.5893953 -0.83230394 -0.047592316
000060 be c2 ff 3d d1 c6 92 3e b2 0d b1 bf 0d f6 fd 3f
       0.12488316 0.2866731 -1.3832304 1.9840714
000070 33 e6 45 3f 96 c3 91 bf 5b 31 68 3e a4 ba 1c be
       0.7730438 -1.1387813 0.22675078 -0.15305573
000080 55 d4 58 bd ef 05 50 bd 3b db 17 3e ee cc e7 bd
       -0.05293687 -0.05078691 0.14829724 -0.11318384
000090 05 a3 e8 be 98 5e b8 bf 71 92 1a 40 ce e4 e6 bd
       -0.45436874 -1.4403868 2.415188 -0.1127411
0000a0 e0 4f 4d 3f 52 64 07 bf 1c f0 1d be 0f 6d 2e bf
       0.80200005 -0.5288745 -0.15423626 -0.6813516
0000b0 ed bd 21 3e fe e1 d8 3d 94 f8 2d bf 32 18 c0 be
       0.15795107 0.105899796 -0.67957425 -0.3751846
0000c0 44 85 d8 3e b2 1f 13 bf 6f ed 30 3f 66 01 31 bf
       0.42289174 -0.5747024 0.69112295 -0.6914276
0000d0 20 92 18 bf 42 f4 8d be 27 e7 62 3d f6 cf 9c 3e
       -0.5959797 -0.27725416 0.055396225 0.30627412
0000e0 6d 85 e0 be a0 48 01 40 25 63 98 bf a5 55 76 bf
       -0.43851796 2.0200577 -1.1905257 -0.96224433
0000f0 40 37 40 3f d4 40 f0 3f 0f b5 8d 3e ba 1f 8c 3f
       0.75084305 1.8769784 0.276772 1.0947182
000100 29 41 c2 bd 0f 08 35 be c5 6e 1a c0 5e 33 4f bf
       -0.094850846 -0.17678855 -2.4130108 -0.80937755
000110 df a0 24 bf f4 de af bf c4 10 a0 3e d9 2c 49 3e
       -0.6430797 -1.3739915 0.3126279 0.19646014
000120 3c aa b7 bf a6 db c5 3e f1 eb 31 be 5c 34 1f bf
       -1.4348826 0.3864414 -0.17375161 -0.6218927
000130 a5 ac b2 be d1 d9 89 be 51 db 18 3e 48 ce 38 be
       -0.34897342 -0.26923993 0.14927413 -0.1804744
000140 b5 fb 76 be a9 84 2d c0 39 02 e8 bf 54 38 b9 be
       -0.24119456 -2.711222 -1.8125678 -0.36175787
000150 1e 13 61 3f 71 3f a9 3f e2 07 18 bf 26 00 d6 3c
       0.87919796 1.3222486 -0.5938703 0.026123118
000160 8c 89 04 bf 1e 96 0d bf 43 a2 fb 3d 3e d3 0d 3f
       -0.5177238 -0.55307186 0.12286808 0.55400455
000170 ae 12 9c bf 2f 40 43 3e 7c 94 96 bf 30 69 91 be
       -1.21932 0.19067453 -1.1764064 -0.28400564
000180 5e 4f 0c 3e 8c 7c 40 3c 4f 2c 10 3e e1 fc 3d c0
       0.13702151 0.011748444 0.14079402 -2.9685595
000190 e2 8b ac bf e0 bd b2 bf 59 d0 66 3f 58 86 8b be
       -1.3480189 -1.3964195 0.90161663 -0.27250934
0001a0 79 31 a7 3e d0 f3 ee bf c7 f9 15 c0 65 93 2a bf
       0.32654932 -1.8668156 -2.3433702 -0.66631156
0001b0 a0 16 ba bd 88 8a c0 3e d3 f5 a9 bf 2e 9f 92 bf
       -0.090863466 0.3760569 -1.3278145 -1.1454828
0001c0 a3 a1 59 bf 87 36 08 bf bc 23 8a be 0d b7 d8 bf
       -0.85012263 -0.532082 -0.26980388 -1.6930863
0001d0 92 68 a5 bf f0 41 ad be 97 70 96 bd df 36 ca bf
       -1.2922537 -0.3383937 -0.073456936 -1.5797995
0001e0 c2 76 65 bf f0 56 a6 3f 77 22 de bd 5f 58 ed bf
       -0.89634335 1.2995281 -0.108464174 -1.8542594
0001f0 05 40 38 bf c4 44 1b 3f 85 9b 82 bf 3f e3 05 bf
       -0.71972686 0.60651803 -1.0203711 -0.52299875
000200 5b b7 4b 3f 15 69 2c be ba d4 7c bf 46 4e 6a 3e
       0.79576653 -0.1683696 -0.98762095 0.22881421
000210 5a 65 31 bb 4c ec 2f 3e 2d 35 a3 be 4e 28 98 bf
       -0.0027068467 0.17179984 -0.31876507 -1.18873
000220 41 36 15 3f 58 1f a8 bd 06 f9 08 3f 10 1f f9 3e
       0.5828591 -0.08209103 0.5350498 0.4865651
000230 13 36 23 3d cb ee 2e 3e 6c e4 97 bf 33 9a e0 be
       0.03984649 0.1708328 -1.1866584 -0.43867645
000240 98 95 cb 3d a9 96 5c 3f d9 0d d0 3f aa d5 7c 3e
       0.09940642 0.8616739 1.6254226 0.24690881
000250 a3 ee 6f be 45 06 0f c0 cc 08 7a 3f 02 a0 02 3e
       -0.23430876 -2.2347577 0.9766967 0.1275635
000260 5a 97 67 bb c1 0c 80 3b 97 f4 47 be 96 f2 13 bf
       -0.0035338015 0.0039077704 -0.19526897 -0.5779203
000270 b8 d9 95 3f f6 e2 b0 3e 7b fd 55 3e e9 91 b0 bd
       1.1707067 0.34548157 0.20897476 -0.0862158
000280 64 0f 8e 3d ef a8 5b bd eb 9d 9d 3d 80 6e f3 be
       0.06936529 -0.053627905 0.07696136 -0.47545242
000290 f9 af ca 3e 78 3b 0c c0 90 7d eb 3e fd d5 23 3e
       0.3958738 -2.1911297 0.45994234 0.15999599
0002a0 78 97 45 bf 0e 25 b2 3e 77 7d f0 bf 8b 6f 80 3e
       -0.7718425 0.34793895 -1.8788289 0.250851
0002b0 60 dc 02 be d6 d5 12 be cd 64 91 3b fd be 86 bf
       -0.12779379 -0.14339384 0.004437065 -1.0527035
0002c0 f8 f5 75 bf 01 76 88 bf 33 82 9c 3e f8 2d f1 3f
       -0.96078444 -1.0661012 0.30568084 1.8842154
0002d0 18 99 00 40 65 9c 23 3f 7d c8 a4 3d c2 b2 1a 3e
       2.009344 0.63910514 0.080460526 0.15107253
0002e0 8d 00 99 3f 26 fc a1 be f5 99 96 bc 17 18 9f be
       1.1953293 -0.31637686 -0.01838396 -0.31073067
0002f0 20 dd a9 3f b5 f7 17 bf 43 54 a4 be 0f 71 b3 be
       1.3270607 -0.59362346 -0.32095537 -0.35047194
000300 be 90 8f bf d2 0d 24 be fd 68 40 c0 c8 2b 68 bf
       -1.1216047 -0.16020897 -3.006408 -0.90691805
000310 e5 01 29 3e 05 58 1c bf d5 53 c7 3e 81 b1 49 3e
       0.16504629 -0.6107181 0.38931146 0.19696619
000320 15 08 dd bf 98 2c 8d be ae 21 e2 be 49 26 39 bf
       -1.7268091 -0.27573085 -0.4416632 -0.72324044
000330 e8 ae fa 3e 63 41 94 bd 05 5e 09 bf f1 63 f3 be
       0.48961568 -0.07239034 -0.5365909 -0.47537187
000340 a4 1c fa be 52 ab 88 3e f2 bf 3f be bd fb 17 be
       -0.48849976 0.26693207 -0.18725565 -0.14842124
000350 35 ce 3f 3f 4f d0 a6 3f 38 2e 12 bf 58 4f d4 bd
       0.7492402 1.3032321 -0.57101774 -0.10366696
000360 77 26 8b bd f4 73 ae 3e da 6b 0b 3e 59 ea 07 be
       -0.06794446 0.3407284 0.13615361 -0.1327299
000370 c8 e8 af 3e 1e 99 88 be ec 57 db be ab ef 31 bf
       0.34357285 -0.2667932 -0.42840517 -0.6950633
000380 7b 0d 5a be 0d 5d a1 be 79 cd 86 be 2c 87 42 c0
       -0.21294205 -0.31516305 -0.26328638 -3.0395002
000390 4d 02 f0 3e 39 9e 7c c0 24 f2 4c 3f 69 dd 0a bf
       0.46876755 -3.9471571 0.8005698 -0.54244095
0003a0 9f c7 fa 3e 44 4a 37 c0 31 ff 39 c0 a8 19 00 c0
       0.48980424 -2.8639078 -2.9062006 -2.001566
0003b0 c5 5b e3 bd 48 72 3d bf 5e 0e b0 bf db bf 56 bf
       -0.11101488 -0.74002504 -1.3754385 -0.838865
0003c0 2a 56 19 bf dd 51 94 bf 31 43 e7 3d 76 b8 08 c0
       -0.598971 -1.1587483 0.112921126 -2.1362586
0003d0 39 d0 20 bf 23 a9 a4 bd 07 1c 84 3e c7 ae 19 c0
       -0.6281772 -0.08040073 0.25802633 -2.4012926
0003e0 34 d9 e7 bf 8b cd 9a bf c0 b1 4b 3d 9a 49 21 c0
       -1.811316 -1.2093977 0.049730062 -2.5201173
0003f0 b5 e0 80 3f 77 8e af 3e 38 87 0f bd 12 43 9e bd
       1.0068575 0.3428838 -0.035041064 -0.077276364

dl1.bias f4 [64]
000000 97 ca 18 c0 b8 9e 08 be bb 2c 00 39 df 04 85 bf
       -2.387365 -0.13341796 0.00012223695 -1.0392112
000010 0b e7 bb 3f ad be 4e bf e3 1d 5b be ec 26 9f be
       1.4679884 -0.807597 -0.2139812 -0.31084383
000020 24 38 9b bd de 05 66 be d4 c3 14 be 72 87 11 be
       -0.07579067 -0.22463176 -0.14527828 -0.14211825
000030 22 c0 65 be 95 e6 30 be 51 97 e4 3f 6f 19 ea bd
       -0.22436574 -0.1727546 1.7858678 -0.11430632
000040 50 d6 78 bf 28 b8 29 bd 5c 47 be be a4 04 23 be
       -0.97202015 -0.04143539 -0.37163818 -0.15919739
000050 e8 8e 25 bd da d0 f0 be c3 dd 51 be 3e a8 84 be
       -0.04041949 -0.4703434 -0.20494752 -0.2590961
000060 7a 9b 0b be 94 1f 2a be 0e 50 25 3f 84 53 db be
       -0.13633528 -0.16613609 0.6457528 -0.42837155
000070 b0 67 e7 bd 8b 31 32 be 28 ad bb bd a0 fd 58 bd
       -0.11299074 -0.17401712 -0.09163886 -0.05297625
000080 42 6a 31 3e 51 89 92 be eb 65 ec bd 48 68 a9 be
       0.1732569 -0.2862039 -0.11542877 -0.33087373
000090 c2 09 02 c0 39 f4 2b be 9b 4b 8c bf af 05 82 be
       -2.0318456 -0.16792382 -1.0960573 -0.2539496
0000a0 99 b6 92 be d5 7e 97 be 64 db c5 bd 1f 58 7d bb
       -0.28654936 -0.29588953 -0.09660986 -0.003865726
0000b0 58 21 80 3f 13 8c 31 be 3a 99 18 bf f9 c2 35 be
       1.0010176 -0.1733859 -0.59608805 -0.17750157
0000c0 e7 10 ae bd c2 72 aa be 8f a6 86 bd 2a de 47 c0
       -0.084993176 -0.33290678 -0.06574737 -3.1229348
0000d0 31 2a a8 be 16 6a 90 c0 34 c9 7a be 36 7f 4e be
       -0.3284469 -4.51295 -0.24490815 -0.20165715
0000e0 59 2d d0 be 74 87 7c bd b7 c3 03 bf c5 06 4a be
       -0.40659598 -0.061652616 -0.5147051 -0.19729145
0000f0 e7 ea 29 be a0 8e cb be 09 41 f1 bd bb dc 6a be
       -0.16593514 -0.39757252 -0.117799826 -0.22935764

output_layer.weight f4 [45, 64]
000000 e8 df e1 3f 80 10 56 3e 4b 7d 5d bf 95 7d 60 3d
       1.7646456 0.20904732 -0.86519307 0.054807264
000010 93 fc 24 c0 4e 18 a2 c0 be 05 3e bd 27 d3 de 3d
       -2.577916 -5.065467 -0.046392195 0.10880118
000020 27 33 f7 3c ad 75 a9 bf 46 72 91 3d 62 7f 24 3d
       0.030175759 -1.3239037 0.07101874 0.040160544
000030 4a 42 1f bd fe 4a a0 3d c4 a7 2a c1 e4 90 f8 bd
       -0.038881578 0.078268036 -10.665958 -0.12137011
000040 39 98 de 3d df a6 a9 be 2f 0a 81 bf ba df d4 bb
       0.10868878 -0.33135125 -1.0081233 -0.006496397
000050 17 b8 d5 3d e1 23 0c 3f 5d 8b 04 be 35 64 e8 bd
       0.10435503 0.54742247 -0.12943788 -0.11347238
000060 98 20 32 bc 6b 0f 9c bd 33 58 e4 bd 8d 6e 0e 3e
       -0.010872029 -0.07620128 -0.11149635 0.1390936
000070 b7 25 50 be cc 3a 4e 3d c4 0e 45 bf e7 e3 86 bd
       -0.20326887 0.05034904 -0.76975656 -0.06586438
000080 1d eb 2d bc 24 5d ae bd fe 9d cd bd 3b d2 e1 bd
       -0.010615137 -0.08513859 -0.100399 -0.110264264
000090 44 46 5d 3f b2 91 d2 bc 8b 6f 33 3d 16 b0 3d be
       0.8643534 -0.025704239 0.043807548 -0.18524203
0000a0 83 91 85 bf f9 91 3d bf e6 e4 e0 3d c4 72 24 c0
       -1.0435032 -0.7405086 0.10981159 -2.5695047
0000b0 2f 93 00 c0 68 d1 28 be 05 45 d9 be 27 b5 72 3d
       -2.0089834 -0.16486132 -0.4243547 0.05925479
0000c0 90 75 03 3d 3f 40 d7 be 08 f6 da bc 05 80 54 bd
       0.03209454 -0.42041203 -0.026728645 -0.0518799
0000d0 1f 6e d0 bd df c4 a8 3e 85 a8 25 bf 16 11 4e bc
       -0.10177254 0.329627 -0.64710265 -0.012577316
0000e0 40 10 8c 3c 6d bf 8c bc 87 50 d2 3e 7c 3b 0b 3d
       0.017097592 -0.017181123 0.41077062 0.033992276
0000f0 7c c2 2f be 66 92 68 bf 07 3d ee 3b d5 ff c3 3d
       -0.17164034 -0.90848386 0.0072704586 0.095702805
000100 cd 51 10 bb 75 e8 c9 3c 1d bf 3b c0 9d bc 50 3d
       -0.0022021413 0.024646977 -2.9335396 0.050961126
000110 72 b8 1a c0 10 62 af c0 89 e3 dc bd c4 0f 13 bf
       -2.4175076 -5.4807205 -0.107855864 -0.5744593
000120 b4 fa d4 bd 85 0c 11 c0 59 d8 da bc 14 84 0b be
       -0.1039938 -2.2663891 -0.02671449 -0.13624603
000130 2a 39 61 3d 85 e5 dc bd e5 e4 31 c1 3c b0 cc bd
       0.054986157 -0.10785965 -11.118382 -0.099945515
000140 df d0 8c bd f0 4b 41 be a3 6d 83 bf 19 1e b6 bd
       -0.068757765 -0.18876624 -1.0267833 -0.088924594
000150 4a c8 33 bd a4 15 fb bd 18 44 9f bc cc ea a4 be
       -0.043892182 -0.12259987 -0.01944165 -0.32210386
000160 6b 1c 25 3e 1d 3e e5 bd f0 86 10 be 87 2a b8 be
       0.16124122 -0.11193488 -0.14113975 -0.35969946
000170 88 c0 4c be 4d 49 eb bd 99 5a 62 bf ce 32 c7 3d
       -0.1999532 -0.114885904 -0.8841949 0.09726487
000180 40 55 4e bd fa f5 c3 be 8a 50 b1 be ca 98 17 be
       -0.05037427 -0.38273603 -0.3463176 -0.14804378
000190 3c cf f5 bd 6c 0a 65 3d e4 96 18 3d 64 34 db 3d
       -0.120024174 0.055918142 0.037253276 0.10703352
0001a0 fe 27 8f bf 8d e1 57 bf 00 67 ee bd 41 fc 3f c0
       -1.118408 -0.8432854 -0.116407394 -2.9997714
0001b0 49 38 e3 bf 8c 5c 04 bf ff c5 64 bd d2 d1 6e bd
       -1.7751552 -0.51703715 -0.055852886 -0.05830557
0001c0 1f 9d e1 bb ad 43 9a be a5 5c ac 3d fa 48 ab 3d
       -0.0068851854 -0.30129758 0.08416108 0.083635285
0001d0 9b 70 9c 3c b6 76 84 3e aa a9 4e bf 65 85 f2 3c
       0.019096663 0.2587182 -0.80727637 0.029604623
0001e0 15 79 c1 bd 38 04 b0 3c 2d 78 25 be 1d 9a d6 3d
       -0.09446923 0.021486387 -0.16159125 0.104786135
0001f0 f1 4e 83 bd 70 cd 9b bf ad c8 fc 3b df 40 af 3d
       -0.06411541 -1.217207 0.007714352 0.08557295
000200 d1 d8 82 3f 45 f7 ad bc 24 0f 23 c0 09 4c 31 3e
       1.0222417 -0.021236071 -2.547799 0.17314161
000210 40 b1 37 c0 c7 5f ab c0 2e 47 f4 3c fd 3d c4 be
       -2.8701935 -5.3554416 0.029819097 -0.38328543
000220 52 b7 04 bd d9 f2 e7 bf a0 d0 a4 3c 24 c7 28 bd
       -0.03240139 -1.8120986 0.020119011 -0.04120554
000230 96 2b dc bd 84 8a 15 bd 07 79 28 c1 74 69 b3 3d
       -0.10750501 -0.036509052 -10.529548 0.08760348
000240 33 69 a5 3c 3c 36 a5 bd d6 ce f3 bc e0 39 7d 3d
       0.020191764 -0.08066985 -0.029761713 0.061822772
000250 60 3d cd 3d e8 b0 c1 bd 1b 1e cc be c3 0c 00 be
       0.10021472 -0.0945757 -0.3986672 -0.12504868
000260 5c 2d 83 bd f1 c7 ea bd f3 83 bb 3d 90 96 02 be
       -0.06405136 -0.11463917 0.09156027 -0.12752748
000270 c5 fd 75 be bf 8c f9 bd df bd 9e bf 53 e9 73 3d
       -0.24022587 -0.12185048 -1.2401694 0.059548687
000280 b8 23 0e bc 37 94 a4 be 57 27 6b be 83 19 b3 3d
       -0.008675508 -0.3214433 -0.22964226 0.087451
000290 5d 76 be 3d 84 65 4f 3d c8 7b 14 3c 76 54 99 be
       0.0929992 0.050633922 0.009062715 -0.2994725
0002a0 a6 61 78 bf ef df 7e bf 88 95 ae bd 67 b1 0b c0
       -0.97024 -0.99560446 -0.085246146 -2.1827028
0002b0 b1 47 c6 bf bb c9 79 be 40 2f f8 3c 22 2b cf 3d
       -1.5490628 -0.2439336 0.030295968 0.10115649
0002c0 82 2d 89 bc 30 6f d4 be 21 e8 9b bc 8f 2e 37 3f
       -0.016745333 -0.4149108 -0.019031586 0.7155542
0002d0 38 77 74 bd 6c 80 a0 3e 18 e9 51 bf d5 d8 be bc
       -0.05968401 0.31347978 -0.819963 -0.023296753
0002e0 f5 d4 5c be 9e 27 6f 3d dd e7 36 be 08 13 82 3c
       -0.21565612 0.05838739 -0.17861886 0.015878215
0002f0 a2 1f 97 bd 4e 96 99 bf a5 e7 6b 3d a5 71 a6 bd
       -0.0737908 -1.1998994 0.05759396 -0.08127145
000300 8b ba 06 3e a0 0b 1c bd 3b 72 37 c0 5d 68 bc 3d
       0.13157098 -0.038097024 -2.866347 0.09199593
000310 00 41 32 c0 73 b8 9f c0 46 c6 1e 3c 58 bc 12 bf
       -2.7852173 -4.991266 0.009690827 -0.5731864
000320 85 d7 a9 bd a9 f2 fa bf 76 8f b6 bd 40 3d 8d bd
       -0.0829306 -1.9605304 -0.08914082 -0.06896448
000330 1a d4 24 bd 9c ad 89 bd 30 e0 2f c1 80 67 ca bb
       -0.04024134 -0.067225665 -10.992233 -0.006176889
000340 ae ed 00 bd 15 0b ab be a4 ed 32 bf 48 ba 85 3c
       -0.03147667 -0.33406892 -0.6989386 0.016324177
000350 91 7b 39 bd b1 f0 5e be f0 b7 5d be 7d fb 51 be
       -0.045283858 -0.21771504 -0.21652198 -0.20506091
000360 75 a8 67 bd 71 a4 15 be 71 40 10 3e 8e 8b 03 bf
       -0.056557138 -0.1461351 0.14087082 -0.5138482
000370 8d 20 59 be 04 ce 48 be 81 c0 94 bf 59 61 ca 3d
       -0.21203823 -0.19609839 -1.1621248 0.09881849
000380 5f 73 dd 3c 42 5e 39 be 75 aa 55 be bb 07 eb 3d
       0.027032552 -0.18102363 -0.20865805 0.11476084
000390 d9 06 ae 3d 77 6f 02 3a 33 86 4a 3d 5a d4 11 be
       0.084974 0.0004975716 0.04944439 -0.14241162
0003a0 8f a5 93 bf e0 c7 42 bf d1 20 41 be ca 95 37 c0
       -1.15349 -0.76086235 -0.18860175 -2.8685174
0003b0 fb 6a d9 bf 5a c5 df bd 4b 19 59 3d f7 ed ea bc
       -1.6985773 -0.10926314 0.053002637 -0.028677924
0003c0 59 ea ea 3d fb 18 f0 be f7 02 b8 bc 1c 28 9a be
       0.114704795 -0.4689406 -0.022462351 -0.30108726
0003d0 a3 7f 05 3d 9a f9 86 3e 6a e5 32 bf f9 60 9a bd
       0.032592427 0.26362306 -0.6988131 -0.07538027
0003e0 b7 1c 3d 3e ed 9e f1 bd 57 c7 9b bd 6f cb 07 bd
       0.18467985 -0.11797891 -0.076063804 -0.033152994
0003f0 04 3f 3e bd bf 30 80 bf 5b e3 0b be 68 79 47 bd
       -0.046446815 -1.0014876 -0.13660948 -0.048699766

output_layer.bias f4 [45]
000000 9e f6 a3 be 4c 68 57 3e b1 a2 a0 bc 75 b6 28 3e
       -0.3202409 0.2103588 -0.019608827 0.16475852
000010 da 37 0d bf 70 e4 91 bc 83 1a 7a 3c 02 c5 9c be
       -0.5516335 -0.017809123 0.01526511 -0.30619055
000020 c6 f6 be 3d 5a b3 00 3f e2 ec 72 3d 65 3c 5e 3e
       0.09324412 0.5027367 0.05930794 0.21702726
000030 d0 c3 5b bd e4 90 11 3f 48 c0 08 3f 8e 4e a6 3e
       -0.05365354 0.5686171 0.534184 0.32481807
000040 52 ea ce 3e f0 d9 d9 bc cc 87 04 3f f4 59 b8 3e
       0.40413147 -0.026593179 0.5176971 0.3600613
000050 83 04 0e 3f 8b 94 07 3f 02 6e 1e 3f 57 eb 1a 3f
       0.55475634 0.52961034 0.6188661 0.6051535
000060 ba f6 3f 3f 47 6e e9 3e ec 5f 97 3e a2 61 97 3e
       0.7498585 0.45591947 0.2956537 0.29566675
000070 93 9b 09 3f 9e 33 0c 3f 3e be 87 3e 17 ff 67 3d
       0.5375301 0.5476626 0.2651233 0.056639757
000080 c6 7b b8 3e 51 5c e6 3e 26 9c 46 3e d8 7e ac 3e
       0.36031932 0.44992307 0.19395503 0.33690524
000090 7b 70 1f 3f 05 c2 40 3f 19 d8 40 3f c7 ef 1d 3f
       0.62281007 0.7529605 0.7532974 0.61693996
0000a0 ea 98 06 3f 81 d7 43 3f 13 3c 4a 3f 31 22 1f 3f
       0.5257708 0.7650071 0.78997916 0.62161547
0000b0 d9 e4 49 3f
       0.7886482
