model/model_player2_backup.pth (torch, 153807 bytes, 8 tensors)

linear1.weight f4 [64, 28]
000000 92 18 fa 3d d0 74 64 be 00 ec af 39 cd 49 96 3a
       0.12211718 -0.22310185 0.00033554435 0.0011466086
000010 f1 cd 2f 3e 34 93 b1 3d 0e 99 18 be 5b e2 a3 bd
       0.17168404 0.08670655 -0.14902136 -0.08002158
000020 a0 d8 da bc 1a 9f 9a bd a2 1b bc 3d e1 ef 5b bd
       -0.026714623 -0.075498775 0.09184958 -0.053695563
000030 42 63 c3 3d d3 e8 0b be 4c 05 53 bd 5e 16 38 bc
       0.09540416 -0.13663034 -0.051518723 -0.0112358015
000040 19 c0 28 3e 14 4a 6f bc ef 3b 30 be fe 0b a3 3c
       0.1647953 -0.014605064 -0.17210363 0.01990318
000050 a5 96 63 3d 9c 77 99 3d bd 6b 89 bd a1 78 24 be
       0.055563588 0.07493517 -0.067100026 -0.16061641
000060 b1 c0 83 be d8 29 ae be 07 a9 1e be 67 5e 16 be
       -0.2573295 -0.340163 -0.15494166 -0.14684449
000070 6a 97 c8 3d 76 45 19 be dc 49 ec bd 27 a6 dc bc
       0.09794505 -0.14967903 -0.11537525 -0.026934696
000080 16 33 d6 bd 26 26 ba bd d0 3e dd bc b4 51 d4 bd
       -0.104589626 -0.090893075 -0.02700749 -0.10367146
000090 7c f1 5c bd 2d 2e db bd 4c 9e 7a 3d e2 7f 30 bd
       -0.053941235 -0.10702167 0.06118612 -0.04309071
0000a0 cd f0 18 3e 8b 21 cb bd 00 71 e1 bd 7d 53 92 bd
       0.14935608 -0.09918507 -0.11007881 -0.071448304
0000b0 6b 31 c2 bd 41 14 13 bd 5f e2 71 bc 6f 3f 7e bc
       -0.09482082 -0.035907988 -0.014763444 -0.015518053
0000c0 b2 c1 5f 3d 86 91 39 3d 4b c9 1b bc a0 44 1a be
       0.05462808 0.045304798 -0.009508441 -0.15065241
0000d0 97 61 dd bb 0f ba 88 bd f0 8c 7f be 48 12 f5 bd
       -0.0067560184 -0.06676113 -0.24956107 -0.119663775
0000e0 a4 8c 36 3d da 63 1c be 80 ff d5 3b b3 7a c1 3d
       0.04456772 -0.15272465 0.006530702 0.09447231
0000f0 4d b0 28 3e 4f 9c 50 bc 32 0c d6 3d 2e e3 d5 bd
       0.16473503 -0.012732579 0.10451545 -0.10443722
000100 7a 9a 8f bd 03 b8 4a be 8e fd e6 bd 78 e7 16 be
       -0.07011886 -0.19796757 -0.112788305 -0.14736736
000110 7f 64 22 be b7 60 87 be d1 73 3c be 19 60 42 be
       -0.15858649 -0.26440975 -0.18403555 -0.18981971
000120 23 e9 00 3e 48 42 41 be 52 40 44 bd 6e 34 00 be
       0.12588935 -0.1887294 -0.047912903 -0.1252
000130 e8 7a a8 bd ac 5c 80 be 5b 56 1a 3e 04 2f 64 bd
       -0.082265675 -0.25070703 0.15072004 -0.0557089
000140 40 a0 e3 bd 48 9e 59 be 9c 1f 81 bd 60 b8 aa be
       -0.1111455 -0.21251786 -0.06304857 -0.33343792
000150 5a c3 23 be 2d ce ba 3a cf f6 13 be 63 15 e2 bd
       -0.1599249 0.0014252119 -0.14449619 -0.110392354
000160 88 af 2c 3d 0d 9c 48 bc 5d 29 0e 3e a0 ca 54 bc
       0.042159587 -0.012244237 0.13882966 -0.012987763
000170 2f 58 df bd 28 d4 b6 bd ab d3 97 bd 89 46 d7 bc
       -0.109054916 -0.08927184 -0.07413419 -0.026278751
000180 ff 0b 2d 3e ae 21 de 3b 19 c9 9c bd 92 55 e2 bd
       0.16899107 0.0067789173 -0.07655544 -0.110514775
000190 7a 37 27 be e8 19 8e bd 09 90 aa 3e f2 97 68 3e
       -0.16329756 -0.06938535 0.33313015 0.22714213
0001a0 2a b8 88 3e c2 b1 1b 3e 42 ae 04 3d 56 38 a1 be
       0.26703006 0.15204528 0.032392748 -0.31488293
0001b0 47 29 af be c8 c2 dd be 25 44 f6 be 01 47 01 bf
       -0.3421118 -0.4331267 -0.48098865 -0.5049897
0001c0 81 01 22 be 58 45 8e bd 00 33 1d 3c 31 af d1 bd
       -0.15820886 -0.0694682 0.009594679 -0.10238493
0001d0 58 92 fe 3c 4f 25 8f 3d 22 35 16 be 14 d9 ac bc
       0.031075642 0.06989538 -0.14668706 -0.021099605
0001e0 70 a1 b9 bc a6 0f 52 bd fd 76 b6 bd 6d a9 d6 bd
       -0.022659987 -0.051284455 -0.08909414 -0.10481534
0001f0 4d 1a 3d 3e 40 df 36 bd da dc f9 bd 36 df c1 bd
       0.18467064 -0.0446465 -0.12200327 -0.09466402
000200 96 e9 c8 3d b4 e0 7f bd 94 a6 11 3f d7 c5 32 3f
       0.09810178 -0.062470153 0.56894803 0.6983313
000210 1e 69 37 3f 05 37 38 3f 59 d9 41 3f 83 c0 85 bf
       0.7164477 0.71958953 0.7572227 -1.0449375
000220 58 a6 76 bf 03 37 7b bf 7c 71 88 bf 98 1c 7e bf
       -0.9634757 -0.98130816 -1.0659633 -0.9926238
000230 a9 7a 2d be 09 a6 15 be 88 9e df bc c0 32 8c bd
       -0.16941322 -0.14614119 -0.027297273 -0.06845617
000240 40 f0 16 bd 55 0b ad bd 50 07 6e 3d 18 a3 8c bd
       -0.036850214 -0.08449427 0.058112442 -0.06867045
000250 48 bc 5e 3d d4 8e 16 3c d2 0a c7 bd 9b 6a b9 bc
       0.054378778 0.009189326 -0.09718861 -0.022633841
000260 b6 e5 d1 3d a1 f8 e9 bd 88 0a 56 bd 3b 7e c3 bc
       0.10248892 -0.11424375 -0.052256137 -0.023863902
000270 da 86 1f be ea b3 0c 3d fa c1 78 bd 0f 7a 9d be
       -0.15578786 0.034351267 -0.060731865 -0.30757186
000280 75 7a 33 be 42 ab 11 bb 47 69 62 bd a8 64 50 3d
       -0.17527182 -0.0022227322 -0.05527618 0.050877243
000290 31 5e 37 be c4 a7 a7 bd b9 ab 3b be c4 0c 0c bd
       -0.17907025 -0.08186296 -0.18327226 -0.03419186
0002a0 fe 6e d0 3d 1b d2 17 bc 0a 30 a8 3d 0c 6f 89 be
       0.1017742 -0.009266402 0.08212288 -0.26842535
0002b0 7d 09 25 3e 25 0c ce bd b0 4e b9 3c 96 63 c3 bd
       0.161169 -0.1006091 0.022620529 -0.09540479
0002c0 1c 56 17 bd 5b 6f 18 bd 18 56 62 bd 68 dd 8f bc
       -0.036947355 -0.03721557 -0.055257887 -0.01756163
0002d0 fd 37 13 3e ef b8 90 bc ce 90 e8 3d fc 10 3e be
       0.14376827 -0.017666308 0.11355744 -0.18561167
0002e0 97 d6 08 be c5 68 37 be e2 f6 82 3e 36 48 b9 3e
       -0.1336311 -0.1791106 0.25578982 0.36187905
0002f0 15 9d 33 3f 87 09 0c bd 5e 5f 66 3d ee aa 7b bf
       0.70161563 -0.034188773 0.056243293 -0.98307693
000300 70 f5 01 bf d5 ba 59 bf 48 0b 76 bf c8 2e 69 bf
       -0.5076513 -0.8505071 -0.96110964 -0.9108701
000310 de 28 db 3d dd f4 5d 3c 0d 0c 0e 3e e5 75 b6 bd
       0.10701154 0.0135471495 0.13871785 -0.08909205
000320 e1 fe 0e be b5 de 94 be e1 9d 20 be 62 f6 1d be
       -0.13964416 -0.29076162 -0.15685226 -0.15426019
000330 c0 2d 5f bd b4 29 32 be 28 c5 9f bc 6f bd 9a be
       -0.05448699 -0.17398721 -0.019503191 -0.3022265
000340 2c 1d 01 be 2c 55 af bd c9 3b 00 be 99 17 a7 bc
       -0.12608784 -0.08561167 -0.12522806 -0.020396994
000350 f0 cc 05 3c 2d 19 6c be 3c c7 69 be c7 90 86 be
       0.008166537 -0.23056479 -0.22829908 -0.2628233
000360 44 00 5f be a7 4a 2b be 55 9e 76 bd 55 a2 26 3d
       -0.21777445 -0.16727696 -0.06020959 0.040682156
000370 d5 f1 ec bd 21 d4 99 3d f1 ba a4 3d 2b 7e 7d be
       -0.11569563 0.075111635 0.08043469 -0.2475516
000380 47 aa 1e 3e 64 d3 73 be 86 e0 e7 bd 71 c0 bd be
       0.15494643 -0.23811108 -0.11322121 -0.37060884
000390 d0 56 b7 bd e7 19 7e bd a4 1c 2e bd 7f 30 23 be
       -0.08952105 -0.06203642 -0.042507783 -0.15936469
0003a0 50 22 2d bd 8f 58 a5 be b0 0e 28 be 6b 3e 92 bd
       -0.04226905 -0.32294127 -0.16411853 -0.071408115
0003b0 28 48 8a 3c 94 f6 01 bd d8 a5 4b bd 32 a6 44 be
       0.01688011 -0.031729296 -0.049718708 -0.19204023
0003c0 d6 24 dc 3d 57 a2 f5 3c aa bc e6 c0 bd 77 e0 c0
       0.107492134 0.029984636 -7.2105303 -7.0146165
0003d0 ca 49 e3 c0 fe 95 df c0 ef 29 dc c0 bc 6e 15 40
       -7.1027575 -6.9870596 -6.880119 2.3348837
0003e0 0f 7e 39 40 a4 a0 31 40 c2 99 22 40 fe f6 97 40
       2.898319 2.7754297 2.5406346 4.7489004
0003f0 c5 0f 3c 3e de ff 62 bb 44 84 1b be d5 8e 4c be
       0.1836539 -0.0034637372 -0.15187174 -0.19976361

linear1.bias f4 [64]
000000 d0 a3 98 be a1 06 89 bd 0d d1 82 be 5a 77 59 bd
       -0.2981248 -0.066907175 -0.25550118 -0.05309234
000010 23 13 33 be 1d 49 32 be cc 06 71 3c fa 70 a4 bd
       -0.17487769 -0.17410703 0.014711093 -0.08029361
000020 ae 30 c8 3e 94 8a 58 be 7b 20 3a be 39 31 19 be
       0.3909964 -0.21146613 -0.18176453 -0.14960183
000030 21 ab b4 bd df 80 9c bd dc 08 4c be d4 b8 4a be
       -0.08821703 -0.07641768 -0.19925255 -0.19797069
000040 9f 94 92 3d 99 be 73 be 43 48 2b 40 f9 42 7e c0
       0.071572535 -0.23803176 2.6762855 -3.9728377
000050 95 74 c6 bd 97 9b ac be 6f cc 37 be f2 a8 88 be
       -0.09690205 -0.33712456 -0.17949079 -0.26691395
000060 ed 8c 2b be 12 e8 5c be ee 5a 88 c0 f7 e1 e1 3e
       -0.16752978 -0.21572903 -4.2611 0.4411771
000070 71 96 d9 3f 59 65 9b bd c1 58 71 be fd a8 8a be
       1.6999036 -0.0758769 -0.23569013 -0.27082053
000080 fe 6b 3f be ac 64 18 be 5e f5 8d bd 3d 7e 8d bf
       -0.1869354 -0.14882153 -0.06931566 -1.105415
000090 1c e8 19 be b4 d2 ba be 9d a2 d2 bd 29 d3 2a be
       -0.15029949 -0.3648888 -0.10284922 -0.16682114
0000a0 de fb 1e be a8 ac 22 be d3 c9 45 be 6a 95 41 be
       -0.15525767 -0.15886176 -0.19315271 -0.18904653
0000b0 1b 5f 61 bd 87 ab e4 bd 0f 2a 5d bd a3 fb db bd
       -0.05502234 -0.11165529 -0.05399519 -0.10741355
0000c0 c6 bf 72 be e9 18 db bd 6c 9b ad be d8 01 2a be
       -0.23705968 -0.106981106 -0.3390764 -0.16602266
0000d0 96 fa 8b bd d2 54 6a be 89 ec 17 be d9 6c 83 be
       -0.06834905 -0.22883919 -0.14836325 -0.25668982
0000e0 0c 5c 78 be 03 5f d7 be c6 56 87 be 5e 00 13 be
       -0.24253863 -0.42064676 -0.2643339 -0.14355609
0000f0 89 3d 85 be 15 b2 60 be a0 78 af be 69 5e 39 3c
       -0.2602351 -0.21942933 -0.34271717 0.011314013

linear2.weight f4 [256, 64]
000000 b8 0d 2e 3d a6 d0 df bd 02 e7 40 bd 72 66 27 3d
       0.042493552 -0.109284684 -0.047095306 0.040869184
000010 13 ec 12 be 2e 6d a5 bc e8 b9 24 be 9d 19 a7 bd
       -0.14347868 -0.020193662 -0.16086543 -0.08159182
000020 82 08 cf bd f8 a0 39 bd 14 17 96 bd 75 a3 49 3c
       -0.101090446 -0.045319527 -0.073286206 0.012307038
000030 00 03 81 bd aa 42 48 3d 55 0c 15 be ee 29 55 bd
       -0.062994 0.0488917 -0.14555486 -0.05204194
000040 cd 7c 91 bd 91 ae 94 bd d0 1e c2 bd 51 c8 08 bc
       -0.07103882 -0.072598584 -0.09478533 -0.00834854
000050 d1 95 da bd 76 29 fa 3d 6d 5f 92 bc 5e a4 c1 3d
       -0.106731065 0.12214939 -0.017867768 0.09455179
000060 5a b7 d1 bd e2 f5 0f 3c bf 16 2f 3b 0d 40 36 bd
       -0.1024005 0.00878665 0.0026716439 -0.044494677
000070 e2 25 8d bc 3b b4 8c bd c7 e3 44 3d 40 07 83 bd
       -0.017229978 -0.06870314 0.048068788 -0.06397867
000080 3f 59 c1 bd 93 ed c8 3d 62 d8 aa 39 b0 6b 5f bd
       -0.094408505 0.09810939 0.00032586145 -0.05454606
000090 f2 a8 0e be 6d 93 35 3d d9 ae 64 be d3 bf 83 bd
       -0.13931635 0.04433005 -0.22332324 -0.06433072
0000a0 fb 78 c3 bc 8f ce 1c be c6 ed 36 bd 51 6e 38 bd
       -0.023861399 -0.15313171 -0.044660352 -0.04502708
0000b0 cf eb 0f be d8 54 3d be 77 2a a4 3d 19 84 6c bd
       -0.14054798 -0.18489397 0.08015912 -0.057743166
0000c0 83 24 ea bd c7 cf b0 bc f1 6d c0 bc a5 08 05 be
       -0.11432745 -0.021583451 -0.023489924 -0.12991579
0000d0 05 69 c6 bd b7 67 b8 bd c1 0b c6 3d e5 fc 70 3b
       -0.09688 -0.09004157 0.09670211 0.003677183
0000e0 49 d3 87 3d 3e 11 1b bd 13 cf 8d 3d 6d ca 0a bd
       0.06632096 -0.03785824 0.06924262 -0.033884455
0000f0 31 39 d3 3d b9 4c 07 be d6 fb a0 ba 06 a6 89 3d
       0.10313643 -0.13212861 -0.0012282084 0.067211196
000100 2c d8 f7 3b 4c e2 2c 3d 37 b6 49 bc 21 12 5a be
       0.0075636115 0.042208 -0.01231151 -0.21295978
000110 f0 23 08 be 20 da 52 3d 07 46 8c bc 92 8c 32 3d
       -0.13294959 0.05147755 -0.017123235 0.04359109
000120 89 e9 f4 bd e9 c8 d1 3c a5 0b e0 3d 3e b7 49 3e
       -0.11958606 0.025608497 0.10939721 0.19698808
000130 a1 c7 4a 3d 58 48 f9 bd 3e 85 32 be a1 3b 16 be
       0.049506787 -0.121720016 -0.1743364 -0.14671184
000140 1d 35 ec bc 0f f8 e6 3d 81 d3 5c 3c be 20 64 bb
       -0.02883392 0.11277782 0.013478161 -0.0034809555
000150 54 fe 5f 3c 19 e2 71 3d de 88 9e bd bb 6f ca 3c
       0.013671476 0.059053514 -0.07740949 0.02471148
000160 9e 6c 01 be 55 83 c6 bd 09 44 73 bd d4 a9 12 be
       -0.1263909 -0.09693018 -0.059391055 -0.14322597
000170 5d 1a 94 bc 24 c0 0a 3d 39 d5 e1 bd ed ad 19 be
       -0.018078977 0.033874646 -0.11026997 -0.15007754
000180 1d 80 0c be 7a c9 2c 3c 85 87 1a 3b c9 fe f8 3c
       -0.13720746 0.010546083 0.002357931 0.030394929
000190 b2 5a fb b9 4b ce 22 be aa 98 7f be 42 a8 8b 3d
       -0.00047942024 -0.15899007 -0.2496058 0.06819202
0001a0 81 bb 6e bd d2 d2 1b be 98 be 46 be 24 4e 56 bd
       -0.058284286 -0.1521714 -0.19408643 -0.052320614
0001b0 50 18 c4 3d 50 df 77 b9 73 fe 97 bd 3c dc 3a 3d
       0.0957495 -0.00023638946 -0.07421579 0.045620188
0001c0 51 99 f2 bd a9 03 00 be fa 24 9d 3d b3 2d bf bd
       -0.11845649 -0.12501396 0.07673068 -0.09334888
0001d0 40 5d 9f bc c0 6c 33 bd 84 48 a3 bd ec e4 f4 bd
       -0.019453645 -0.043804884 -0.07972816 -0.11957726
0001e0 77 20 28 be df bd e8 bd a6 9c ee bc 86 55 e0 3d
       -0.16418634 -0.1136434 -0.02912743 0.10953812
0001f0 c0 92 1c 3d b7 af c0 bd 0c ea 84 bd 21 0b c7 bd
       0.03822589 -0.09408515 -0.064899534 -0.097189195
000200 17 5c 2e bd e6 5d 89 bd 16 3d c4 bd 27 a2 23 be
       -0.042568292 -0.06707363 -0.09581964 -0.15979825
000210 bb 66 52 be bb ba b5 3d 1b 65 80 be 0f 10 19 3d
       -0.20547001 0.08873507 -0.25077137 0.03736883
000220 08 76 99 bd 4c d3 2e 3d a2 84 2a bd 5a 1e 43 bc
       -0.07493216 0.042681977 -0.041630395 -0.011909092
000230 6d 2e 8b 3d 62 6a af bd 43 a8 65 3c 90 e8 38 be
       0.067959644 -0.08565213 0.0140171675 -0.18057466
000240 17 a1 22 be ae 78 ed bc ac 32 7d be af 7d 0a be
       -0.15881763 -0.028988209 -0.24726361 -0.13524507
000250 94 f2 31 bd a7 e5 4f 3d cb ca de bc 69 4f e3 3d
       -0.04344423 0.050756123 -0.027196309 0.11099131
000260 f7 c6 ed be 04 11 20 3c c1 c5 43 bd be 69 8a bf
       -0.4644086 0.009769682 -0.047796015 -1.081352
000270 52 66 af 3c 33 4a 9c bc 34 6e aa bd ee ce 78 be
       0.021411095 -0.01907835 -0.08321801 -0.24297687
000280 01 7b 93 3e 6c 2b 58 bd 83 f6 03 3e 47 e8 81 bf
       0.28804782 -0.052775785 0.12887006 -1.014901
000290 66 f7 41 bd 27 70 52 be 8f f6 98 be 6a 2a 82 3c
       -0.04735508 -0.20550595 -0.2987561 0.015889365
0002a0 63 a8 d3 bd bb c4 16 be 8c d4 5e be dc d0 17 bd
       -0.103348516 -0.14723484 -0.21760768 -0.03706442
0002b0 c0 33 01 bd e9 86 a3 3d f7 48 00 3e c6 66 72 3d
       -0.031543493 0.079847164 0.12527834 0.059180044
0002c0 b9 01 8c 3d ee 38 f7 bd 82 89 50 bd 3d f7 2a be
       0.06836266 -0.12071405 -0.050912388 -0.16695876
0002d0 e8 d4 64 3c c1 6a 88 bc db 6d 2e be 78 8e 68 be
       0.013966776 -0.016652467 -0.17034094 -0.22710598
0002e0 ba 93 3c be 15 8f 76 be 8b a6 fc bd bd 1b a2 3d
       -0.18415728 -0.24078019 -0.12336453 0.07915447
0002f0 5b 47 7e 3d eb de 18 bd d2 3f d2 bc 35 43 fc 3c
       0.06207977 -0.037321966 -0.025665198 0.030793766
000300 38 89 11 be fd 20 d7 bd b8 fd 68 3d 7a d4 3e bd
       -0.14212501 -0.10504339 0.05688259 -0.046589352
000310 94 93 b0 bd 42 ee b3 3d 42 d2 33 3d cc 12 fb 3d
       -0.08621898 0.087856784 0.04390169 0.122594446
000320 a3 25 6c be 51 e0 ce bd fb ae 52 3c 4a f7 81 3d
       -0.23061232 -0.10101379 0.012859101 0.06345995
000330 aa 95 18 bc da a8 d5 3c 29 05 6d bd 68 26 39 be
       -0.009313026 0.026081491 -0.05786625 -0.18081057
000340 15 c7 85 bd 08 0c 03 be 15 e8 8a bd aa 6b cd bc
       -0.065321125 -0.12797558 -0.067825474 -0.025075752
000350 5c de 26 be 71 59 06 be 2b 34 b7 bd 5a 97 e0 bd
       -0.16295761 -0.13120057 -0.08945497 -0.10966368
000360 e8 de 0e be ab bf 60 3d 53 11 4a be 68 bd 56 be
       -0.1395222 0.05487029 -0.19733171 -0.2097069
000370 95 15 cd bc 10 57 f4 3d 46 d6 f6 bc b1 b7 22 3d
       -0.025034705 0.11930668 -0.03013147 0.039725963
000380 d5 5c 23 3e c0 0e 86 bb 45 e3 72 3c 78 be 59 be
       0.15953381 -0.004091114 0.014824693 -0.21264064
000390 22 bf be bd e2 8f 4c 3d 64 0a 92 be 39 89 8e 3d
       -0.093137994 0.049941905 -0.28523552 0.06959767
0003a0 00 89 08 be 02 38 a5 3d 88 1b 21 be 61 7c 8c bc
       -0.13333511 0.08067323 -0.15733159 -0.017149152
0003b0 60 61 d7 bd 53 d9 7e 3c c2 ec 13 be b9 30 21 bc
       -0.1051662 0.015554744 -0.14445785 -0.009838277
0003c0 c3 94 09 3d a5 fa b4 bc 59 12 86 bd 87 f0 ad bb
       0.033589136 -0.022092173 -0.06546468 -0.005308214
0003d0 b0 ac 86 bd fa 69 80 bd cb 0f 8e 3c 6a d1 18 bd
       -0.06575906 -0.062702134 0.017341515 -0.037309088
0003e0 ac 22 3c be 95 bf c2 bd 80 98 fb bd 77 95 02 be
       -0.18372601 -0.095091976 -0.122849464 -0.12752329
0003f0 b4 a0 f7 3c 89 dd d4 3d 2f fc 76 3a c8 3d c9 bd
       0.030227996 0.10393817 0.00094217336 -0.09826237

linear2.bias f4 [256]
000000 55 1d d6 bd 6c 7e 2e be b6 9d da be b0 05 db bd
       -0.104548134 -0.17040414 -0.4269845 -0.10694444
000010 06 69 8c be df 2e c6 bd f6 4a ad be a6 62 8a bd
       -0.27423877 -0.09676909 -0.33846253 -0.06757097
000020 fc 86 3b be 1b b8 b3 be 8c 67 9b 3f a5 16 81 be
       -0.18313211 -0.351014 1.2140975 -0.2521259
000030 d1 a6 56 be 9d f5 39 be 93 a2 9a be 4f 32 70 be
       -0.20962073 -0.181601 -0.3020216 -0.23456691
000040 e3 0a 22 be db 3f c5 bd 7e e9 b1 be 4a 13 c0 be
       -0.15824465 -0.0963132 -0.34748453 -0.37514716
000050 a6 de dc bd 37 5a cd bd 5a ef b6 bd 07 2b 84 bd
       -0.10784654 -0.10026973 -0.089323714 -0.06453519
000060 3f e8 08 be 70 4a 34 be e5 53 17 3f 2c c8 f6 bd
       -0.13369845 -0.1760652 0.5911239 -0.120498985
000070 4b e1 1c be 35 71 78 be 5f e2 36 be 59 6e 04 bd
       -0.15320317 -0.24261935 -0.17859791 -0.0323318
000080 a8 06 c5 bd 36 e8 7b be 12 64 29 be 4b a3 d8 bd
       -0.0962041 -0.246003 -0.1654208 -0.10578021
000090 97 9c 75 be 1c 47 c4 bd 31 ef c2 bd 47 c4 8b bd
       -0.23985516 -0.095838755 -0.095182784 -0.06824546
0000a0 21 1e 85 bd fc 08 21 be 5f 5b 3d be 9c 42 3f be
       -0.06499887 -0.15726084 -0.18491887 -0.18677753
0000b0 30 45 84 be 4f 26 59 be 9e 22 ed bc 5b 1d 4b bd
       -0.25834036 -0.2120602 -0.02894717 -0.049588542
0000c0 57 7f da bd 74 e6 ca bd 30 6c 0a be 63 52 3a bf
       -0.106688194 -0.09907237 -0.13517833 -0.7278196
0000d0 7b 6c 3d be 00 76 79 be 24 45 71 be ad f2 26 be
       -0.18498413 -0.2436142 -0.23561531 -0.16303511
0000e0 de 76 d9 bb f8 c5 2c be 85 69 72 bd 6e 34 5f bd
       -0.0066364845 -0.16872394 -0.059182663 -0.05449336
0000f0 34 7c b6 bd c9 07 8d be 11 3c 85 bd 83 99 76 bd
       -0.089104086 -0.27545002 -0.065055974 -0.060204994
000100 b2 bc 82 be 93 21 2a be 0c 73 a3 be 7b 1d ce bd
       -0.25534588 -0.1661437 -0.3192371 -0.10064217
000110 cd 53 5d be 62 0e bc bd 5f ff 29 be b4 04 83 be
       -0.21613999 -0.09182431 -0.16601323 -0.25589526
000120 13 c4 4e be 3a 59 b8 bd 50 16 40 bd e5 b6 2b be
       -0.20191984 -0.090013936 -0.04689628 -0.16768987
000130 3b 5e 06 be 71 28 2e be a8 58 aa bd 3f 39 8f be
       -0.13121884 -0.17007615 -0.08317691 -0.27973363
000140 ad 05 99 bd 36 c1 4c bd 0e 5f 12 be b0 54 48 be
       -0.07471786 -0.049988948 -0.14294073 -0.19563556
000150 b5 1a 72 bd 3f 93 25 be 90 60 67 bd 6e 82 68 bd
       -0.0591075 -0.16169451 -0.056488574 -0.056765012
000160 62 b7 1c be 6a 24 db bd bd c7 4b be 99 00 c1 bd
       -0.1530433 -0.10700305 -0.19900413 -0.09423942
000170 c0 92 81 be 5a 1d 9c bd 8e bb 3a bd 29 e3 3d be
       -0.25307274 -0.07622786 -0.045589022 -0.18543686
000180 9b 5c a9 be 0d 3e cc bd 76 61 08 be 7d a3 9d bc
       -0.33078465 -0.09972773 -0.13318428 -0.019242996
000190 e5 73 68 be 99 d7 f1 be b7 cc 34 be 29 84 2e be
       -0.2270046 -0.472348 -0.17656218 -0.17042603
0001a0 4f 60 a9 bd f5 ba 26 be 2e 0b d3 bd 9c c1 d4 bf
       -0.082703225 -0.16282256 -0.10304867 -1.6621585
0001b0 83 ec 18 be 7e ac 4c be 0b 7a 03 be 2d af 92 be
       -0.14933972 -0.19987676 -0.12839524 -0.28649274
0001c0 90 5b 08 be 27 a5 26 be ea ad 58 be e0 28 a6 bd
       -0.13316178 -0.16273938 -0.21160093 -0.08113265
0001d0 72 cc 21 be 9b d0 96 bd 48 23 dd bd f0 49 a8 bd
       -0.15800646 -0.07364007 -0.10797745 -0.082172275
0001e0 78 63 18 be 8c 66 aa ba f8 32 45 be 8e 97 e0 bd
       -0.14881694 -0.0013000532 -0.19257724 -0.10966407
0001f0 f8 8e 6c be 72 e9 b0 bc 26 15 89 be fe 25 0a be
       -0.23101413 -0.02159569 -0.26773947 -0.13491055
000200 69 5b 4a be ff 61 3e be da fc 5f be b4 f8 02 bd
       -0.19761433 -0.1859207 -0.21873799 -0.031975463
000210 2d 02 e5 bd 65 1b 14 bd 01 d6 0b be 9e 8a 35 be
       -0.111820556 -0.036158938 -0.13655855 -0.1772866
000220 34 6c f3 ba 82 66 70 bd a6 13 0e be ca 1c 2c be
       -0.0018571676 -0.05869151 -0.13874683 -0.16807857
000230 95 42 6b be 6f 22 30 be a0 df f1 bd db aa eb bd
       -0.22974618 -0.17200635 -0.11810231 -0.115071975
000240 e9 7e f1 bd c7 c0 aa bd b4 18 0e be b5 ba 3f be
       -0.11791784 -0.083375506 -0.13876611 -0.18723567
000250 27 53 c2 be a5 3b 0f be 16 c7 cc bd 36 0f 42 be
       -0.37954065 -0.13987596 -0.0999891 -0.18951115
000260 d0 cb 00 bd f9 a4 b0 bd 13 8e 00 be 54 ca 72 bb
       -0.03144437 -0.08625216 -0.12554197 -0.0037046866
000270 2d 64 b9 bd 49 18 43 bd e0 92 5c be 8e 14 24 be
       -0.0905231 -0.047630582 -0.21540403 -0.16023466
000280 63 b2 eb be b5 e7 ff bd ea e9 ef be 0f 19 63 bd
       -0.46034536 -0.124953665 -0.4685815 -0.05544382
000290 64 76 5a be bf b2 59 be ef c3 1c be 24 e9 22 be
       -0.21334225 -0.21259592 -0.15309118 -0.15909249
0002a0 98 e8 f3 be 86 7f 45 bf 17 22 1d be 82 b5 11 bf
       -0.47638392 -0.7714771 -0.15345035 -0.56917584
0002b0 89 98 1d be 6b 93 be bc 87 b3 2a be cd d3 d6 bd
       -0.15390219 -0.023263654 -0.16670047 -0.104896165
0002c0 9b 62 2f be 3f 07 f6 be 74 31 9d bd c5 41 84 be
       -0.17127459 -0.48052403 -0.07675448 -0.25831428
0002d0 97 ef bb bd 58 44 57 be c5 47 90 be 79 ba a5 bd
       -0.091765575 -0.21022165 -0.28179756 -0.080922075
0002e0 8f ae cc bc dc 2f c3 bb 26 f0 68 bd 1a d9 68 be
       -0.02498558 -0.005956633 -0.05686965 -0.22739068
0002f0 1f 88 9f bd 74 d4 40 be 82 f9 43 be e1 0b c0 bd
       -0.07789635 -0.18831044 -0.19138148 -0.09377266
000300 3e b5 77 be 20 24 78 be 3f 92 9c bd ab a3 1a be
       -0.24190232 -0.2423253 -0.07645082 -0.15101497
000310 6a 58 87 be 74 6e 9a 3e ac 5f 0e be 54 f7 c6 bd
       -0.26434642 0.30162394 -0.13903683 -0.09715143
000320 f8 5f 8b bd c1 73 ee bd e2 40 1d bd 5d ff 56 be
       -0.06805414 -0.11643172 -0.038391955 -0.20995851
000330 e2 7f c8 bd bb c3 4d be 4e 6c 2f bc d1 f0 06 be
       -0.09790017 -0.20094196 -0.010706974 -0.13177802
000340 53 33 36 be 04 d6 cf bd 59 e9 fd bd e0 9e 48 be
       -0.17793016 -0.10148242 -0.12398023 -0.19591856
000350 48 79 c9 bd 51 b9 67 be 30 ef 6b be 24 26 32 be
       -0.09837586 -0.22629286 -0.23040462 -0.17397362
000360 07 58 0f be 4c bb 14 bf 94 b5 15 be 17 7d 09 be
       -0.13998424 -0.5809829 -0.14620048 -0.13426624
000370 5c 1a 2b bd ed 3b 24 bd 8f 1f 10 bd 21 ce 81 bd
       -0.041773185 -0.040096212 -0.035186347 -0.06338144
000380 2a 14 67 bc d9 70 37 be f4 d8 3a be 3d e8 97 be
       -0.014103929 -0.17914142 -0.18246824 -0.2966937
000390 af 08 a5 bc 15 5e d2 bd 0d 94 35 be ab 5a 99 bc
       -0.020145742 -0.10271851 -0.17732258 -0.018719992
0003a0 45 95 0c be 4e e3 05 be ce 6a 09 be 6e 93 cc bc
       -0.13728817 -0.13074991 -0.13419649 -0.024972644
0003b0 83 a5 31 be 61 ea 74 be bf 02 74 be 35 78 7f be
       -0.17348294 -0.23917533 -0.23829173 -0.24948199
0003c0 1b ca 5a be e5 85 11 be c9 e8 2b be a3 f9 4c be
       -0.2136616 -0.14211233 -0.16788019 -0.20017104
0003d0 76 c1 9f be 5c 19 0f be 0c f0 d9 bd c1 5e 42 be
       -0.31202286 -0.13974518 -0.106414884 -0.18981458
0003e0 67 af da bc b7 e1 df bd bd 1f 0f be c2 15 81 be
       -0.026694966 -0.109317236 -0.13976951 -0.25211912
0003f0 13 e0 2e be 84 54 6d be fc cc 6a be 4d d2 bf bd
       -0.17077665 -0.23176771 -0.22929758 -0.093662836

linear3.weight f4 [64, 256]
000000 fc 08 8a 3b 2b 0d f6 ba 07 2e 0e bf 89 67 0d 3e
       0.004212497 -0.0018772235 -0.5553898 0.13809027
000010 ec 31 04 bd f5 02 cd 3c ea d0 5c bc 16 37 08 3a
       -0.03227417 0.025025824 -0.013477543 0.0005196197
000020 e2 07 86 3c 1a 1a 0a be 47 73 70 bd 62 e8 3e bf
       0.01636118 -0.1348652 -0.058703687 -0.7457334
000030 9b 46 03 3d df 89 c3 3c bc 4e 1a be 75 76 96 be
       0.032049756 0.023869453 -0.15069097 -0.2938725
000040 54 7a 23 bd 8f fd 1a 3d cf a4 3c be d9 51 8b bd
       -0.039911583 0.03783947 -0.18422244 -0.068027206
000050 b8 9f 9f bd 0e 79 88 3d bf fd 6a bc 0f aa 03 3e
       -0.07794136 0.06663714 -0.014342724 0.12857841
000060 f9 17 3c 3a 5c 53 3e bd 95 3a bb bd 71 f3 29 3d
       0.0007175203 -0.046466216 -0.09142033 0.04149193
000070 24 d8 45 bd 69 92 05 bf d3 97 da 3c 5d 64 b2 bc
       -0.04830183 -0.5217653 0.026683724 -0.021776373
000080 3b 8e 68 bd e9 0a e8 3c f1 11 de 3b a2 21 05 3d
       -0.056776267 0.028325515 0.006777041 0.032502778
000090 01 a8 96 bd 82 44 89 bc 00 c0 c7 37 9f 83 81 bd
       -0.07356263 -0.0167563 2.3812056e-05 -0.06323933
0000a0 e5 b7 18 bd a9 e9 12 3b 18 9b f0 be 93 ff cd bc
       -0.03728475 0.0022417104 -0.46993327 -0.025146281
0000b0 12 0e 60 3e e6 73 8c bd 16 83 f9 3c 61 8a 06 3d
       0.21880367 -0.068580434 0.030458014 0.032846812
0000c0 1a 94 76 3d 6d 5b 59 bd 82 28 cf bd 09 b0 11 bd
       0.060199834 -0.053065706 -0.10115148 -0.03556827
0000d0 d4 79 5b bd 3b 65 f4 bc 30 64 3f bf 2b 6f 03 bd
       -0.05358298 -0.029833427 -0.7476225 -0.03208844
0000e0 e4 98 0f bd 80 08 83 bd 94 f5 3c bc 7e 23 b7 bd
       -0.035057917 -0.063981056 -0.01153316 -0.089423165
0000f0 79 92 07 be b5 7e 45 3d 4b a3 96 3d b6 4c 54 3d
       -0.13239469 0.04821654 0.073553644 0.05183097
000100 23 d8 eb 3d f8 3f be 3d 7d ee be be 4e f0 db bc
       0.11515834 0.09289545 -0.37291327 -0.026847985
000110 74 e6 9e bd 84 86 10 3e 78 fb f6 bc 40 e5 89 3d
       -0.07758799 0.14113814 -0.030149207 0.06733179
000120 c8 94 20 3e d1 fd 06 bd fa ae 6b bd c6 57 ce be
       0.15681756 -0.032956902 -0.057539918 -0.4030134
000130 19 01 29 bc 9f 39 e8 3c 29 02 37 bd fb 04 43 bd
       -0.010315203 0.028347788 -0.044679794 -0.04761217
000140 36 0f c2 be 81 6a 9e 3c de df 18 3d ae e8 18 be
       -0.3790223 0.019337894 0.03732287 -0.1493251
000150 27 52 34 3d cb 75 c2 3d ba 4f 30 3b fb ff 22 bc
       0.04402366 0.094951235 0.002690299 -0.009948726
000160 8b 80 32 3d 3b 90 1b bf 90 00 60 3b b6 e6 12 3d
       0.04357962 -0.60766953 0.0034180023 0.035864554
000170 51 3c 62 be 3e d2 d3 bb f3 e5 b4 bd 74 2f 0d bc
       -0.22093321 -0.006464272 -0.08832922 -0.008617271
000180 28 cc 1b bc b4 27 a8 3d 00 c7 2a bd 11 d0 c9 b9
       -0.009509124 0.08210698 -0.041693687 -0.0003849273
000190 ce 45 27 3d 1d 3f 45 3d 0c b1 62 bd d8 ef 99 3d
       0.040838055 0.048155893 -0.055344626 0.0751645
0001a0 12 da 01 be fd a2 93 3d 52 cf 15 3c 7a 99 09 bf
       -0.12680843 0.07208822 0.009143667 -0.5374981
0001b0 f8 ae 04 bc c0 6c 6e be a3 8a 8b bd d9 0f 15 3e
       -0.008098356 -0.23283672 -0.06813552 0.14556827
0001c0 aa 27 82 bc 6c f3 8a 3d 46 02 8c be 88 77 81 bc
       -0.015888054 0.0678471 -0.27345484 -0.015804067
0001d0 2b 84 ab ba dc b6 6a bc 40 4e 3d 3d 5b 8a 88 3d
       -0.0013085654 -0.014325824 0.046217203 0.06667014
0001e0 cd 8b c4 3b 4b b9 28 bd 2a 62 2f bb 1b 73 b6 bc
       0.005998111 -0.041192334 -0.0026761391 -0.022271683
0001f0 8b 28 46 bc a1 cc d6 3c ee 38 5f bf 54 4b 23 bc
       -0.012094627 0.026220622 -0.8719624 -0.00996669
000200 e1 32 7b be db 14 80 bc 87 a0 0a 3d a7 52 bd bd
       -0.24531128 -0.015634945 0.033844497 -0.0924428
000210 73 6e 10 bd 50 00 ac bd ff 12 a2 bd 10 a7 cb bd
       -0.035261583 -0.08398497 -0.079137795 -0.09943974
000220 cb 45 28 3d e2 a1 e3 bd 51 04 95 bc 9a 69 16 3e
       0.041082185 -0.11114861 -0.018190535 0.14688721
000230 7e 2f 52 bb a7 b5 d5 bd 3e 4d 39 3d 8c 35 a9 3c
       -0.0032071765 -0.10435038 0.04523968 0.020655416
000240 79 a1 e9 3c be bc f5 3d 4e df 54 3d bb e7 42 be
       0.028519379 0.1199889 0.051970772 -0.1903371
000250 f8 59 6d 3d e8 83 6d 3c ce 7c b5 bd de e0 98 3d
       0.05794713 0.014496781 -0.08861695 0.07464765
000260 1b d3 00 bd 25 96 52 bd 92 08 4f 3d 09 c1 88 3d
       -0.031451326 -0.05141272 0.050545283 0.066774435
000270 4b 26 01 3d 3b cb 5d 3d a3 a0 90 bd 33 ac cb bc
       0.03153066 0.054148894 -0.07061889 -0.024862384
000280 cf 1a 25 bc a7 eb 88 bd 32 9d 80 be 1c cd e6 bd
       -0.010077192 -0.06685572 -0.2511993 -0.1126959
000290 77 38 0a be b9 ff a2 bf 8d 2f 62 3c 2d 44 83 bd
       -0.13498102 -1.273429 0.013805282 -0.06409488
0002a0 5a fb 68 bf ff f2 54 bf f7 2e 79 3d 4b 83 1f be
       -0.9100853 -0.8318328 0.060835805 -0.15577428
0002b0 3d ad 09 3c bb fa 72 bc 20 39 31 3e 35 49 3f bd
       0.00840312 -0.014830287 0.17306948 -0.046700675
0002c0 96 45 d7 3c 55 2d 08 bf 3a b7 d8 3c c5 6d a4 bd
       0.026278298 -0.5319417 0.026454557 -0.080287494
0002d0 7e 3f 18 3d b4 5c 28 bd e4 47 f2 be f7 71 50 3b
       0.037169926 -0.041104034 -0.47320473 0.003180621
0002e0 d1 72 6f 3d b6 0c 49 3a 71 7c 1a 3c 10 ca 10 ba
       0.058459107 0.00076694356 0.009429083 -0.0005523274
0002f0 f1 dc f9 bc 02 a8 3d 3c a5 c4 e6 3c f2 98 24 3d
       -0.03050086 0.011575701 0.02816994 0.040184923
000300 1e db 73 bb e4 78 0f bd 3e f7 93 3d a0 56 f8 3c
       -0.0037209461 -0.0350274 0.07224892 0.030314744
000310 7b 8a 48 bd ac 6e ef bc 84 89 cd 3a 5f 3c eb 3c
       -0.04896019 -0.029227577 0.0015681242 0.02871531
000320 81 bf 32 3d ac 83 8d 3d 82 df 66 bd 44 1c 30 3d
       0.043639664 0.0690988 -0.056365497 0.042995706
000330 1f 31 c1 ba 5b e2 6e 3d e0 9f 4c bc 02 5b ea 3d
       -0.0014739371 0.05832134 -0.012489289 0.114431396
000340 ef 8e d8 be b2 4c 6b bd 31 5b 69 bb 07 fa a4 3c
       -0.4229655 -0.05744619 -0.0035607333 0.020138754
000350 16 d1 ae 3c d2 c2 8a bd 78 7e ba bd 22 6c 2e bb
       0.021339934 -0.0677544 -0.09106153 -0.0026614745
000360 67 ea eb 3b 86 f2 45 be aa db 2b 3c 44 95 aa 3b
       0.007199574 -0.19330797 0.010489384 0.005205782
000370 8f b9 4d bd ac 1d a6 bd e9 ef 2c bc 9f 7a 5f 3d
       -0.05022579 -0.08111128 -0.010555246 0.0545603
000380 05 38 ab 3d 35 ef 41 3d bd a5 8b bd 40 20 4e bd
       0.08360294 0.047347266 -0.068187214 -0.050323725
000390 48 b0 9d bc 41 6c 59 3d 1a 6a ad bc c8 4e bb bd
       -0.019249097 0.053081755 -0.021168757 -0.09145886
0003a0 74 33 22 3d 6a 62 80 3c f9 60 ce 3c ad 76 0b 3e
       0.03959985 0.015671927 0.025192725 0.1361949
0003b0 50 cd 43 bd 35 ce ce bd a3 c2 44 3d 19 d1 8a bc
       -0.047803223 -0.100979246 0.048037183 -0.016945409
0003c0 8a 44 fa bc 37 cc 63 bc a2 bb 1b bd a2 d2 c3 3c
       -0.03055026 -0.013903669 -0.038020737 0.023904148
0003d0 35 a1 07 3d 6b 00 a6 bd e0 0e 01 bc 6b 5c d0 be
       0.033112723 -0.081055485 -0.007877082 -0.4069551
0003e0 bc 6c 81 bb 2b cf 1d 3d c9 50 e9 bb bd bc 7d bc
       -0.0039497297 0.03852765 -0.007120226 -0.015486893
0003f0 4d 9b 2f bf 01 89 05 bf c8 81 76 bd 29 9f e4 3d
       -0.68596345 -0.52162176 -0.060182363 0.1116317

linear3.bias f4 [64]
000000 85 a8 56 bd 77 5c 4b bd e5 8c f1 bd ae e6 8a bd
       -0.052406806 -0.04964873 -0.117944516 -0.0678228
000010 2f c4 01 be c8 c0 45 be 9a 9e 8f bd 5b 96 8d bd
       -0.12672494 -0.19311821 -0.07012673 -0.06913444
000020 63 ef 1b be e6 3b d0 bd 2d 46 14 be fa 32 52 bf
       -0.15228038 -0.10167675 -0.14479895 -0.82109034
000030 76 8b 5f bd 11 51 fc bc 66 cf cb bd a7 bf 42 bd
       -0.05457636 -0.030800374 -0.099516675 -0.047546055
000040 b9 52 aa bd 50 3a ba bd 35 9c 80 bd b9 8f f0 3c
       -0.08316559 -0.090931535 -0.06279794 0.029365407
000050 89 94 fe bd 2b 45 b2 bd a6 e2 bf bd 66 71 9d bc
       -0.124306746 -0.08704599 -0.09369402 -0.019219112
000060 74 99 84 bd ba bf 23 be b6 11 8f bd 11 63 21 bd
       -0.06474581 -0.15991107 -0.069858 -0.039401118
000070 7e e1 c3 bd 4b 72 e4 bd 21 3c de bd 5c 48 88 bd
       -0.095644936 -0.11154612 -0.108513124 -0.066544265
000080 0d bc f1 bd bb d5 86 bd 48 92 12 be 25 56 b7 bd
       -0.11803446 -0.065837346 -0.14313614 -0.08951978
000090 5c 1a 91 bd 2c f7 e2 bd c6 be ec bd ec 58 15 3e
       -0.07085106 -0.110823005 -0.11559825 0.14584702
0000a0 86 92 0c 40 07 46 7e bd 69 c8 5b bd b7 72 9c bd
       2.196443 -0.062078502 -0.053657923 -0.076390676
0000b0 53 1b e3 bd 4f c0 57 bd 8b 89 7e bd 9b 42 d5 bd
       -0.11089196 -0.052673634 -0.06214289 -0.104130946
0000c0 54 13 a8 bd 2f 0d 34 be 0b bb 65 be bf b3 44 be
       -0.082068115 -0.17583154 -0.22434632 -0.19209193
0000d0 56 75 e3 bc e5 20 a7 bd fd 5e 3a bd 30 65 fe bc
       -0.027765911 -0.08160571 -0.045500744 -0.03105411
0000e0 72 01 b4 bd 98 d1 58 bd 13 ac 1c bd ea 3a 85 bd
       -0.08789338 -0.05293426 -0.03825004 -0.065053776
0000f0 99 31 84 bd e6 10 a5 bd 6a d8 ac bd d2 7b 62 bd
       -0.064547725 -0.08059864 -0.08439715 -0.055293866

linear4.weight f4 [45, 64]
000000 36 e9 fc bf 64 34 80 bd 1d a3 8b 3d a1 14 ef 3b
       -1.975867 -0.06259993 0.06818221 0.0072961603
000010 5e 4a 4a bc bc 26 b6 be b4 20 a1 3d 46 62 94 bd
       -0.012346832 -0.35576427 0.07867566 -0.07245307
000020 e7 0d 2b be 05 89 42 3b 03 33 e8 3d 49 cb 12 bd
       -0.16704522 0.002968372 0.11337855 -0.0358384
000030 86 21 d8 bd 38 49 c7 bd 21 da a0 3d 4c 1d 2b 3d
       -0.10553269 -0.09730762 0.07854105 0.041775987
000040 24 07 13 3d a9 1f ce 3d 88 93 81 3c fb e7 32 bc
       0.03589548 0.100646324 0.015817419 -0.010919566
000050 c3 da 94 bd 14 b9 20 3d e8 53 fc bb 4d 10 a8 bd
       -0.07268288 0.039239004 -0.007700432 -0.08206234
000060 7b bf 97 bd 59 a9 87 3a 70 df 30 be d3 85 14 3d
       -0.07409569 0.0010350152 -0.17272735 0.036260437
000070 e0 72 2d bd 4e 81 98 3d 3c 12 b4 bb 14 ea 15 bd
       -0.04234588 0.07446538 -0.005495338 -0.036600187
000080 77 a0 b6 3d e0 6a 34 bd 46 9d 01 3d 95 da cb 3a
       0.08917325 -0.044047236 0.03164413 0.0015552813
000090 10 c4 4b bd d2 a6 a6 bd 40 b6 72 bc bb 6e 2d 3e
       -0.049747527 -0.08137287 -0.01481396 0.16936772
0000a0 df 1a 50 3f 51 b6 f4 3d 85 e6 26 3d 1c 2e 6f c0
       0.81291 0.119488366 0.040747184 -3.7371893
0000b0 60 35 9b bb bc 5e 10 3d e1 0c fb 3d c9 32 81 c0
       -0.0047365874 0.035246596 0.12258316 -4.0374494
0000c0 40 55 51 3b 03 16 3a be 0b 3e 7d be cf 1f ba 3e
       0.0031941682 -0.1817246 -0.24730699 0.36352393
0000d0 33 4c 95 3c 20 a2 0f 3c 44 5e 71 bf d6 27 b6 bd
       0.018224811 0.008766681 -0.9428446 -0.08894317
0000e0 a6 63 98 bd ef 7b c0 bd f7 a3 5f c0 b1 5c ea 3d
       -0.074408814 -0.093986385 -3.4943826 0.11443461
0000f0 4f 47 08 bd 82 90 91 3d 63 93 b8 bd 98 a0 e8 bc
       -0.03327113 0.07107641 -0.09012487 -0.02839689
000100 81 69 00 c0 7c 6c c9 3d 9b b1 e3 bd e3 a9 0f 3d
       -2.0064394 0.09835145 -0.1111786 0.035074126
000110 bc f4 7b bd c2 70 d6 be 54 af 93 3d f3 be a7 3d
       -0.061512694 -0.41882902 0.072111756 0.081907175
000120 75 c1 b0 3d ce ca f1 3d 31 1d d6 bd 3d 87 1d 3d
       0.08630649 0.1180626 -0.104547866 0.03845905
000130 f8 97 94 bc a6 42 4d 3d 0a 44 cb 3d ea 90 da 3d
       -0.01813887 0.05011239 0.09925087 0.106721714
000140 d3 9a 20 3f 7a 3a 59 3d 12 b7 c6 3d 01 a5 e1 bf
       0.62736243 0.053034283 0.09702887 -1.762848
000150 e8 89 f3 bc 7c ce 54 bd 30 3c 0f 3c 3a 23 7d 3d
       -0.029728845 -0.05195473 0.008742377 0.061801173
000160 df 74 45 bd fb 74 0c 3e 62 97 12 bf 40 79 0b bd
       -0.04820716 0.137165 -0.5726224 -0.03405118
000170 f8 9b ea bc ca 7c ae 3d 00 d5 00 3d c3 3d 32 bd
       -0.028638825 0.085198954 0.031453133 -0.04351593
000180 be f8 18 bd 38 b6 96 bd d4 17 bf 3d a0 14 ef 3d
       -0.037346594 -0.07358974 0.09330717 0.11673856
000190 69 e6 77 bd f1 09 93 3d 70 e8 c0 3c 61 65 23 3f
       -0.06052247 0.071796305 0.023548335 0.63826567
0001a0 51 27 48 3f 82 e3 1a bf 3d 6c 06 3d ff b0 0f c0
       0.7818499 -0.605034 0.032818068 -2.245178
0001b0 a0 33 da bd b2 41 e1 bd c1 5c 6d bd c5 d7 11 3c
       -0.10654378 -0.109988585 -0.057949785 0.008901541
0001c0 b0 70 77 3d b7 d3 45 bd 0b c8 88 bd b8 a4 ae bc
       0.0604102 -0.04829761 -0.0667878 -0.021318778
0001d0 31 08 76 be ec 73 b7 3d c4 6b 81 bf aa f7 42 bd
       -0.24026562 0.08957657 -1.0111012 -0.047599472
0001e0 01 0e cb 3a f0 e4 3f bd a9 57 6f 3f 92 c3 f1 bc
       0.0015491844 -0.04684919 0.93493134 -0.0295122
0001f0 0c c2 86 bd fe 4a f4 3d c6 a8 14 be 4d 74 c8 bd
       -0.0657998 0.11928366 -0.14517507 -0.097878076
000200 a9 f7 ed bf 39 ae dc 3d 15 3e 06 3e 82 94 91 3e
       -1.8591205 0.10775418 0.1310962 0.28433615
000210 9b cf bf bd 06 16 e6 be 35 cc 87 bd c5 3b 8b bd
       -0.093657695 -0.44938678 -0.06630746 -0.067985095
000220 56 99 ac 3d 65 d7 7e 3d 60 42 5d bc 22 f5 70 3d
       0.08427684 0.062217135 -0.013504595 0.058827527
000230 c2 06 c3 3d 2e 67 99 3d 14 12 c3 3d b0 72 42 3c
       0.09522773 0.07490383 0.095249325 0.011868164
000240 8b 93 e0 3e dd 65 71 3d f0 5b d4 3d b7 ef 56 bd
       0.43862566 0.058935035 0.10369098 -0.052474704
000250 be 89 a2 bd c7 6c d3 3c 5d bf 45 3d 94 66 4a bd
       -0.079364285 0.025808705 0.0482782 -0.049414232
000260 46 4e f6 bc 50 88 82 bd ca da 5a be 87 12 e0 3d
       -0.03006662 -0.06373656 -0.21372524 0.10941034
000270 7f bc 86 bc b8 51 cc 3d fb 55 0b bd d0 39 ff 3b
       -0.016447304 0.09976524 -0.034017544 0.007788874
000280 89 1f c7 3c 2b 77 14 3e 2c 27 bd 3d fe 4a 5d bc
       0.02430703 0.14498584 0.09235987 -0.013506649
000290 0a 81 07 be 22 f4 09 3e c4 21 e9 bd 96 38 d7 3e
       -0.13232818 0.13472036 -0.113833934 0.4203536
0002a0 e1 fe 53 3f 3d 33 a6 3e fe 13 2c 3e 30 6f 6d c0
       0.8281079 0.32460967 0.16804501 -3.7099113
0002b0 a8 e1 9e 3c 89 66 0a 3d e6 08 f3 bc 9a 94 84 c0
       0.01939471 0.03378919 -0.029667329 -4.14314
0002c0 fa 58 96 3d 60 d8 be 3d b1 2e 0a be 1b ae 96 3e
       0.0734119 0.09318614 -0.13494374 0.29429707
0002d0 3d 28 56 be 77 30 b0 bd 11 e0 44 bf e8 62 94 3c
       -0.20913787 -0.08602994 -0.769044 0.018113568
0002e0 92 3d e3 3d fa 5c ad bd 3a 4b 83 c0 c9 ee 9a bc
       0.11095728 -0.084649995 -4.102933 -0.01891269
0002f0 9e bf 88 bc 70 0c 72 bc 73 0a a3 3c 12 d6 81 3d
       -0.016692933 -0.014773473 0.019902444 0.06339659
000300 22 f7 c9 bf 72 91 a4 bd 7b 0b 0f 3e b6 4c 3e bd
       -1.5778544 -0.08035554 0.13969223 -0.046459876
000310 1b 63 72 3d 12 2c ac be fc 79 cd bd 68 4e e7 3d
       0.059176546 -0.33627373 -0.10033032 0.11294252
000320 ad 5f 2b bc 8a 89 e0 3d 6f 82 73 3d b2 ab be 3b
       -0.010459823 0.109637335 0.059450563 0.0058188075
000330 17 56 f6 3c 47 f5 2a bd 2a b9 9a bc 00 36 75 bd
       0.030070348 -0.04173782 -0.018887121 -0.05986595
000340 df 3d d3 3e 01 af fa 3c 00 95 93 bb ae 17 bb bf
       0.4125814 0.030601026 -0.004503846 -1.4616601
000350 ce 47 d0 bd ad 00 89 3c fd b3 26 bc 78 9d b3 bd
       -0.10169946 0.016723955 -0.0101747485 -0.08770269
000360 28 ae 75 bc a6 1d c5 3d 46 70 ad be ef 95 9a bc
       -0.014995135 0.096247956 -0.3387472 -0.018870322
000370 d0 26 6c bc ce 80 99 3d 3d e1 ce ba 4b 31 f8 3d
       -0.0144135505 0.07495271 -0.0015783679 0.12118777
000380 06 94 89 bd d6 cf 8a 3d 61 ed 44 3d 14 0d a5 3d
       -0.06717686 0.06777923 0.048077945 0.08059135
000390 40 e6 2d 3d d2 b1 4e 3d 46 39 df 3d 09 75 41 3f
       0.04245591 0.05046255 0.10899596 0.75569206
0003a0 e6 63 43 3f 9b c5 07 bf 3c 03 06 3d 1a 40 0e c0
       0.7632431 -0.53035897 0.03271793 -2.2226624
0003b0 98 af 4d 3d f3 ca 60 3d 91 04 4b bb f8 0e 76 bf
       0.050216287 0.054881047 -0.0030978064 -0.9611659
0003c0 66 f1 00 3e b6 1e 05 bd a7 27 2d bd 5d cd 63 3d
       0.12592086 -0.03249999 -0.042274144 0.05561577
0003d0 47 b9 87 be 20 61 6a 3d a6 eb 52 bf 6e 2e eb bd
       -0.26508543 0.057221532 -0.8239082 -0.11483465
0003e0 1a 3e a6 3d a2 b8 e8 3d 5c 3b 2d 3e 40 52 bd 3d
       0.08117314 0.11363341 0.16917175 0.092442036
0003f0 18 95 04 3e 18 43 b9 3d cb 6e 4b bd f8 1c 90 3d
       0.129475 0.09046 -0.049666207 0.07036775

linear4.bias f4 [45]
000000 2b 72 72 bf ba 2c 83 bf 3d af 7f bf f2 d9 8a bf
       -0.94705456 -1.0248024 -0.9987677 -1.0847762
000010 5b 01 74 bf bf 02 86 bf 97 55 7d bf ba 4d 81 bf
       -0.9531457 -1.0469588 -0.98958725 -1.0101845
000020 84 01 7b bf 0c cd 80 bf 1d a5 87 bf 6d 06 7b bf
       -0.9804919 -1.0062575 -1.0597264 -0.9805668
000030 d6 4f 76 bf 3d be 84 bf e7 a9 7f bf 4b 81 70 bf
       -0.9621557 -1.0370556 -0.99868625 -0.93947285
000040 c0 a7 79 bf c6 84 82 bf 40 dd 80 bf 94 e6 84 bf
       -0.9752159 -1.0196769 -1.006752 -1.0382867
000050 f8 30 7d bf 65 93 7f bf 3e 99 7a bf 88 b2 7d bf
       -0.98902845 -0.9983428 -0.9789008 -0.9910054
000060 3a 2e 83 bf 15 85 81 bf a0 d8 79 bf 43 b4 83 bf
       -1.0248482 -1.0118738 -0.9759617 -1.0289387
000070 63 e6 84 bf 78 b0 74 bf 2c fb 7c bf b6 33 72 bf
       -1.0382808 -0.9558177 -0.9882076 -0.94610155
000080 a7 9c 7a bf 5b c0 7a bf 30 74 85 bf 7f 62 81 bf
       -0.9789528 -0.9794976 -1.0426083 -1.0108184
000090 e4 b2 81 bf c1 92 82 bf f1 f3 77 3f 85 2e 7f bf
       -1.0132718 -1.0201036 0.968566 -0.9968036
0000a0 98 a9 7c bf 39 57 82 bf 81 d9 7e bf 96 23 83 bf
       -0.9869628 -1.0182868 -0.99550635 -1.0245235
0000b0 c2 28 80 bf
       -1.0012438
