model/model_player1.pth (torch, 37655 bytes, 6 tensors)

input_layer.weight f4 [64, 28]
0.08094603 -0.1364602 0.026160477 -0.058154773 0.21574184 0.111881 -0.004670194 -0.41744676
0.23729013 -0.14573692 0.12383541 -0.37854376 0.16539316 -0.42792723 0.028737687 -0.13670348
-0.0017281754 -0.44521332 -1.0841198 -0.69365263 -0.70346326 -0.6464546 -0.8484762 -0.12026259
-0.09115425 0.03710778 0.2427087 0.06832849 0.045264613 -1.2194471 -0.06104829 -0.4660538
-0.026543435 -0.45648077 -0.050177112 -0.29619455 1.1781967 -0.38174582 0.014613768 -0.40875122
-0.028643457 -0.324928 0.12050783 -0.36278167 1.0824465 -0.4371967 0.14608613 -0.014859693
-0.018245978 0.052855797 -0.30417797 -0.20042096 -0.121300735 -0.17256066 -0.08523542 -0.47983927
-0.06644973 -0.7211228 1.3559052 -0.5878039 0.01408981 -0.56364983 0.01169315 -0.7647744
0.83755606 -0.5300701 0.006002007 -0.6600832 -0.05821394 -0.62216747 1.4416007 -0.7359422
0.071272515 -0.62316465 -0.11005781 -0.061106455 -0.15110318 0.063394435 -0.633889 0.026126403
-0.032320634 0.0066882903 0.07609315 -0.5498493 0.12689945 -0.2717949 0.0477405 -0.2272271
-0.062866665 -0.25281993 -0.2477113 -0.42777222 -0.045025997 -0.26093444 0.088953726 -0.553293
0.10897458 -0.45722285 0.00092310325 -0.49605936 -0.22813086 -0.48566517 -0.57506335 -0.8198344
-0.75831103 -0.66856027 -0.99708825 -0.29830942 -0.25723204 -0.3904992 -0.17661771 -0.34833962
0.37607282 0.13821757 0.04721516 -0.0349066 0.39913622 -0.07922297 0.45784983 0.15152103
0.42023715 0.072199814 0.28758204 -0.045433562 0.12008311 0.18615948 0.08737419 -0.11701298
0.22293468 0.07098564 -0.22415109 -0.20093325 0.079743445 0.00694177 0.22077884 -0.46137097
-0.641045 -0.623814 -0.5379559 -0.64427304 1.1431475 -0.38956448 0.037159637 -0.29352778
0.0143487295 -0.36627233 0.14589393 -0.96344644 -0.00069315435 -0.3948539 -0.021647504 -0.33814615
1.1791496 -0.44492954 -0.09330142 -0.35736272 0.029701319 -0.2726581 -0.4471948 -0.5121814
-0.49865377 -0.45393667 -0.7452338 0.29200956 0.32607654 0.33957115 0.28782588 0.018077172
1.200438 -0.46961495 1.2510657 -0.43466455 0.7351869 -0.32143798 0.011179329 -0.39727017
0.039676905 -0.55013317 -0.035778504 -0.4415129 -0.056747027 -0.5033001 -0.0006028088 -0.56171143
-0.041941103 -0.48807377 -0.37775317 -0.40143 -0.27840978 -0.3663061 -0.66773933 0.20121178
0.24011025 0.22809483 0.21606277 -0.12925678 -0.0934902 0.016015708 -0.03854324 0.22249375
-0.07746813 0.12497444 -0.02631995 -0.2598646 0.015857717 0.05205385 -0.049167026 -0.08913878
-0.090702854 0.1587296 -0.16561577 -0.14659652 -0.1428242 -0.1366553 0.049050838 -0.10766942
-0.33021834 -0.3277737 0.12381986 -0.9494173 -1.1062038 -1.2280881 -0.9877915 -0.634899
0.02824737 -0.1119289 0.035134785 -0.14580503 0.97903943 -0.32849094 0.06458565 -0.04550187
0.90659076 -0.072281845 0.082512006 -0.18171747 0.011447728 -0.49199444 -0.081297435 -0.17669779
0.0071904343 -0.14244469 -0.48555052 -0.32181224 -0.34314013 -0.42361447 -0.4999171 0.1970638
0.34936446 0.3082262 0.27604225 0.06909589 0.015426742 0.085945025 0.048068564 0.025544584
00000000: 08c7 a53d 39bc 0bbe 7f4e d63c b333 6ebd
00000010: 6eeb 5c3e de21 e53d 6d08 99bb 95bb d5be
00000020: 2ffc 723e 0f3c 15be 6b9d fd3d 7dd0 c1be
00000030: d35c 293e 4719 dbbe 4c6b eb3c fffb 0bbe
00000040: f283 e2ba 00f3 e3be 70c4 8abf 3893 31bf
00000050: 2b16 34bf 0c7e 25bf bc35 59bf 3c4c f6bd
00000060: 14af babd 54fe 173d a188 783e cfef 8b3d
00000070: 6367 393d d816 9cbf c60d 7abd 9b9e eebe
00000080: 9e71 d9bc d9b7 e9be 8486 4dbd d0a6 97be
00000090: 26cf 963f 3074 c3be 966e 6f3c d747 d1be
000000a0: afa5 eabc f65c a6be cfcc f63d 85be b9be
000000b0: 9b8d 8a3f 3fd8 dfbe 9a97 153e 1276 73bc
000000c0: 9778 95bc 527f 583d 37bd 9bbe 273b 4dbe
000000d0: 856c f8bd beb3 30be e88f aebd 7ead f5be
000000e0: cc16 88bd 819b 38bf 4d8e ad3f 517a 16bf
000000f0: f2d8 663c 5b4b 10bf a094 3f3c 41c8 43bf
00000100: 136a 563f adb2 07bf 7cac c43b 36fb 28bf
00000110: be71 6ebd 5e46 1fbf 5f86 b83f b566 3cbf
00000120: 53f7 913d b887 1fbf fd65 e1bd c34a 7abd
00000130: cbba 1abe f1d4 813d 8d46 22bf 0a07 d63c
00000140: a462 04bd 7229 db3b bad6 9b3d ecc2 0cbf
00000150: eef1 013e b328 8bbe 8b8b 433d 39ae 68be
00000160: 3dc0 80bd 9d71 81be 08a8 7dbe f604 dbbe
00000170: 2e6d 38bd 3399 85be 5f2d b63d 9ca4 0dbf
00000180: 112e df3d 1d19 eabe 69fc 713a 7efb fdbe
00000190: 239b 69be 1ba9 f8be 5a37 13bf abe0 51bf
000001a0: ac20 42bf c426 2bbf 2d41 7fbf 03bc 98be
000001b0: ebb3 83be 83ef c7be 46db 34be 9259 b2be
000001c0: 9e8c c03e e888 0d3e af64 413d 39fa 0ebd
000001d0: 955b cc3e a73f a2bd 4b6b ea3e 5428 1b3e
000001e0: 5329 d73e 7fdd 933d f43d 933e 8b18 3abd
000001f0: 22ee f53d 97a0 3e3e 3df1 b23d 80a4 efbd
00000200: fd48 643e eb60 913d dd87 65be 72c1 4dbe
00000210: 8850 a33d ca77 e33b d913 623e d138 ecbe
00000220: 861b 24bf 46b2 1fbf 7ab7 09bf 14ef 24bf
00000230: a852 923f ff74 c7be b434 183d 4649 96be
00000240: ef16 6b3c 0c88 bbbe 3865 153e 6da4 76bf
00000250: cdb4 35ba 4a2a cabe 1b56 b1bc 7e21 adbe
00000260: 60ee 963f cecd e3be d114 bfbd 3ff8 b6be
00000270: 2e50 f33c d899 8bbe b8f6 e4be 521e 03bf
00000280: 8c4f ffbe 636a e8be a4c7 3ebf 4782 953e
00000290: 81f3 a63e 45dc ad3e ea5d 933e 9416 943c
000002a0: f4a7 993f 5f71 f0be ec22 a03f 5a8c debe
000002b0: 3535 3c3f 8593 a4be 8129 373c ff66 cbbe
000002c0: 4084 223d 87d5 0cbf 7b8c 12bd fb0d e2be
000002d0: 926f 68bd 46d8 00bf d005 1eba 52cc 0fbf
000002e0: 6fca 2bbd cee4 f9be dd68 c1be 3c88 cdbe
000002f0: ba8b 8ebe 798c bbbe f7f0 2abf 760a 4e3e
00000300: 76df 753e b191 693e 8f3f 5d3e e45b 04be
00000310: ca77 bfbd 6033 833c 84df 1dbd 67d5 633e
00000320: 9ca7 9ebd 99f2 ff3d f09c d7bc f90c 85be
00000330: 0be8 813c 6b36 553d 5d63 49bd 658e b6bd
00000340: 6bc2 b9bd 038a 223e 2e97 29be 661d 16be
00000350: 8240 12be 5eef 0bbe 88e9 483d c981 dcbd
00000360: 6112 a9be f4d1 a7be 4495 fd3d 030d 73bf
00000370: 1698 8dbf fe31 9dbf e7df 7cbf be88 22bf
00000380: 0767 e73c fb3a e5bd 7ee9 0f3d ea4d 15be
00000390: 54a2 7a3f f72f a8be 7b45 843d 2b60 3abd
000003a0: 5516 683f 8108 94bd 0efc a83d 2514 3abe
000003b0: 408f 3b3c b2e6 fbbe 457f a6bd 44f0 34be
000003c0: bc9d eb3b 05dd 11be 149a f8be 93c4 a4be
000003d0: 10b0 afbe ffe3 d8be 22f5 ffbe 18cb 493e
000003e0: e6df b23e d3cf 9d3e 6955 8d3e 2582 8d3d
000003f0: 72c0 7c3c f203 b03d 8be3 443d e042 d13c

input_layer.bias f4 [64]
-0.14834327 -0.6172338 -0.37283477 0.056526 -0.48436517 -0.6736998 -0.45725057 -0.014619819
-0.8830489 -0.46646848 -0.48708564 -0.61012316 -0.6536557 -0.17889594 -0.3645088 -0.691624
-0.42110857 -0.76771903 -0.35272372 -0.600483 -0.32127687 -0.23158483 -0.6131849 0.117240764
-0.47252354 -0.31077525 -0.3686993 -0.57194185 -0.50277287 -0.448902 -0.17225976 -0.2044582
-0.06743869 -0.4244955 -0.39629793 -0.6480367 -0.32810593 -0.17922284 -0.17945233 -0.526355
-0.49897364 -0.30377996 -0.41325775 -0.63206667 -0.62744004 -0.70844215 0.37405053 -0.08862001
-0.57045466 -0.700852 -0.21064083 -0.35403955 -0.32195958 -0.49791273 -0.52854496 -0.11713179
-0.8010136 -0.3431541 -0.35622343 -0.34204495 -0.47543535 -0.04834258 -0.11506019 0.34030187
00000000: 4ce7 17be 0903 1ebf 33e4 bebe cf87 673d
00000010: b6fe f7be 9777 2cbf bf1c eabe f787 6fbc
00000020: 7e0f 62bf f5d4 eebe 4a63 f9be 0831 1cbf
00000030: fb55 27bf 7f30 37be e6a0 babe 450e 31bf
00000040: 8b9b d7be 3c89 44bf 3498 b4be 41b9 19bf
00000050: 677e a4be 9324 6dbe b0f9 1cbf ed1b f03d
00000060: 9bee f1be ef1d 9fbe 28c6 bcbe c86a 12bf
00000070: b9b5 00bf 7cd6 e5be dd64 30be 7e5d 51be
00000080: 4c1d 8abd 7957 d9be 90e7 cabe bce5 25bf
00000090: 80fd a7be 3186 37be 5ac2 37be 34bf 06bf
000000a0: 7979 ffbe 0c89 9bbe 8596 d3be 1fcf 21bf
000000b0: e99f 20bf 775c 35bf 8d83 bf3e 687e b5bd
000000c0: 5109 12bf 096b 33bf 3bb2 57be ac44 b5be
000000d0: e3d7 a4be 6bee febe b94e 07bf cbe2 efbd
000000e0: 3a0f 4dbf e5b1 afbe eb62 b6be 8420 afbe
000000f0: 436c f3be df02 46bd ada4 ebbd 0c3c ae3e

dl1.weight f4 [64, 64]
0.06677909 -0.09432087 0.04501986 0.060274825 0.013340576 -0.040589765 -0.10495865 -0.060187697
-0.07754433 -0.024887891 0.020096749 -0.057007175 -0.07171856 0.07125644 -0.0045684753 -0.074196726
-0.13303961 -0.102338366 0.013172299 0.07027914 -0.12550919 0.021190833 0.024567379 0.040892497
-0.041876275 0.051578976 -0.09079918 -0.006021624 -0.07392175 0.026239336 -0.0992705 -0.026114846
0.041776236 -0.12872843 -0.005593766 -0.13946319 -0.11767865 -0.12144302 -0.06853551 -0.08511885
0.0016085434 -0.112435155 0.020757198 0.026737733 -0.07412253 -0.017682938 -0.051952228 -0.08483638
-0.09053316 -0.0944384 0.007422186 0.07882435 0.006204352 0.047136214 0.055359866 -0.04983262
0.0045589907 0.059218157 -0.004858973 -0.083777994 0.064878464 0.009250142 0.015707757 0.012215618
-0.2141073 -0.109509915 -0.098231725 -0.101416856 -0.47399193 -0.6868142 0.30617496 -0.49596962
-0.069540635 -0.0037661896 -0.1362326 0.16190103 -0.23314382 0.15677148 -0.31959158 -0.14626504
0.32220635 -1.0683023 -0.7977166 -0.029820109 -0.08775479 0.25143778 -0.12067308 0.1717667
0.84280676 0.45662954 -0.40395206 0.5679698 0.22545524 -0.33238095 -0.034702804 0.014294425
-0.05250837 -0.02897901 -0.5664413 -0.30193457 0.36941785 0.44541827 -0.22999744 -0.46887538
0.23570764 0.36278108 -0.642722 -0.12294943 0.19956878 -0.0970159 -0.1754738 -0.07231114
0.6698615 -0.854553 -0.19403666 0.04486003 0.41207743 0.16396132 -0.28153265 -0.0922799
-0.39133385 0.18316716 -0.16491747 0.16126141 0.1877885 0.35774565 0.40190688 0.06074784
-0.15080906 -0.11422925 0.1614059 -0.048795454 0.09173311 0.3486417 1.0093943 0.069006495
-0.10244139 -0.18556492 -0.08121754 -0.2743317 0.5069779 -0.16609702 -0.22451939 0.15923288
0.17760001 -0.08460469 -0.23852456 -0.39962998 0.042484485 -0.11049888 -0.075512886 -0.14422497
-0.1741114 0.21634282 0.27677122 0.004060512 -0.09748959 0.06789635 0.14117663 0.14664237
0.18767312 -0.34626347 0.062455513 -0.24294735 0.13624659 -0.036059838 0.015287706 -0.08355521
-0.16417743 0.013780286 0.41955766 -0.08074822 -0.07806509 -0.09922509 -0.08980177 -0.2341389
0.57338446 -0.10895906 -0.08504268 -0.28152928 0.20071377 -0.35547248 0.003222593 -0.15471318
-0.11845439 -0.025367677 0.16710767 -0.04732106 -0.005776087 -0.15613537 -0.017371597 -0.046125654
0.46747655 -0.8035397 -0.07723366 -0.07207557 -0.09844758 0.670551 -0.096938305 0.22102603
1.2437226 0.058840036 0.5821703 -0.06973386 -0.44277504 0.18172601 0.17992292 0.056085274
0.026916184 0.022888144 0.5122344 -0.11089146 0.20996833 -0.44248027 -0.28393978 0.04092821
0.059272822 -0.3016004 -0.09532524 -0.04073733 1.3344171 0.0676356 -0.06353106 -0.0012600318
0.33625585 0.42631492 0.116758525 0.6312344 -0.12808743 -0.51991546 -0.15962696 -0.26659286
0.13362947 -0.011104027 0.853151 0.24415931 -0.28602767 1.5952595 -0.25165427 -0.06306174
0.03880802 0.30016088 -0.014129605 0.52874106 -0.024903277 0.3727837 0.051005747 0.2845784
-0.22818689 -0.0016240869 0.31550017 0.09966602 -0.34877443 0.15332487 -0.23504895 -0.26187852
00000000: 7ac3 883d 4d2b c1bd bf66 383d bce2 763d
00000010: 6e92 5a3c 7441 26bd 90f4 d6bd 6087 76bd
00000020: 90cf 9ebd b1e1 cbbc f0a1 a43c 5b80 69bd
00000030: 2ee1 92bd e5ee 913d 26b3 95bb 74f4 97bd
00000040: 893b 08be c796 d1bd a0d0 573c 82ee 8f3d
00000050: 7b85 00be 6698 ad3c 8741 c93c e47e 273d
00000060: 7586 2bbd 7a44 533d ecf4 b9bd 0b51 c5bb
00000070: 4964 97bd e0f3 d63c 554e cbbd cdee d5bc
00000080: 8f1d 2b3d 63d1 03be e94b b7bb 70cf 0ebe
00000090: 8101 f1bd 1eb7 f8bd 585c 8cbd cb52 aebd
000000a0: c3d5 d23a 6744 e6bd 000b aa3c 1709 db3c
000000b0: 8ecd 97bd cfdb 90bc dccb 54bd b2be adbd
000000c0: 7369 b9bd eb68 c1bd cf35 f33b a96e a13d
000000d0: e04d cb3b e711 413d 07c1 623d 4a1d 4cbd
000000e0: 9663 953b bd8e 723d 0538 9fbb cc93 abbd
000000f0: 00df 843d e88d 173c 8ead 803c 0424 483c
00000100: f23e 5bbe bc46 e0bd b72d c9bd a4b3 cfbd
00000110: 12af f2be 0ed3 2fbf f7c2 9c3e bbef fdbe
00000120: 526b 8ebd 2dd2 76bb 8f80 0bbe 62c9 253e
00000130: 41bd 6ebe b488 203e 82a1 a3be 81c6 15be
00000140: 3bf8 a43e 21be 88bf 2837 4cbf 4d49 f4bc
00000150: c9b8 b3bd 74bc 803e 7323 f7bd 9ce3 2f3e
00000160: 2fc2 573f 59cb e93e ced2 cebe 7866 113f
00000170: bddd 663e d62d aabe 8724 0ebd 2a33 6a3c
00000180: 0413 57bd 6465 edbc 4c02 11bf 2b97 9abe
00000190: 5624 bd3e dd0d e43e 7384 6bbe 6f10 f0be
000001a0: 585d 713e 71be b93e 6e89 24bf e9cc fbbd
000001b0: c25b 4c3e 46b0 c6bd 67af 33be dd17 94bd
000001c0: 0b7c 2b3f fcc3 5abf 8cb1 46be 27bf 373d
000001d0: d0fb d23e 7ae5 273e 0c25 90be 3ffd bcbd
000001e0: e95c c8be 2c90 3b3e 20e0 28be b621 253e
000001f0: a14b 403e 702a b73e bdc6 cd3e bad2 783d
00000200: b16d 1abe 06f1 e9bd 9747 253e bedd 47bd
00000210: 92de bb3d 2a81 b23e d533 813f 4753 8d3d
00000220: cbcc d1bd bb04 3ebe 6255 a6bd 3475 8cbe
00000230: 4ec9 013f 5615 2abe 69e8 65be f20d 233e
00000240: c7dc 353e 3945 adbd c83f 74be 4d9c ccbe
00000250: 3604 2e3d 3d4d e2bd 80a6 9abd b6af 13be
00000260: 424a 32be f988 5d3e f5b4 8d3e 0b0e 853b
00000270: 9fa8 c7bd 3e0d 8b3d 9b90 103e 6b29 163e
00000280: 622d 403e 7249 b1be 5ad1 7f3d 31c7 78be
00000290: 3a84 0b3e 7bb3 13bd 4979 7a3c fe1e abbd
000002a0: 211e 28be b5c6 613c 43d0 d63e 535f a5bd
000002b0: 97e0 9fbd 8636 cbbd fee9 b7bd 1cc2 6fbe
000002c0: 53c9 123f ed25 dfbd db2a aebd 9b24 90be
000002d0: e987 4d3e 7d00 b6be 2432 533b 226d 1ebe
000002e0: 3798 f2bd e0cf cfbc 461e 2b3e bad3 41bd
000002f0: 5445 bdbb f3e1 1fbe e14e 8ebc 41ee 3cbd
00000300: 1659 ef3e c7b4 4dbf ae2c 9ebd 5b9c 93bd
00000310: e39e c9bd 3ba9 2b3f 9787 c6bd a654 623e
00000320: 4d32 9f3f 4002 713d 1d09 153f a0d0 8ebd
00000330: 69b3 e2be 6216 3a3e b73d 383e acb9 653d
00000340: 547f dc3c eb7f bb3c cb21 033f 101b e3bd
00000350: f001 573e c68c e2be 8e60 91be 57a4 273d
00000360: 0fc8 723d 5e6b 9abe e139 c3bd 30dc 26bd
00000370: 2ece aa3f 8984 8a3d 931c 82bd a727 a5ba
00000380: ba29 ac3e f345 da3e 181f ef3d 9498 213f
00000390: 5a29 03be 2e19 05bf 4075 23be dc7e 88be
000003a0: 2ad6 083e aaed 35bc 1b68 5a3f e604 7a3e
000003b0: 3872 92be 7731 cc3f d4d8 80be 8326 81bd
000003c0: 29f5 1e3d b0ae 993e dc7f 67bc 935b 073f
000003d0: f501 ccbc 81dd be3e 67eb 503d 43b4 913e
000003e0: d3a9 69be 50df d4ba 3d89 a13e b31d cc3d
000003f0: 9092 b2be 3201 1d3e acb0 70be f114 86be

dl1.bias f4 [64]
-0.20623459 -0.38375962 -0.11074383 0.105910376 -0.27389795 0.1855032 -1.0302936 -1.0808941
-0.18654582 -1.0443774 -1.1885012 -0.18739265 -0.87525904 -0.26136073 -0.16101716 -0.25405043
0.027076967 -1.0020623 -0.9492425 -0.02232607 -0.2018932 -0.11663806 -1.1427168 -0.036594708
-0.22254328 -1.0427203 0.0064473534 -0.30122387 -0.17961866 -0.11710104 0.18511169 0.14240673
-0.62786025 -0.4843391 -0.9678124 0.102010846 -0.8934796 0.03491044 -1.1398634 -0.021595402
-1.0023713 -0.15194626 -0.07036084 0.2352008 -0.7954427 0.12860881 -0.02813574 -0.00043726707
-0.8281693 -0.93071103 0.05870069 -0.9682093 -0.9596928 0.201497 -1.1569629 -1.0996373
-0.99860215 -0.11604846 -0.7152202 -0.61407924 -0.2693159 0.09966876 0.16632849 0.07955094
00000000: 292f 53be 247c c4be a9cd e2bd 8ae7 d83d
00000010: 5a3c 8cbe 8df4 3d3e a9e0 83bf bd5a 8abf
00000020: de05 3fbe 29ae 85bf cf20 98bf dce3 3fbe
00000030: fa10 60bf 13d1 85be afe1 24be e612 82be
00000040: 84d0 dd3c 9443 80bf 8e01 73bf 2ae5 b6bc
00000050: 17bd 4ebe efdf eebd 8b44 92bf 55e4 15bd
00000060: 63e2 63be dc77 85bf 5244 d33b 043a 9abe
00000070: f4ed 37be acd2 efbd eb8d 3d3e 12d3 113e
00000080: 73bb 20bf 4bfb f7be 8ec2 77bf 10eb d03d
00000090: 14bb 64bf 40fe 0e3d 0be7 91bf d7e8 b0bc
000000a0: b44d 80bf cd97 1bbe 5819 90bd 7ad8 703e
000000b0: 22a2 4bbf 07b2 033e ec7c e6bc fe40 e5b9
000000c0: e702 54bf 1443 6ebf 2270 703d 91dc 77bf
000000d0: 6dae 75bf 3b55 4e3e 5c17 94bf eac0 8cbf
000000e0: 64a4 7fbf d1aa edbd ac18 37bf 4c34 1dbf
000000f0: c6e3 89be 231f cc3d 0452 2a3e 9aeb a23d

output_layer.weight f4 [45, 64]
-0.05146405 -0.3540383 0.2030669 -0.27020407 -0.16532288 -0.11436359 -0.86300653 -0.82053566
0.25521564 -0.30297577 -0.8012844 -0.09162974 -0.34629852 0.0646284 0.59805477 0.26718834
0.72081923 -0.5620692 -0.74545926 0.023996511 -0.009042393 1.2369685 -0.69939756 5.2821608
-0.12942621 -0.9153608 0.14175959 1.2847552 -0.11961185 -0.655466 -0.16418964 -0.18905768
-0.49215406 -0.20480783 -0.7420361 0.8965466 -0.20221771 -0.25782868 -0.8216263 -0.27890727
-0.5248608 -0.10386775 0.3573592 1.5312164 -0.36506364 2.9037132 -0.04978748 -0.12747784
-0.75543314 -0.7537139 -0.17882949 -0.35309666 -0.45704895 -0.30060786 -0.83825135 -0.8740074
-0.5173208 -0.088512145 -0.5611336 -0.19130939 -0.102459505 -0.40958506 1.7776736 1.9566914
-0.07942684 -0.256612 0.4267432 -0.010697999 0.035929505 -0.28579327 -0.4403277 -0.61701614
0.08725826 -0.7357115 -0.42812398 0.10531291 -0.50876707 0.111447975 0.77438235 0.08490675
1.2542756 -0.2585193 -0.5292406 0.010723214 -0.0019099116 0.42235824 -0.50915533 1.3596289
-0.062170766 -0.38186148 -0.35851267 0.236553 -0.012583712 -0.8347555 1.5689185 0.7217675
-0.81550664 0.14224695 -0.7790123 1.7701677 -0.48295492 -0.84024316 -0.6616316 -0.43408084
-0.29418474 -0.089577734 1.2187616 -0.27790326 -0.28753114 0.08001108 0.39349756 1.2807795
-0.3482736 -0.40670192 0.56994194 -0.7190298 -0.3760788 -0.4808505 -0.65822434 -0.34001043
-0.26416543 -0.049200833 -0.30267525 -0.017946368 0.118908405 0.9396563 1.3460276 0.09364858
0.01820728 0.26522648 1.1388537 -0.046856258 -0.1009311 -0.20295355 -0.6310222 -0.6503724
0.1976537 -0.41172665 -0.33021113 -0.07956643 -0.14335354 0.054414563 -0.27054223 0.11834007
0.74608374 -0.4414613 -0.8225592 0.07545375 0.07875917 0.46608418 -0.5286418 0.20153776
0.39528117 -0.6757584 -0.27687326 0.043099508 -0.032512713 0.8266441 0.10249625 0.9826069
0.8624356 0.30497345 -0.56558037 -0.18936005 -0.2382637 -0.4340449 -0.512008 -0.3759519
-0.35720444 0.018230217 0.025014862 -0.07851964 -0.2772955 1.6919409 2.5941548 0.448774
-0.34295607 -0.7277267 0.9271862 -0.6321754 -0.61300784 1.3547245 -0.7848299 -0.5284737
-0.6528127 -0.0068712463 -0.09953767 -0.03568306 0.12280181 0.033522446 0.5870627 0.020829873
-0.03706822 -0.24866422 0.1441646 0.2043987 -0.118491285 -0.48709738 -0.48008487 -0.62386566
0.12575452 -0.46187362 -0.6572901 0.019699777 -0.21377054 0.13204876 -0.33883622 -0.001898738
0.98651654 -0.5534077 -0.7278711 0.15179175 -0.058678363 0.3093849 -0.56569546 0.45693237
0.021098107 -0.65689296 4.9630017 0.39467567 -0.147141 0.21821938 -0.252227 0.32121816
-0.3379012 0.23635408 -0.3271673 -0.33799613 -0.25258234 -0.58824265 -0.7628899 -0.19807039
-0.7971189 -0.00893434 0.19409472 0.4385425 -0.33050284 -0.513469 0.08187099 -0.0809995
-0.35939834 -0.42235717 0.38523528 -0.6910915 -0.57055485 0.01741022 -0.6921864 -0.6621357
-0.43746057 0.12240978 -0.19894396 -0.067052595 -0.030709766 1.2658373 1.1374401 1.654598
00000000: f8cb 52bd 8244 b5be c5f0 4f3e 3058 8abe
00000010: 674a 29be 7537 eabd ffed 5cbf a00e 52bf
00000020: a0ab 823e a41f 9bbe f920 4dbf 60a8 bbbd
00000030: 0a4e b1be e55b 843d 1e1a 193f e9cc 883e
00000040: 9c87 383f c4e3 0fbf 6bd6 3ebf 5594 c43c
00000050: 8c26 14bc fc54 9e3f b80b 33bf 7607 a940
00000060: 4e88 04be 1655 6abf 6d29 113e dc72 a43f
00000070: 0ff7 f4bd 9fcc 27bf 5421 28be 5698 41be
00000080: 9efb fbbe 25b9 51be 14f6 3dbf 1484 653f
00000090: 2912 4fbe 1f02 84be 1a56 52bf efcc 8ebe
000000a0: 475d 06bf 9db8 d4bd c9f7 b63e e6fe c33f
000000b0: 9fe9 babe 70d6 3940 f5ed 4bbd 8d89 02be
000000c0: 1164 41bf 65f3 40bf 141f 37be 16c9 b4be
000000d0: 5202 eabe 46e9 99be a497 56bf f3be 5fbf
000000e0: 236f 04bf db45 b5bd 74a6 0fbf 9ce6 43be
000000f0: 4ad6 d1bd 22b5 d1be cf8a e33f dd74 fa3f
00000100: 8aaa a2bd a662 83be 167e da3e a946 2fbc
00000110: d12a 133d 7f53 92be a272 e1be c5f4 1dbf
00000120: 75b4 b23d 9757 3cbf 1133 dbbe 4cae d73d
00000130: 8f3e 02bf d63e e43d ec3d 463f 97e3 ad3d
00000140: 1a8c a03f a45c 84be 507c 07bf 6bb0 2f3c
00000150: 0056 faba 573f d83e 0158 02bf 5208 ae3f
00000160: c6a6 7ebd 5983 c3be f98e b7be f33a 723e
00000170: ea2b 4ebc 89b2 55bf 52d2 c83f c1c5 383f
00000180: 0bc5 50bf 2fa9 113e 5a6d 47bf db94 e23f
00000190: de45 f7be 2d1a 57bf b060 29bf d83f debe
000001a0: 629f 96be 8874 b7bd 6100 9c3f 5649 8ebe
000001b0: 4837 93be d9dc a33d 8378 c93e 95f0 a33f
000001c0: eb50 b2be 3c3b d0be b7e7 113f 5612 38bf
000001d0: 678d c0be 0932 f6be 6481 28bf d915 aebe
000001e0: b140 87be d086 49bd 40f8 9abe 4304 93bc
000001f0: 4086 f33d 518d 703f a24a ac3f d4ca bf3d
00000200: 6f27 953c c4cb 873e f5c5 913f 59ec 3fbd
00000210: f7b4 cebd 0ed3 4fbe ac8a 21bf ce7e 26bf
00000220: bb65 4a3e d6cd d2be 6f11 a9be b9f3 a2bd
00000230: 45cb 12be cee1 5e3d 8384 8abe 475c f23d
00000240: 58ff 3e3f 3707 e2be 3d93 52bf 7f87 9a3d
00000250: 7d4c a13d 96a2 ee3e 1255 07bf ea5f 4e3e
00000260: 4b62 ca3e 81fe 2cbf 55c2 8dbe 1c89 303d
00000270: 0d2c 05bd f39e 533f 8ee9 d13d 208c 7b3f
00000280: 94c8 5c3f 7b25 9c3e e0c9 10bf 9ae7 41be
00000290: 66fb 73be 223b debe f512 03bf c47c c0be
000002a0: 80e3 b6be 8957 953c f8eb cc3c e8ce a0bd
000002b0: adf9 8dbe 8591 d83f a206 2640 b5c5 e53e
000002c0: f097 afbe 4c4c 3abf 135c 6d3f 3fd6 21bf
000002d0: 15ee 1cbf 9d67 ad3f 9dea 48bf 0d4a 07bf
000002e0: bc1e 27bf 3128 e1bb 68da cbbd 6628 12bd
000002f0: 847f fb3d d54e 093d be49 163f 69a3 aa3c
00000300: d9d4 17bd d5a1 7ebe e39f 133e e54d 513e
00000310: 8fab f2bd d464 f9be afcd f5be a9b5 1fbf
00000320: cbc5 003e b37a ecbe 2a44 28bf 6d61 a13c
00000330: aae6 5abe ca37 073e f17b adbe 13df f8ba
00000340: 598c 7c3f 21ac 0dbf c355 3abf 4c6f 1b3e
00000350: b958 70bd b367 9e3e 6bd1 10bf 0af3 e93e
00000360: f0d5 ac3c 232a 28bf e9d0 9e40 ee12 ca3e
00000370: 21ac 16be e774 5f3e e623 81be b576 a43e
00000380: 6301 adbe ce06 723e 7982 a7be d40d adbe
00000390: 7952 81be 1297 16bf c14c 43bf f7d2 4abe
000003a0: fc0f 4cbf 5761 12bc c4c0 463e a488 e03e
000003b0: ab37 a9be b472 03bf faab a73d 11e3 a5bd
000003c0: 0f03 b8be 333f d8be 8f3d c53e 5feb 30bf
000003d0: e20f 12bf e19f 8e3c 2133 31bf ba81 29bf
000003e0: d5fa dfbe fbb1 fa3d f7b7 4bbe df52 89bd
000003f0: 0c93 fbbc f506 a23f a397 913f dec9 d33f

output_layer.bias f4 [45]
1.1958464 1.4170221 1.4641542 1.7489513 1.1869415 1.348748 1.2035265 1.2612439
1.1569358 1.4596233 1.6290767 1.6340034 1.9465766 1.2681657 1.7148281 1.3152164
1.4501116 1.2065196 1.6415353 1.8488587 1.6069174 2.0643954 1.3221571 1.7679684
1.5402331 1.5384816 1.3921095 1.74348 1.9098816 1.6606905 2.13979 1.007942
1.8565927 1.607935 1.5322335 1.3697292 1.7268407 1.9826554 1.5549903 2.072165
1.1954991 1.9699223 1.5211565 1.6096879 1.4781514
00000000: 7f11 993f fb60 b53f 6869 bb3f a3dd df3f
00000010: b3ed 973f c6a3 ac3f 280d 9a3f 7170 a13f
00000020: 7916 943f f0d4 ba3f 9685 d03f 0627 d13f
00000030: 6c29 f93f 4153 a23f 7d7f db3f 0359 a83f
00000040: 429d b93f 3c6f 9a3f d41d d23f 67a7 ec3f
00000050: 78af cd3f 0e1f 0440 723c a93f ca4c e23f
00000060: 5c26 c53f f7ec c43f a530 b23f 5a2a df3f
00000070: 0077 f43f 8291 d43f 52f2 0840 3e04 813f
00000080: d4a4 ed3f d0d0 cd3f 3a20 c43f 4953 af3f
00000090: 1e09 dd3f a7c7 fd3f ec09 c73f 5a9e 0440
000000a0: 1d06 993f 6a26 fc3f 42b5 c23f 410a ce3f
000000b0: 1134 bd3f
