model/model_player2.pth (torch, 341015 bytes, 6 tensors)

input_layer.weight f4 [256, 28]
00000000: d5aa ce3d ece3 04be f5f4 683e 8993 b83d
00000010: b53b 20bd 394b 473d 25f5 8ebe c01b c03d
00000020: 0b63 f53d 8b6f 64bc 70d6 a4bd 1a2c e6ba
00000030: ae50 29be 0916 7cbc 0c20 ca3d f3db 503e
00000040: 76e9 243d c21d 1e3d f6cb fc3d 2002 ba3d
00000050: cead 1b3e 8270 d4be 4b2b 833e efb9 31be
00000060: 6495 743c 4ed3 cf3d 7269 f2be e8ab 133e
00000070: aca3 f73d 6125 19be 44f8 1c3e 2f3d 2fbe
00000080: 61bf 103e bc94 da3d 9151 ac3e f620 333e
00000090: a9bd 203e 78fb 82bd b638 16be 308d 17be
000000a0: f7b5 3a3e 26da 65be 7993 babd 27f0 0b3d
000000b0: 1e95 1f3e 9856 2b3e c0b1 123e 5286 73be
000000c0: 509a 4d3d 4564 14bd 5004 f3bd cbfa 6abd
000000d0: 4b1f babd 431c 37be c7ab 8c3d 5232 b0bc
000000e0: ee4d 04be 3082 513d 1e14 203e d25a b43c
000000f0: 42b8 f0bd 51f6 b73d 7061 283d 5428 953d
00000100: ca08 fabd 37d5 8cbe bfb2 8b3e 27f4 b43d
00000110: a227 ee3d b688 20bd 53df 153e 815b cfbd
00000120: f416 65bd d251 143e 6b32 e63d 60e1 e7bc
00000130: 2f5f 6d3b 7681 d13b 4602 eabb 25e4 48be
00000140: 7111 16be 6114 863b 35f4 813d 73b1 a5be
00000150: 9029 81bc f716 a3bd 204c d33b e334 a13e
00000160: 7b5e 04be f87e e53d 394d 2dbe 658f 233e
00000170: 4aad ecbd aaf6 163e 826d 503e c3ef ec3d
00000180: 6ef2 02be 33b4 643d 485c e03d 3126 b83d
00000190: 2027 56bd 0921 be3d d5a1 823d a5c8 24be
000001a0: 4cc0 ac3d 2dab 563e 94af 963d 8a4b 3cbe
000001b0: 1d6f 193d 95b4 28be 5f7a a13e b32a b03d
000001c0: 9f69 b63c c1d7 4c3e 599f e7bd d5e5 76bd
000001d0: bf08 fe3c c56d acbe c24b 2bbd da37 9d3d
000001e0: a1da 6abe ab4d 8fbd 2d5f 3c3e ffe5 d8bc
000001f0: d60b 44ba 0e44 023d 0497 b33d 1b73 083e
00000200: a9f4 a23d cf07 2b3e ae26 4ebe 8a6f fabd
00000210: 7ac7 443e d5f0 90bd bb44 adbd 65ad 72be
00000220: 20fb 24be 7583 113e 95de 353d 254f d3bd
00000230: 8675 fdbd e5a3 ff3d d922 33be b5fe af3d
00000240: e948 3e3e 95c3 163e e8bd 423e bbed e43d
00000250: 25d8 75be 4041 793d a867 0abe 99a2 4f3e
00000260: 66ba 083e 5f3f 3bbe 7e9c 4d3d df69 01bd
00000270: 90e7 1d3e 1cf0 17be dc03 c4bd 41b6 a1bd
00000280: f0b3 8fbe da5f d63d cc76 84bd 4a75 693d
00000290: db3b dbbc 4324 79be a25c d8bc ff17 8cbc
000002a0: 0613 193e adcb b93d 5e7e d7bd 5000 34be
000002b0: c6d2 693e 10e1 aa3d ecc0 07be 7ee8 ed3d
000002c0: f1c3 503d 0f20 123d 8b42 8cbd 8173 093d
000002d0: 719c 7cbd bb1b 0e3e 1d4a 63bb 0c2e 843e
000002e0: 18c0 d1bd a245 c4bd 2d0c 63be 2dec 93bd
000002f0: d132 04be 337c 1a3d 2c15 82be dd2e d23d
00000300: ad9f 1dbe 8739 0cbc 1b1d 643e 78df 2e3c
00000310: de0c 67be 76f8 00be 3ff2 163e bbfa 03be
00000320: 6d92 e83c 669b 11bd cbcd 763d e27d 6b3d
00000330: c82f a23e 4f76 513e 54c4 2c3e 559a 22be
00000340: 1750 4b3c e78c 85bc 9341 333e 0663 893e
00000350: d948 073e 8120 82bc d9c0 4b3e 74c1 223e
00000360: 613f a8bd fa5c bfbe 0c8b a33d 2cd9 803e
00000370: 619a f3bd 9db7 2c3e 0002 76bd 6797 5e3e
00000380: 2a69 4a3c f825 483e 2b37 8ebc fd92 393e
00000390: c2c3 a93c 47a8 49be 620d 983d 6c9b c73d
000003a0: 7115 83be 915d f6bd b86d 4b3e 7d76 3c3e
000003b0: bcfe 33be 0459 523d 63ef 033e 0eaf ce3d
000003c0: c214 003e e7bb 2c3e cdbe 293d ed80 a7bd
000003d0: d2dc 39be 3c55 0ebe 174f 3ebe b36c 60be
000003e0: dd03 1a3d c694 47be f93c ad3b ceb0 013c
000003f0: 8b75 f43d e7ce ee3c 353d c33d 602a ccbd
0.100911774 -0.1297757 0.22749694 0.09012515 -0.03911944 0.048655722 -0.27921405 0.09380293
0.119817816 -0.01394261 -0.08048713 -0.0017560751 -0.16534683 -0.015386113 0.09869394 0.20396404
0.04026171 0.038602598 0.1234359 0.090824366 0.1520302 -0.41492087 0.25618967 -0.17356084
0.014928196 0.10147725 -0.47346073 0.14421046 0.12091765 -0.14955665 0.15329081 -0.17113183
0.14135505 0.106729 0.3365598 0.17493042 0.1569735 -0.0639562 -0.14670071 -0.14799953
0.18233477 -0.22446498 -0.091101594 0.034164574 0.15584227 0.16732252 0.14325619 -0.23781708
0.050195992 -0.036228437 -0.11866057 -0.05736808 -0.09088 -0.17881875 0.068687014 -0.02150837
-0.12920353 0.051149547 0.15632674 0.022015963 -0.117538944 0.08982528 0.04110855 0.072830826
-0.12208708 -0.2750642 0.2728481 0.08835631 0.11628653 -0.039192878 0.14635973 -0.10124875
-0.055930093 0.14484337 0.11240085 -0.02830571 0.0036220064 0.006393607 -0.0071413843 -0.1961828
-0.14655091 0.004091785 0.06345407 -0.32361946 -0.015766889 -0.079633646 0.006448284 0.31485662
-0.12926666 0.11205858 -0.1692399 0.1597267 -0.1155649 0.14742532 0.20354274 0.115691684
-0.12787792 0.055835914 0.10955101 0.089916594 -0.052283406 0.09283645 0.06378523 -0.16092165
0.08435115 0.20963736 0.073577076 -0.18388191 0.03745948 -0.16475137 0.31538674 0.08601894
0.022267161 0.20004179 -0.1130969 -0.06027778 0.03101003 -0.33677498 -0.041820295 0.076766685
-0.22934963 -0.06997236 0.18395682 -0.026476858 -0.00074785703 0.031803183 0.08769038 0.13325159
0.079568215 0.16702197 -0.20131943 -0.12228306 0.1921672 -0.07077185 -0.08460375 -0.23698957
-0.16111422 0.14210303 0.044401724 -0.1031783 -0.123759314 0.12482432 -0.17493762 0.085935034
0.185825 0.14723046 0.19017756 0.11178156 -0.24008234 0.060853243 -0.13516104 0.2027687
0.13352355 -0.18285893 0.05019807 -0.031595107 0.15420365 -0.14837688 -0.095710486 -0.0789609
-0.2806697 0.10467501 -0.06467971 0.05699662 -0.02676194 -0.24330239 -0.026411358 -0.017101286
0.14948663 0.09072051 -0.105221495 -0.17578244 0.2283431 0.083437085 -0.13257188 0.1161661
0.050968114 0.035675105 -0.068486296 0.03355742 -0.06167263 0.13877766 -0.0034681626 0.2581638
-0.10241717 -0.09583594 -0.22172613 -0.07222781 -0.1291001 0.0377161 -0.25406778 0.10262845
-0.15392943 -0.008558637 0.22276728 0.010673396 -0.22563502 -0.1259478 0.14740847 -0.12888615
0.028390134 -0.03554859 0.060254853 0.057493098 0.3167708 0.20455287 0.16871768 -0.15879185
0.012409232 -0.016302539 0.17505483 0.2683336 0.13211383 -0.01588464 0.19897784 0.15894109
-0.082152136 -0.37375623 0.079855055 0.2516569 -0.1189468 0.16866918 -0.0600605 0.21737443
0.012354175 0.19545734 -0.01736029 0.18122478 0.020723227 -0.19693099 0.074244276 0.09746441
-0.25602296 -0.12029565 0.19866073 0.18404575 -0.17577642 0.051354423 0.12884288 0.10091983
0.12507918 0.16868554 0.041441727 -0.081788875 -0.18150643 -0.13899702 -0.18584858 -0.21916465
0.03760134 -0.19490346 0.0052868095 0.007915689 0.11936482 0.029151393 0.09533159 -0.0996902

input_layer.bias f4 [256]
00000000: 1828 623d 9dda d7bd f2d2 cdbd 2d58 973c
00000010: 53df 8b3e f427 7b3e ec79 12bd d295 77bd
00000020: c209 19bd c7ef 02be 83dc 5f3d 5848 bfbd
00000030: 42e8 a8bd 6110 f5bd cc15 bcbd e4a4 403c
00000040: 4e0d 103e 6fb1 393d b3d2 e2bd 37a5 02bd
00000050: e399 7a3d 0982 91bd b523 783d 905b 50bc
00000060: 3ece 8e3d 7733 6ebd 4c4f 3fbe e3f8 3c3e
00000070: cd41 c53d 2f1e 4f3e a777 503e 1801 2b3e
00000080: b642 e13b 73e4 b03c 9146 59be a567 543d
00000090: 20fe 303e edbf 363e 8e0f da3d 7f12 c23d
000000a0: 068b ecbc 3bc3 783d 4f5e 01be 0199 8a3e
000000b0: e9da b8bd e5a5 81bd eb8b 3fbe 40e4 14be
000000c0: 5d93 f3bd 524d b9bd f7ed adbd a3ba 2fbe
000000d0: d30a 9fbd 06f3 943c 158d d3bc 1c2e 5cbe
000000e0: 0d8f 14bd ab18 b53c b9f0 843e 209b 9e3d
000000f0: ae80 073e 26d6 08bd c572 413d 3261 76bc
00000100: 5dbc 73bd a224 4abd 6bab abbd 612a c2bd
00000110: b5af 10bc 08a9 1ebe 77c2 88bd da3a 8cbd
00000120: 1b9d b6bd eef4 023e 5613 2abe a66e 143e
00000130: ac2d f3bd 4362 11be 71d6 8cbd 4705 8ebd
00000140: 0113 87bd e4a2 3bbe 5b40 a53d 7df9 5abd
00000150: 318a 1dbe 4d52 2abd 755b d33d 5d38 3abb
00000160: 07c6 563d c802 34be 290e d4bd 0c0a 253e
00000170: 5a3c 3a3e e154 f6bc 30fe 8dbc c00f 303e
00000180: dc51 a3bc 5e38 493e 3187 4ebe 656e 843d
00000190: 59e0 063e 9993 3fbe 7493 833c 1099 1a3e
000001a0: b4b0 36be e1ca 063e ca82 9c3d 31c2 4d3c
000001b0: f1d6 d9bc 98d1 03be 8098 74bd c9c2 343e
000001c0: c3fe 1dbe ecf6 2bbe e873 f0bb 3c32 2f3d
000001d0: 4e5b 3a3e dd68 06be 6bf1 143d 3343 86bd
000001e0: 9762 08be 9f47 803e aad9 a73d 9711 63bd
000001f0: b558 bcbd 55e1 493e 0b51 4b3e c21f 25be
00000200: cca3 a6bd 8feb bb3d f071 1bbd 5211 cfbd
00000210: 9188 583e 3910 853e 4c5c cb3d 5354 493d
00000220: 9c5b 763d 568d 0cbe f0a7 93bc 5e3e d03d
00000230: 5d77 463e 5a9a 413d 8c3c 0e3e a814 b23d
00000240: 2e94 223e 280b 253e 0ff9 ee3d 6512 7c3d
00000250: 5c6e aebc d011 e73d ce88 18be 2fa8 52be
00000260: 2f3e 153e 4538 b93d f9ee 15be 78cd 123b
00000270: 388d a13d cc07 86bb 335d 19bd 6001 2ebe
00000280: f014 ba3d 2399 593e 8ac1 dc3d 49e3 ea3d
00000290: 8fcc 433e ee19 693d 815c 803e 4cb6 02be
000002a0: d6eb d43c 2daa 4dbe b7d3 90bd 8530 6c3c
000002b0: c964 cfbd baa4 213d f3b1 253e 204f 02be
000002c0: f8d6 893d bb08 6c3e 015d 963d 56b6 c33c
000002d0: 5387 3abd 8356 85bc cefe df3c 0562 4ebe
000002e0: 1b1f 103e 1358 b3bc ca23 973d e648 bebc
000002f0: 5aaf 88bd 5a38 46be ec13 2fbb 0c0b 2dbe
00000300: 3b23 643e 992a 4f3d 4f42 db3d d6c1 a6bd
00000310: ac63 053d a841 99bd a50a 6a3d a46a 6e3c
00000320: 382f efbd 0905 8e3b 5cbc 11bd 1ce7 c93c
00000330: a3d2 003d b7a1 91bd 2407 5dbe 9ed0 623d
00000340: ae6f b03d 8066 5c3d e876 6a3e 5b66 e43d
00000350: da1b 193e 6537 ee3d dcc0 b6bd 4ddb 2c3e
00000360: 10b7 5ebb 4a3d 373e 9ee6 873c 352e 423c
00000370: 9e96 ff3d e600 b73d 5ad9 55bc 9b5f 19be
00000380: 0bd6 0dbe 2fd6 293d cac5 d33d 9854 7fbe
00000390: fcbc 14bd e7fd 3bbe 0dbf 0dbb 3e5b e7bd
000003a0: 8172 023e b2dc a33b 68bf fb3d 7f81 d93d
000003b0: db0c 953e 360b efbc a17f 52bd f8a1 433d
000003c0: df81 3e3c 8e19 b3bc 03b3 51be 3e70 323c
000003d0: 4d42 ddbd 0e5a 803d 348f 213b 2976 3cbe
000003e0: c653 3cbe be90 0abe 1871 07be e180 953d
000003f0: bb51 9f3d 8379 a03d fe20 9bbd 5537 323e
0.055214018 -0.10539744 -0.1005 0.018474663 0.2731882 0.2452696 -0.035760805 -0.060445614
-0.03736282 -0.1278678 0.054653656 -0.0933997 -0.08247425 -0.11966015 -0.09183845 0.011758063
0.14067575 0.04533523 -0.11075344 -0.031895842 0.061181914 -0.0710488 0.060580928 -0.012717143
0.06972931 -0.05815455 -0.18682593 0.18454318 0.09631691 0.20226358 0.20358144 0.16699636
0.0068744076 0.021593308 -0.21218325 0.051856656 0.17284441 0.17846651 0.10647498 0.09476184
-0.028874885 0.06073306 -0.12633632 0.27069858 -0.09026129 -0.0633047 -0.18705718 -0.14540195
-0.11893342 -0.09047951 -0.08492654 -0.1716104 -0.077657364 0.018182289 -0.02582411 -0.21501964
-0.036269236 0.02210649 0.25964907 0.077444315 0.13232681 -0.033407353 0.047228593 -0.015037822
-0.05950581 -0.049351342 -0.08382305 -0.094807394 -0.008830954 -0.15494168 -0.06677716 -0.068471625
-0.08916684 0.12788746 -0.16608939 0.14495334 -0.118739456 -0.1419764 -0.06876839 -0.069346
-0.065954216 -0.18323857 0.080689155 -0.053460587 -0.15384747 -0.041582394 0.103201784 -0.0028414943
0.052434947 -0.17579186 -0.10354263 0.16117114 0.18187085 -0.03006977 -0.01733312 0.17193508
-0.019936495 0.19650409 -0.20168759 0.064663686 0.1317152 -0.18708648 0.016061522 0.15097451
-0.17840844 0.1316333 0.076421335 0.012558506 -0.02659175 -0.12872922 -0.059715748 0.1765243
-0.15429215 -0.16793412 -0.007338036 0.042772517 0.18198892 -0.1312594 0.036363047 -0.06555786
-0.13318859 0.25054643 0.08195813 -0.055436697 -0.09196607 0.19714864 0.19855134 -0.16125396
-0.081367105 0.091757886 -0.037950456 -0.101107255 0.21145846 0.2598894 0.099297136 0.049152683
0.06014596 -0.1372579 -0.018024415 0.101681456 0.19381471 0.04726634 0.13890284 0.08695346
0.15876839 0.16117537 0.11668598 0.06154098 -0.021292858 0.11282694 -0.14895937 -0.2057197
0.14574502 0.09043936 -0.14641942 0.00224003 0.078882635 -0.004090285 -0.037442397 -0.16992712
0.09086025 0.21249823 0.10779102 0.114691325 0.19121002 0.056909494 0.25070575 -0.12764853
0.025991362 -0.20084448 -0.070716314 0.014415865 -0.10126645 0.039463736 0.16181163 -0.12725496
0.06730455 0.23050205 0.07341958 0.023890655 -0.04553921 -0.016276604 0.02734318 -0.20154579
0.14074366 -0.021892583 0.07379873 -0.02322812 -0.06674071 -0.19357434 -0.0026714755 -0.16898745
0.22279064 0.050577734 0.10706007 -0.0814244 0.032565758 -0.07483226 0.057139058 0.014551792
-0.11678928 0.0043340963 -0.035580024 0.024646334 0.03145088 -0.07110923 -0.21584755 0.055374734
0.08615051 0.05380869 0.22896922 0.11152335 0.14952031 0.116316594 -0.08923504 0.16880532
-0.0033983625 0.17894474 0.016589459 0.011851837 0.124799 0.08935718 -0.013052309 -0.14977877
-0.13851182 0.041464027 0.1034046 -0.24934614 -0.036313042 -0.18358575 -0.0021628768 -0.112967
0.12738992 0.005000674 0.12292367 0.106204025 0.2911137 -0.02918015 -0.051391248 0.047761887
0.011627643 -0.021862771 -0.20478444 0.010891018 -0.108036615 0.062671766 0.0024652006 -0.1840445
-0.18391332 -0.13531777 -0.13226736 0.07299972 0.07779261 0.078356765 -0.07574652 0.1740392

dl1.weight f4 [256, 256]
00000000: b298 ac3c 3025 0a3e 94d3 96bd 7147 98bd
00000010: a183 ffbb e0ed 803e a7c5 cf3b fcc4 a33d
00000020: 2c00 2b3e bce1 173b 21cc 5a3d 9736 04be
00000030: 051c 163e c99a 543e 9cb6 863c 4937 903d
00000040: 0c13 e33d 483e 8fbd 635b d63d 03a0 a3bc
00000050: 5f27 0e3e 2b13 0b3e b1e5 393d 5d44 ccbc
00000060: d97a fcbc b18c 433d 6e50 94bd f479 f83d
00000070: f12c c63c 5416 db3d fba9 0c3e 0d48 473b
00000080: fda2 483d 5865 ec3b ae9e 9d3d b10c f73d
00000090: 559b 073e 6c54 d33d 1a7b 133e 123a 2e3c
000000a0: f435 a33d 165a e93d a710 08bc a6dd 8a3d
000000b0: 0aed 453d 1c38 56bd 62be 393d dad3 f63c
000000c0: 176e b33d 296d bb3d d833 c63c 7dd5 443d
000000d0: 71f5 aebc dcbf e7bd bf76 913b 1113 c4ba
000000e0: aa8f 56bd ead8 98bd d215 3a3d 4af8 0a3e
000000f0: 0a58 d6bd 87a3 393e e310 cd3d 9066 913d
00000100: 5931 703b fb9c 3abd 1973 253d 1bd5 55bd
00000110: 6e10 123e 2e2b 61bd fc39 f33d 7127 a53d
00000120: f73d d53c 9335 cc3d b28c aaba 0eaa d83c
00000130: 4fd3 043e 377b 1d3c 58d9 243e a580 a2bc
00000140: 8919 473d e350 c2bd 8c38 46bd 6d35 513e
00000150: 87b6 b23d a814 26bd 9eb8 86bb c34a ab3c
00000160: 299f a03d b3fc 503d dafe 35bc a4ab f33b
00000170: 4795 b3bc 23a6 d63d 667c 5cba e0a2 143e
00000180: ed3d f73c 1c71 133d f509 013c 19a6 cf3d
00000190: b470 093e 6b6f 2eba 808f 733d 61d4 bf3c
000001a0: 50ca f43c 3556 f53c ccf6 823d 6157 af3d
000001b0: 652c 04bc 9204 3e3d 9dd9 d43c a9f6 803e
000001c0: 4100 f7bd e387 003d 6f87 a939 9c98 e43d
000001d0: 69fa 16bd fdaa 173e 7090 073e 72c3 cb3d
000001e0: 1c1a fb3c de42 1d3e 6b7f 003e 385b a53d
000001f0: 8ae0 a83d b756 a33d 1dd0 6a3d d96a 20bc
00000200: 1792 57be 8845 c93d b1a3 403e b152 76bd
00000210: ab70 f6bc 0c89 3f3d f933 8c3d 4c93 313e
00000220: ad7c ac3d a86e dcbc b5b7 793e 7c9f 1d3d
00000230: 02df b23d 3ef8 5dbd 5563 5e3d 15a8 5abd
00000240: 9ecf 72bd 1430 293c da10 da3b 6896 3b3e
00000250: deb8 7d3d f841 253e 7dc4 4fbe 07a7 8f3d
00000260: f2f2 f83d e73d b63d 9257 fcbc 33ca b23d
00000270: 0ab1 f6bc 6a21 d83d 3790 883b eea8 353d
00000280: ae88 773e 204b be3d f3a8 cc3b d5c5 113c
00000290: 55a7 983d dae9 963c d19e 8a3c d59f 83bd
000002a0: ea75 35bd 8f01 17bd 465b 4bbc eb0e c73b
000002b0: 9672 a7bd 413d 8b3c 00ca 1e3e ed53 b6bb
000002c0: 514a 103e dbb6 343e 26e0 bcbd cfcc 693d
000002d0: 2f18 32bd b0d2 ee3c 28f1 973c c750 1bbd
000002e0: e84d 013e 3a76 5c3d 1f80 24bd 992d 543c
000002f0: 7da4 153e c84f dabd b1eb 733a fd80 683e
00000300: ec8e 79bd c9a2 de3d 61b3 983d 3307 383d
00000310: 34ec 033e 0156 68bc 46c4 743d 2142 98bd
00000320: f26b 933c f74b ef3b 1a76 803d 6c31 f63d
00000330: 625c 823d 8890 a9bc 03cf acbd c9f2 d93d
00000340: 6ae2 0fbc 7991 b23d 9a65 20bd 74fb a93d
00000350: d128 e3bd 10f9 003e 6c49 b43a f635 563e
00000360: a94b 363e f112 243e 592c 8b3d 693f b13c
00000370: 1582 4e3d a098 c53d 3139 e43d bb98 76bd
00000380: 25a1 f9bc 9800 c8bd f504 1d3d 53ff 4cbd
00000390: a5d5 ac3c 1be5 b4b8 2ec0 893d 7569 5cbb
000003a0: c6e3 6d3d 864a eebb aebe f63a e027 403d
000003b0: a0dc 043d 959a b83d 345f b23d 0740 243d
000003c0: dd68 1f3d db72 1dbd bb2f 603c 950b 8f3e
000003d0: b180 02bd bbae e03e 8c52 0bbe 493b 0d3e
000003e0: 18ee 363e 5269 d0bc 1042 363c 48df 56bb
000003f0: 2d55 25bd 2b29 d93d 8f08 fe3c a82c 8cba
0.021068905 0.13490748 -0.07364574 -0.07435501 -0.007797674 0.25181484 0.0063407007 0.07996556
0.16699284 0.002317532 0.05341733 -0.1291145 0.14659126 0.20762171 0.016444497 0.07041795
0.11087617 -0.06994301 0.104666494 -0.01997376 0.13882206 0.13581531 0.045385066 -0.024934942
-0.030820297 0.047741596 -0.07241903 0.12132636 0.024191352 0.10697618 0.13736717 0.0030407936
0.048983563 0.0072142296 0.076962814 0.120629676 0.13242848 0.103188366 0.14402428 0.010633962
0.07969275 0.11394136 -0.0083047515 0.06780557 0.04832176 -0.052299604 0.04534758 0.030130316
0.08761232 0.0915168 0.024194643 0.04805516 -0.02135727 -0.11315891 0.0044392045 -0.0014959296
-0.052383102 -0.07463248 0.045430966 0.13571277 -0.10466011 0.18128787 0.100129865 0.0709964
0.0036650507 -0.045559864 0.04039297 -0.052205186 0.1426408 -0.05497282 0.11876294 0.080641635
0.026030524 0.09971156 -0.0013011901 0.026448276 0.12971233 0.009611896 0.16098535 -0.019836733
0.048608337 -0.09488084 -0.04839377 0.20430537 0.087262206 -0.040547043 -0.0041113636 0.020909673
0.078428574 0.051022243 -0.011108125 0.0074362326 -0.021921767 0.10480907 -0.0008410871 0.14515257
0.030180896 0.03599654 0.007875909 0.101391025 0.13421899 -0.0006654176 0.059463024 0.0234167
0.029881626 0.029948333 0.06394729 0.08561588 -0.008067225 0.046391077 0.025982672 0.25188187
-0.12060595 0.03137959 0.00032335098 0.111619204 -0.036859903 0.1481132 0.13238692 0.099493876
0.030652098 0.15357539 0.12548606 0.08074039 0.082459524 0.07975524 0.05732738 -0.0097910995
-0.21051823 0.09827715 0.18812443 -0.060137454 -0.030083021 0.046761557 0.068458505 0.17341346
0.084222175 -0.026908234 0.24386485 0.038482174 0.087339416 -0.05419182 0.05429395 -0.05338295
-0.05928003 0.010326404 0.006654841 0.18319094 0.06194388 0.16138446 -0.20289798 0.0701428
0.12155713 0.08898526 -0.030803476 0.08729973 -0.030113716 0.10553248 0.0041675824 0.044350557
0.24173233 0.09291673 0.0062457263 0.0088972645 0.07453791 0.018422056 0.016921433 -0.0642697
-0.044301905 -0.03686672 -0.012411898 0.0060747764 -0.081761524 0.016996982 0.15506744 -0.005564204
0.1409085 0.17647879 -0.092224404 0.057080086 -0.043480095 0.029153198 0.01854761 -0.037918832
0.12627375 0.053823687 -0.04016125 0.012950324 0.14613529 -0.10659748 0.0009304835 0.22705455
-0.060927317 0.108708926 0.07456089 0.04492874 0.12883073 -0.014180661 0.059757493 -0.07434488
0.017995808 0.007302757 0.06272526 0.12021145 0.06365277 -0.0206988 -0.08437922 0.10642011
-0.008782009 0.08719153 -0.039159395 0.08299914 -0.110917695 0.1259501 0.0013754792 0.20919022
0.178023 0.1602285 0.06795568 0.021636682 0.050417025 0.096482515 0.11143721 -0.06020425
-0.030472348 -0.09765738 0.038334806 -0.050048184 0.021097967 -8.625743e-05 0.067261085 -0.0033632193
0.05807855 -0.0072720675 0.0018825138 0.046913028 0.032436967 0.09013859 0.08709565 0.040100124
0.038918365 -0.038439613 0.013683255 0.27938524 -0.03186101 0.4388331 -0.13605708 0.13792147
0.17864263 -0.025440846 0.011124149 -0.0032786895 -0.040364433 0.10603555 0.03100994 -0.0010694461

dl1.bias f4 [256]
00000000: 2579 c33d 05fa 213d 1b8e d73c 02d5 11bd
00000010: 153f 653c 1de9 e9bc 0b42 24bc d8c6 48bd
00000020: afe9 35bc cab5 debc c20d be3c c716 913d
00000030: 5731 a73d f278 913d 9dc6 98bc f0a2 c03d
00000040: f59b d73c 4769 633d d9ed a43c 16a0 453d
00000050: d348 19bd e3da d3bc 9695 a7bd 3937 8c3d
00000060: a495 1fbd 0ce1 1b3d b0d6 42bd f525 ab3d
00000070: c8a6 2fbc 9e56 08bd b7c0 33bd d692 16bc
00000080: 6813 fbbc e3ad 1e3d f358 8a3d 15b2 b53d
00000090: ad28 e0bd 717c 863b 9b56 5abd ab66 873d
000000a0: cf0b 993d 7f81 85bd 03a6 2dbe d2b8 70bd
000000b0: 63df 80bb c0e4 94bc f733 503c 2e31 be3c
000000c0: 8252 2b3d 7f5e 65bc 81d0 c53d 3d55 32bc
000000d0: d1cc 243d 6624 38bd b3c2 7dbd 819d 883d
000000e0: cf1b 963d fe31 063d 40b4 f53c f4c5 94bc
000000f0: c429 073d abca 76bd d334 033d 9ec3 7b3d
00000100: 3f18 b93d c21c 2abd 3cff 683d c078 173d
00000110: 02e4 8fbd 24b4 f33c 56a7 8d3d c417 c23d
00000120: b7aa 0ebc 763e 623d 1415 8dbc fbba 823d
00000130: 3802 92bc f125 8ebd 3e16 b8bc 4587 153c
00000140: 7ce9 41bd 0008 b03d df06 3e3d 8219 4e3c
00000150: 9f1f 313d 82f3 2fbb 3da1 453d 2494 b03d
00000160: 5e35 35bd 94d7 43bd 71f8 b33c cca8 9d3c
00000170: 1650 03bd 20a2 26bb 9711 0bbc 516a 02be
00000180: 8887 bdbc 4457 b0bd fb54 2cbd 0c9e 9bbc
00000190: 1984 59bd 33a3 e03d 1cfa 2dbc b317 de38
000001a0: 24a8 dcbc 1afa 433c 179e abbd 1ac5 f5bc
000001b0: 926c 00bc 77a9 9bbd a03a 16be 131c 3fbc
000001c0: 1333 8dbd e437 d13c 8961 bd3d e2f7 e5bc
000001d0: 8a2d 32bc b783 50bc 9009 453c 27d3 58bd
000001e0: 6bd1 d13d 4111 013d 36a0 2c3d 8c1a 593d
000001f0: 746a 27bc cfc5 643d 3221 3c3d 6809 abbd
00000200: 398f aebd 8fb5 abba 9970 d13b 1bc9 7f3b
00000210: f35b 9a3b c4af 90bc 1a0e 3ebc 7ae5 3c3d
00000220: b63f 8bbc f7d9 c93c 66eb 743d 717f 70bc
00000230: ed07 33bd 0626 d9bc 9797 2d3d 1043 ab3d
00000240: 0e64 51bb 827a f7bb 46c1 8d3c 75dd 14bd
00000250: b12a 73bd ce15 6a3c 6f1d dd3d bca5 303c
00000260: a4fc 81bd c73e a4bc 72eb 83bd 7f10 833d
00000270: 1846 0cbd 8c92 a8bc 0952 c1bd 05f4 a93c
00000280: a214 033d 5851 87bd d012 89bd 60d7 6b3c
00000290: e640 67bd 08e2 893c 10a7 453c 0f65 553c
000002a0: 9133 083c d361 f7bc 8f90 a23d c61e 463d
000002b0: 59cf d3bc dfef 43bc a30f 92bd a940 c13d
000002c0: 4912 813d 5812 953c e79b f63b 7ec5 273d
000002d0: 8d48 3a3a 78eb 683d 331b 27bd 4b54 263c
000002e0: d28e b6bd 4083 533a c817 6cbc 2097 823d
000002f0: ca98 8b3d 095d 4a3d 2030 353d 6822 d1bd
00000300: 00e8 6cbd 4b56 183b 7669 093c 7b71 9b3d
00000310: 36f5 673c 0b86 b03c 7e57 1ebd 6f91 9f3d
00000320: 59d5 7e3c ac4a 563d 8d07 dfbb eec3 033b
00000330: 2a88 4dbd b523 d7bc 2ddb 92bc a015 a7bc
00000340: fe7d 053d b8f9 f0bd e124 b2bd 255e 4bbc
00000350: f7ba 833d 0336 2abc a31c 503d b894 9ebd
00000360: 7f08 ad3d 164c 0d3c 6b9a b53c c401 d63c
00000370: 9864 87bd d730 c23b 1bec 85bd 684b 0c3e
00000380: 0a29 2a3d f239 b53c 6586 6c3d 14e1 38bd
00000390: a6f1 bd3a f4c7 a3bd a8b9 623c b3cb 8fbd
000003a0: 55cb af3d a4d6 143d d614 f9bc 91a9 6c3b
000003b0: daa4 7b3d e6d2 a53d c71c f23d fa32 a5bd
000003c0: 924d dcbd 9ae2 cbbb a638 003a 4193 2d3d
000003d0: 2430 c23c 1b70 743c 616c ecbc 0df7 7f3d
000003e0: 0923 ac3c bf2a 013d 05bd 4abd b48f 203b
000003f0: 8d39 683d 1918 fabc 0377 26ba 8e21 16bc
0.09544591 0.039545078 0.026312878 -0.03560353 0.013992091 -0.02855354 -0.0100255115 -0.049017757
-0.011103078 -0.027186293 0.02319992 0.070844226 0.08163708 0.071031466 -0.018649394 0.09406078
0.026319483 0.055520322 0.020132946 0.048248373 -0.037422966 -0.02586121 -0.08182828 0.068464704
-0.038961068 0.03805642 -0.047568023 0.08356849 -0.010720916 -0.03328573 -0.04388496 -0.009190282
-0.030648902 0.03874005 0.06755247 0.08871857 -0.10945258 0.00410419 -0.05330525 0.06611379
0.074729554 -0.0651884 -0.1695786 -0.05877001 -0.00393288 -0.018175483 0.012707702 0.02321681
0.041826732 -0.01399958 0.096589096 -0.01088458 0.04023439 -0.044956587 -0.061953258 0.066706665
0.07329523 0.03276252 0.029993176 -0.018160798 0.032998815 -0.060251873 0.0320328 0.061465852
0.09037828 -0.04153133 0.056884035 0.03698039 -0.07025911 0.029748984 0.069166824 0.09477189
-0.008707694 0.05523535 -0.017221965 0.0638332 -0.017823324 -0.069408305 -0.022471543 0.009126489
-0.04734181 0.08595276 0.04639327 0.012579324 0.043243047 -0.0026848023 0.048249472 0.086220056
-0.044240348 -0.047813013 0.021969052 0.019245528 -0.032058798 -0.0025426224 -0.00848808 -0.12735869
-0.023135915 -0.086103946 -0.04207323 -0.018996261 -0.053104494 0.10968628 -0.010618713 0.00010590199
-0.026935644 0.011961484 -0.083797626 -0.030001212 -0.007838385 -0.07600682 -0.14670801 -0.011664408
-0.06894507 0.025539346 0.09247119 -0.028072301 -0.010875115 -0.012726716 0.012026206 -0.052935746
0.102450214 0.031510595 0.042144977 0.053003833 -0.0102182515 0.055852707 0.045930095 -0.083514035
-0.08523411 -0.0013100373 0.0063915965 0.003902978 0.004710668 -0.017661937 -0.011600042 0.046117283
-0.016998153 0.024640067 0.059794806 -0.014678822 -0.04370873 -0.026507389 0.042380895 0.083624005
-0.0031950506 -0.007552446 0.017304074 -0.03634401 -0.059366886 0.014287425 0.1079663 0.010781702
-0.063470155 -0.020049466 -0.06441392 0.06399631 -0.034246534 -0.020577691 -0.09439475 0.02074624
0.0320021 -0.06607312 -0.06693041 0.014394611 -0.056458376 0.016831413 0.012063757 0.0130245825
0.008313076 -0.030198013 0.079377286 0.04836919 -0.025855707 -0.011959045 -0.07131889 0.09436161
0.06302316 0.018197224 0.007525909 0.040959828 0.0007106148 0.056865185 -0.040797424 0.010151933
-0.089139596 0.0008068569 -0.014409967 0.06376481 0.068162516 0.04940513 0.04423535 -0.102116406
-0.05783844 0.0023244794 0.00838696 0.07590004 0.014157584 0.021548292 -0.038657658 0.07791411
0.015553796 0.052317306 -0.00680632 0.0020105797 -0.050178684 -0.026262144 -0.017926777 -0.020396054
0.03259086 -0.1176638 -0.0869844 -0.0124125825 0.06432145 -0.010388854 0.05080856 -0.077432096
0.08448886 0.008624097 0.022168359 0.026123889 -0.066109836 0.0059262323 -0.06539174 0.1370064
0.041543044 0.022122357 0.057745356 -0.045136526 0.0014491573 -0.079971224 0.013838209 -0.070212744
0.085837044 0.03633751 -0.030405443 0.0036111812 0.06143651 0.08096866 0.11821895 -0.08066364
-0.10756983 -0.0062220814 0.0004891254 0.04237676 0.023704596 0.014919306 -0.028860273 0.062491465
0.0210128 0.031534906 -0.04949667 0.0024499716 0.05669551 -0.030529069 -0.00063501316 -0.0091632735

output_layer.weight f4 [45, 256]
00000000: 5fc7 edbb d57b b1bd 5ee3 10be 3fc9 3ebc
00000010: 5200 50bd 7a91 9abc 3c6d bdbd f8a0 b9bc
00000020: 6fa1 37bd 3bbc 963b 6426 733d 4d30 3cbd
00000030: fca7 ee3d 7c20 1dbd db56 ac3c 131f 3dbd
00000040: b645 a93c 24cc a5bd bc63 83bd d422 3dbe
00000050: c881 ddbc 5113 94bb 0333 6b3d e204 003d
00000060: 1204 453d e790 dfbd c07b 023d 88d3 adbc
00000070: 85a1 373d 54a1 95bd 599a a43d 0d44 4cbd
00000080: db0f cd3d 0f68 363e 553f 2fbe e1da d9bc
00000090: 8661 963d d889 c03b d22e d6bd f0b5 613c
000000a0: 56e2 4e3d 0a1d c2b9 64d7 1a3d d966 8abc
000000b0: 8d9b 31bc 2133 f03c 5c98 81bd 5456 063d
000000c0: f262 d8bc cf20 acbd ab5f 463d 0b39 b13c
000000d0: c022 8f3c 18af 0a3d 2639 d73a 9541 543e
000000e0: 2a80 903b 3745 a2bd 9569 043e e649 803d
000000f0: be59 08bc 25e9 d0bd d009 29bd 3bcd d6bb
00000100: f1dc 46bd 2202 8e3c 1feb 08bd 8c13 743e
00000110: 91fe 41bc 1a76 29bd 0e63 2bbd 989b 6b3d
00000120: dc2a 393d 450f 2c3d d514 c83c e0bb fb3d
00000130: 5324 923d aebe 753d ac0a dbbd 7499 b9bd
00000140: 460f 333d f1ac 023d b0db 82bc 09a0 4d3e
00000150: 6d8c 333e e943 c93c 6d70 e53d 11e3 2d3d
00000160: b4ba bf3c a47b a13d 469f 0cbc ddaa f6bd
00000170: 1a22 ad3c 9c8e 3e3c 79b0 913d daaa 873c
00000180: b1b0 f2bc 4f26 303e aebf 423e e26f 363c
00000190: 1471 863b 4519 963d 34c3 cfbd 9c1e f93c
000001a0: 6934 153d 5aad 243d b685 d4bc 523e 15be
000001b0: 16aa a0bd f2ac 5a3c 3877 8f3c d2ef 3bbd
000001c0: 8dfc ac3e 4810 b33d 3be2 15be 6271 123d
000001d0: 9a54 dfbd 4efd 053e be4d 233d da93 c53d
000001e0: 9a40 bf3d a584 b2bd f49e dd3d c4c5 303e
000001f0: 3f94 723d 39eb f7bc 5476 a9bd 0dfb 3b3d
00000200: db0b ba3c 0bbc 983d ad22 423e f423 c33c
00000210: dff8 c1bd d3b3 a7bd 1539 8dbd 0bdf 08bd
00000220: becd 84bc f3e8 babd 17a0 92bc 6b10 443e
00000230: 9257 a7bd bed3 4b3d f2e5 05bc 89f1 fbbd
00000240: 95d6 d8bb b6fd d4bd a002 8f3d cec0 03bd
00000250: 3017 183c ba13 32bd d7fa 21be 2cb9 a13e
00000260: f243 c8bd f84d 78bc a310 013e e04b 4fbd
00000270: da9b b1bd acfe 573e e335 84bd 91af 663d
00000280: e2fb f43c 1ef4 673d c447 833c fe0f 8e3d
00000290: 03cf 5ebd e66e 0a3e 6e7c ce3b 030d 2f3c
000002a0: afe7 0f3d 124c 893d 871c 2c3d 1792 86bb
000002b0: e892 11bd 71a1 d13d a9af 79ba 5bc5 af3b
000002c0: f933 ccbd c66e 28be 8547 1cbd 2063 b53d
000002d0: 63a7 f83d eb4c 2abe d039 633d 014e f039
000002e0: 2f7e 383c cbcf bcbd 13e4 febc 9e81 08be
000002f0: 8cf9 9e3c 6cb1 483d 2fcc 053e ceaf b23d
00000300: ff9a 0b3e 8f0f ba3d a7fa a4bd 5d5d 7cbd
00000310: cf06 f0bd 382d efbc 0d24 c1bd 9c4e d13e
00000320: 90a2 a23d 9c58 a63d a75f 473d 2d35 763c
00000330: b681 9b3d 4cd2 2dbc 3f58 dbbc 0474 12be
00000340: e4d3 8d3c 2742 a53c bd4b 9abc 343f 0a3d
00000350: d43e e3bd e492 97bd 0193 91bd 4ae8 2c3d
00000360: 53fe e63b b821 e83c 14c4 963e cabb a4bd
00000370: d9c3 4abd 33da 7d3d 1ebd 7fbd e5a3 a0bd
00000380: 7178 133d 9ec5 86bd 7d04 81bc bb22 3f3c
00000390: 976f 14be 58ff 833c 26a7 c43d c0f2 bfba
000003a0: 6433 94bd afa4 cc3c 2d2b b1be 32b5 3dbc
000003b0: fce8 83bd 486c aabd 5e9b 263d 4daf 05bd
000003c0: 0d1f 8bbc cf41 493d b99a dd3c c2b5 8d3c
000003d0: c989 31bd 0f33 bd3b b585 75bd a09f 92bc
000003e0: 4f3b 58bc ba05 9bbd 9b28 34bd 003b 86bb
000003f0: 3249 273c ab3d 1cbc 0b1b 3cbe d947 d63d
-0.007256433 -0.08666197 -0.14149234 -0.0116446605 -0.050781555 -0.018868197 -0.092493504 -0.022659764
-0.04483169 0.0046000755 0.059362784 -0.0459445 0.11653134 -0.038361058 0.02103751 -0.046172213
0.020663124 -0.08095577 -0.06415507 -0.18470317 -0.027039424 -0.0045189043 0.057421695 0.031254657
0.048099585 -0.1091631 0.0318563 -0.02121903 0.04483177 -0.073061615 0.08037252 -0.049869586
0.1001279 0.17813133 -0.17114003 -0.026593627 0.0734282 0.0058758073 -0.10458149 0.013776287
0.05050882 -0.000370242 0.03780307 -0.016894745 -0.010840309 0.029321255 -0.06327888 0.032797173
-0.026414368 -0.08404695 0.04843108 0.021633646 0.017472625 0.03385839 0.001642023 0.20728143
0.0044098096 -0.07923358 0.12930901 0.06264095 -0.008322177 -0.10200719 -0.041269124 -0.006555227
-0.04855055 0.017335001 -0.033427354 0.23835582 -0.0118404785 -0.041372396 -0.041842513 0.057521433
0.04520689 0.04200675 0.024423996 0.12291694 0.071358345 0.0599963 -0.10695395 -0.09062472
0.043715738 0.03190321 -0.015973896 0.2008058 0.17534037 0.024568515 0.11203084 0.042452876
0.023404457 0.07884911 -0.008582896 -0.12044308 0.021134425 0.01163068 0.071137376 0.01656096
-0.029625269 0.17202114 0.19018432 0.011135073 0.0041028354 0.073290385 -0.10144654 0.030410103
0.036426935 0.040204383 -0.025942665 -0.14574555 -0.07844941 0.013346897 0.017512903 -0.045883007
0.3378643 0.0874334 -0.14637081 0.03575266 -0.10904808 0.1308491 0.039869063 0.09647341
0.09338494 -0.08716706 0.108213335 0.17262942 0.05922341 -0.03026353 -0.082745224 0.045893718
0.022710731 0.07457741 0.1895854 0.023820855 -0.094712965 -0.081885956 -0.06895653 -0.033415835
-0.016211387 -0.09126463 -0.017898602 0.19146888 -0.081709996 0.04976248 -0.008172499 -0.123019286
-0.006617377 -0.10399954 0.069829226 -0.032166295 0.009282872 -0.043475844 -0.15818344 0.31586587
-0.097785845 -0.015155308 0.12604003 -0.05060947 -0.086723045 0.21093243 -0.064555906 0.056319777
0.029905263 0.056629293 0.016025431 0.06936644 -0.05439664 0.13518867 0.0063014543 0.010684255
0.03513306 0.067039624 0.042019393 -0.0041067707 -0.03554049 0.10235871 -0.00095247716 0.005364103
-0.099708505 -0.16448507 -0.038154144 0.08856797 0.121413015 -0.16630904 0.055475056 0.00045834485
0.011260553 -0.09219321 -0.031114614 -0.13330695 0.019406103 0.048997328 0.13066171 0.08724938
0.13633345 0.09084999 -0.08055621 -0.061612476 -0.11720049 -0.029196367 -0.09430704 0.40880287
0.079411626 0.0812237 0.048675206 0.0150273265 0.075931 -0.010609221 -0.026775477 -0.14302069
0.017312951 0.020173145 -0.018834943 0.03375168 -0.11095968 -0.07401064 -0.07108117 0.042213716
0.007049361 0.02833639 0.2944647 -0.080436304 -0.04950318 0.06197567 -0.062436216 -0.078437604
0.036003534 -0.06580661 -0.01574921 0.011665995 -0.14495693 0.016112968 0.096021935 -0.0014644489
-0.072363645 0.024980871 -0.34603253 -0.011578845 -0.064409226 -0.08321434 0.040675513 -0.032637883
-0.01698258 0.049135026 0.027051317 0.017298583 -0.043344293 0.005773909 -0.059941966 -0.01789838
-0.013197734 -0.07569452 -0.043984037 -0.004096389 0.010210322 -0.009536187 -0.18369691 0.104629226

output_layer.bias f4 [45]
00000000: e07f f1bb 5f0b 89bc 141d a3bd 8502 39bc
00000010: 0117 9c3d 430c c4bc 4305 f73c 1cc1 063c
00000020: f419 213d 514d 93bd a324 a6bd 00c3 763c
00000030: 3d7e 8ebd 992b 213c be63 d53b 10ca 9dbd
00000040: 23e3 a03c 17c1 24bb 1db1 69bd 85aa 81bd
00000050: 75d9 26bc 0e6e 29bd ec4b 58bd 02ca c7bc
00000060: 9fdc 09bb 3b0e 883b 630a 40bd 43b5 79bd
00000070: 9f7a 0bbd 2056 ad3c 3975 28bc 971c a8bd
00000080: 03e3 dabc a3a1 90bc 2bb1 9bbc 5597 a1bc
00000090: d434 f5bc 367f e33c 718a 75bd e70a b23c
000000a0: cc10 9b3c e439 e73c 49e9 20bd 915c b1bc
000000b0: b6a5 5dbc
-0.00736998 -0.016729055 -0.079645306 -0.011292105 0.07621575 -0.023931628 0.030153876 0.008224752
0.03933139 -0.07192481 -0.08112457 0.01506114 -0.06957672 0.009837055 0.0065121343 -0.07704556
0.019639557 -0.0025139505 -0.057053674 -0.06331352 -0.010183682 -0.041364722 -0.05280678 -0.024388317
-0.0021036041 0.004152087 -0.046884906 -0.06096388 -0.034052487 0.021159232 -0.010281854 -0.08208578
-0.026719576 -0.0176552 -0.019005379 -0.019725481 -0.029932417 0.02777062 -0.05994648 0.021733714
0.018928908 0.028225847 -0.039284978 -0.021650584 -0.013528278
