model/model_player1.pth (torch, 37655 bytes, 6 tensors)

input_layer.weight f4 [64, 28]
0	0xbf925916	-1.1433437
1	0xbf3ce054	-0.737798
2	0xbf86a4d4	-1.0519052
3	0xbedbcefe	-0.4293136
4	0xbfb63c89	-1.4237224
5	0xbec6fc28	-0.38864255
6	0xbef6857d	-0.48148718
7	0xbf2f55ba	-0.68490183
8	0xbfdb62d6	-1.7139537
9	0xbeca93db	-0.3956593
10	0xbf8aaaf0	-1.0833416
11	0xbf26fd04	-0.6522982
12	0x3fde21f4	1.7354112
13	0xbf52bd01	-0.8231965
14	0x3ff5e496	1.9210384
15	0xbf36dce4	-0.714308
16	0x3fe0bee6	1.7558258
17	0xbf3d9673	-0.7405769
18	0xbe9c2775	-0.30498853
19	0xbe78828b	-0.24268548
20	0xbe5fcb71	-0.2185495
21	0xbea64d85	-0.32481018
22	0xbf210f7e	-0.62914264
23	0xbde9710c	-0.11398515
24	0xbea2c0d3	-0.31787738
25	0xbe342726	-0.17593059
26	0xbe6f243b	-0.23353665
27	0xbf0b9cb0	-0.5453596
28	0x3d50c403	0.05096818
29	0xbe73c4e6	-0.2380558
30	0xbdb3f677	-0.08787244
31	0xbe019aca	-0.12656704
32	0xbd369e82	-0.04458476
33	0xbec745db	-0.38920483
34	0x3ea2e789	0.31817272
35	0xbe5f445d	-0.21803422
36	0x3dd9729b	0.106175624
37	0xbda5ebff	-0.08101653
38	0x3a5d306d	0.0008437697
39	0xbe95ca6c	-0.29255998
40	0x3e0344ed	0.12819262
41	0xbe224f50	-0.15850568
42	0xbc638d75	-0.013888706
43	0x3eb5d945	0.35517326
44	0x3ee2026b	0.4414247
45	0xbeaa4531	-0.33255914
46	0xbe54cbd2	-0.20780876
47	0xbd213ea6	-0.039366387
48	0xbd0cdd9b	-0.034391027
49	0xbdb8b40c	-0.09018716
50	0xbe5aa652	-0.21352509
51	0xbdff436a	-0.1246403
52	0xbd4b6e4d	-0.049665738
53	0xbe41977c	-0.18905443
54	0xbdb8c7e8	-0.09022504
55	0x3b027caa	0.0019910731
56	0x3f8d8905	1.105744
57	0x3f31521a	0.692659
58	0x3f857fbf	1.042961
59	0x3e0875a0	0.1332612
60	0xbf2f0051	-0.6835986
61	0xbe9527b9	-0.29131868
62	0x3f4e30f7	0.80543464
63	0x3ed59687	0.41716406
64	0x3f1f39ad	0.6219738
65	0x3ea255e1	0.31706145
66	0xc0076888	-2.115755
67	0x3e04a87a	0.12954894
68	0xbff656df	-1.9245261
69	0xbee9b34a	-0.456446
70	0xbf623fac	-0.88378406
71	0x3f25795d	0.6463831
72	0xbeb9ffcb	-0.36327967
73	0x3f4172fe	0.7556609
74	0x3f2149a7	0.6300301
75	0x3f0f05ec	0.5586841
76	0x3f238177	0.6386942
77	0x3e1a53be	0.15071008
78	0x3f6c42f8	0.92289686
79	0x3f48918e	0.783471
80	0x3f1ec2bf	0.6201591
81	0x3f31e630	0.69491863
82	0x3c13e1ae	0.009025974
83	0x3f705e3f	0.9389381
84	0x3ec9cc67	0.3941376
85	0x3e93d42e	0.28872818
86	0x3e9c3fc1	0.3051739
87	0xbe53940d	-0.20661946
88	0xbee03891	-0.43793157
89	0xbe1a5d50	-0.15074658
90	0x3d51b57a	0.05119846
91	0x3e372980	0.17886925
92	0xbf10bc96	-0.5653776
93	0x3f208fc7	0.62719387
94	0x3e3f34ca	0.18672481
95	0xbe37855b	-0.17921965
96	0x3e6e81ab	0.23291652
97	0xbdfefa3a	-0.12450071
98	0x3ecbf0d9	0.3983219
99	0xbebb784c	-0.36615217
100	0xbeaa1a06	-0.3322298
101	0xbe954825	-0.29156604
102	0x3dd42bda	0.103599265
103	0xbec23e73	-0.3793827
104	0xbf3505e4	-0.70712113
105	0xbd0cd011	-0.034378115
106	0x3de75a2d	0.112964965
107	0xbd9f09e5	-0.07765559
108	0xbf2f5b21	-0.68498427
109	0xbede41f5	-0.43409696
110	0xbd87296b	-0.06599697
111	0x3d8cba1d	0.06871436
112	0xc0013cd0	-2.0193367
113	0x3e6c2acb	0.23063199
114	0xbf99fb82	-1.2029879
115	0x3e44a745	0.19204433
116	0x3fed7f5c	1.8554492
117	0x3d528b16	0.051402174
118	0xbc17bb78	-0.009261005
119	0xbeb95b6a	-0.36202556
120	0xbfb7cab4	-1.4358735
121	0xbdffc670	-0.12489021
122	0x3fb5c384	1.4200292
123	0x3e05a6d4	0.13051921
124	0x3f44b7e8	0.7684312
125	0x3e58c7e7	0.21170007
126	0x3f0fd0bb	0.5617787
127	0x3e877083	0.26453027
128	0xc095d6f5	-4.68249
129	0xbed31978	-0.4123037
130	0x3f34e4c9	0.706616
131	0x3f8408d0	1.0315189
132	0x3f0e64e7	0.55622715
133	0x3f13e333	0.57768553
134	0x3f5b4235	0.856479
135	0x3f210b87	0.62908214
136	0x3f389171	0.72096926
137	0x3f0efdd1	0.55856043
138	0x3f248613	0.6426708
139	0x3f4b5c19	0.79437405
140	0x3f4d9072	0.8029853
141	0xbf5c6dff	-0.8610534
142	0x3f710155	0.9414266
143	0xbe99a7ef	-0.30010936
144	0x3f8d7084	1.1049962
145	0xbf215c5a	-0.6303154
146	0x3f0c547d	0.5481642
147	0xbdff205e	-0.124573454
148	0xbec8f976	-0.39252824
149	0xbdf2f5ed	-0.11863313
150	0xbf7f49a5	-0.9972175
151	0x3de627cd	0.1123806
152	0x3ed5c657	0.41752884
153	0xbeeffc5f	-0.4687223
154	0xbf60794b	-0.8768508
155	0xbe8f4b43	-0.27987108
156	0xbf9f8c5a	-1.2464707
157	0xbeaee2fe	-0.34157556
158	0x3e0fb4ab	0.14033763
159	0xbc5d72f1	-0.013516174
160	0xbe02a5fa	-0.12758628
161	0xbd633913	-0.055474352
162	0xbe6ab921	-0.22922184
163	0x3e4741c3	0.1945868
164	0xbd1ade92	-0.037809916
165	0xbe0d4b1a	-0.1379818
166	0xbd834b9a	-0.06410904
167	0xbe6d2fdf	-0.23162793
168	0x3e92d8ca	0.28681022
169	0xbd155c2c	-0.036464855
170	0xc0104592	-2.2542462
171	0x3f35e1b0	0.71047497
172	0x3e9fa290	0.31178713
173	0xbd7716fa	-0.060324647
174	0x3e4f8722	0.20266393
175	0xbcb88205	-0.022522936
176	0xbf97fe18	-1.1874418
177	0x3e9fa5b1	0.311811
178	0x3b83cf32	0.0040225023
179	0x3e921abf	0.2853603
180	0x3f33abcd	0.7018402
181	0x3e67b9e9	0.22629513
182	0xbfd64373	-1.6739334
183	0x3ed55fa0	0.4167452
184	0x3f2d5955	0.67714435
185	0x3eaf5fc1	0.34252742
186	0x3ef0bb2a	0.47017795
187	0x3ecc00ac	0.39844263
188	0x3f482a4f	0.7818956
189	0x3edd57db	0.4323109
190	0x3f449a6c	0.7679813
191	0x3f129477	0.5725779
192	0x3f20e6ea	0.62852347
193	0x3f354876	0.7081369
194	0x3f14c6dc	0.58115935
195	0x3f66f327	0.9021477
196	0x3fb827fa	1.43872
197	0xbe22c591	-0.15895678
198	0x3f3d5284	0.73954034
199	0xbe626ce3	-0.2211185
200	0xbf1a672c	-0.6031368
201	0xbe16fa9f	-0.14744042
202	0x3fc4ff33	1.5390381
203	0xbee74084	-0.4516641
204	0xc01faec7	-2.4950426
205	0x3e1f01f7	0.15528093
206	0xbfcb2505	-1.5870672
207	0xbeb1e01f	-0.34741303
208	0x3f0ff2da	0.5622994
209	0xbdcceaf3	-0.100057505
210	0x3d847bd5	0.064689316
211	0xbe516802	-0.20449832
212	0xbee8d224	-0.45472825
213	0xbdc7c080	-0.09753513
214	0x3dacb38e	0.08432685
215	0x3d157339	0.036486838
216	0xbd816f63	-0.063200735
217	0x3e4216fd	0.18954082
218	0xbd5ccbd3	-0.05390532
219	0x3d92e687	0.07172876
220	0x3e49726d	0.19672556
221	0x3e68f519	0.22749747
222	0x3df916ef	0.12162577
223	0x3d80f6cf	0.06297075
224	0xc0754255	-3.8321736
225	0xbe22923d	-0.15876098
226	0xbf67180c	-0.9027107
227	0x3d4070be	0.04698252
228	0xbea8e5dd	-0.32987872
229	0xbec2cd70	-0.3804736
230	0xbdc072a8	-0.09396869
231	0xbdbe11b9	-0.09280724
232	0x3f6b224b	0.918492
233	0x3b82e5ae	0.003994665
234	0x3f17da54	0.5931752
235	0xbeec6741	-0.46172526
236	0xc01757bd	-2.3647301
237	0x38e2040a	0.00010777272
238	0xbf5461a4	-0.8296149
239	0xbdf8442e	-0.12122379
240	0x4005781c	2.085456
241	0xbe12cdec	-0.14336365
242	0x3dc0d50d	0.09415636
243	0x3e98bc44	0.29831135
244	0x3e99cf59	0.30041006
245	0x3d43cf36	0.047805034
246	0x3e51dbf8	0.20494068
247	0xbd2ec6f2	-0.042670198
248	0x3d8c0474	0.06836787
249	0x3d99a9df	0.075031035
250	0x3dc7bad8	0.097524345
251	0x3d96caf3	0.07362928
252	0xc00374f0	-2.0540123
253	0x3eb53c75	0.35397688
254	0x3ff37fb5	1.9023348
255	0x3f35ad28	0.7096734

input_layer.bias f4 [64]
0	0xbf633314	-0.88749814
1	0xbfab2923	-1.3371929
2	0xbe7f9a9c	-0.24961323
3	0x40324730	2.785595
4	0x3fa480d6	1.2851818
5	0xbf327f9a	-0.69725955
6	0xbf71081e	-0.9415301
7	0xbea2d893	-0.31805858
8	0x3e27dd4c	0.16393012
9	0xbe590739	-0.21194161
10	0x3f98019b	1.187549
11	0xbe6ae9d2	-0.22940758
12	0xbcf9a0b6	-0.03047214
13	0x3f4eddf3	0.8080742
14	0x3fced2df	1.6158103
15	0xc006360f	-2.0970495
16	0x3ccc3614	0.02492813
17	0x3e7feff1	0.24993874
18	0x3eca386a	0.39496166
19	0xbea741ad	-0.32667294
20	0xbf86083f	-1.0471267
21	0xbdeef276	-0.116673395
22	0x3fa47c78	1.2850485
23	0x3f8e5cba	1.1122048
24	0x3fad8aa4	1.3557935
25	0xc04d8781	-3.2113955
26	0x3e9704d6	0.29495877
27	0xbfcf63da	-1.6202347
28	0x3e0a02ad	0.13477583
29	0x3fbff9ea	1.4998143
30	0x3f4fa752	0.81114686
31	0x3e41c2b3	0.18921928
32	0x3dbe2d06	0.09285931
33	0x40451fa0	3.0800552
34	0x3ee2d8e7	0.44306108
35	0xbec8f3c2	-0.39248472
36	0x3fd97733	1.6989502
37	0x3f81d6e0	1.01437
38	0x3f8df1b5	1.1089388
39	0xbe133f14	-0.14379531
40	0xbeeab74c	-0.4584297
41	0xbe1f3833	-0.15548782
42	0x3edd9da4	0.43284333
43	0xbf6ebe1f	-0.9325885
44	0x404cebfb	3.201903
45	0xbe16892d	-0.14700766
46	0x3f8af978	1.0857382
47	0xbe544fb5	-0.20733531
48	0xbfb9b5b7	-1.450858
49	0xbff70330	-1.9297848
50	0xbe72def1	-0.23717858
51	0x403054ba	2.7551713
52	0xc018c0e4	-2.386773
53	0xbef0597c	-0.4694327
54	0xbfbcdd46	-1.4755027
55	0xbfd9834c	-1.6993194
56	0x3fc492bd	1.5357281
57	0x3d4efd30	0.050534427
58	0x3fb3455b	1.4005541
59	0x3f3fe865	0.7496398
60	0xbf15a840	-0.58459854
61	0x3ece15a3	0.40250883
62	0x3d79d84f	0.060997304
63	0xbe57ca83	-0.21073346

dl1.weight f4 [64, 64]
0	0x3f04518d	0.51686937
1	0xbd7484ee	-0.059697084
2	0x3f958e5c	1.168407
3	0x3e8ea9dc	0.27863967
4	0x3e3352b8	0.17512023
5	0x3f0a382b	0.53991956
6	0xbebc86ca	-0.36821586
7	0x3e970faa	0.29504138
8	0x3ed2fd0d	0.41208687
9	0x3e66b3bb	0.22529499
10	0x3eed1779	0.4630697
11	0xbdd67a74	-0.10472575
12	0x3f1bacaf	0.6081037
13	0x3e9570a6	0.29187506
14	0x3ef0d54e	0.4703774
15	0x3f321d69	0.69576126
16	0xbbc9c6dc	-0.006157739
17	0x3f0a68bf	0.5406608
18	0x3dd26a4c	0.10274181
19	0xbddd8028	-0.108154595
20	0xbeb9aebf	-0.36266133
21	0xbd9916d3	-0.074750565
22	0x3dc33153	0.09530892
23	0x3eca1e80	0.39476395
24	0xbdf5fdfc	-0.12011334
25	0xbed1ae05	-0.4095308
26	0x3e0958e4	0.13412815
27	0xbf27bf23	-0.65526026
28	0x3f05a873	0.5221016
29	0x3ecdb48f	0.40176818
30	0x3ef93aea	0.4867776
31	0x3f89ef0d	1.0776078
32	0x3f30e5a3	0.691004
33	0x3eb02692	0.34404427
34	0x3f8c89a6	1.0979507
35	0x3d5bdcdb	0.05367742
36	0x3f2f44c3	0.684643
37	0x3f5a3377	0.8523478
38	0xbe528224	-0.20557457
39	0x3dbec26c	0.09314427
40	0xbe996c3e	-0.29965395
41	0x3e690216	0.22754702
42	0x3f293b0f	0.6610574
43	0x3e172a12	0.14762142
44	0x3ec76cc0	0.38950157
45	0xbd3bc7c0	-0.045844793
46	0x3f15a202	0.5845033
47	0xbf135ea6	-0.575663
48	0x3f1aeddf	0.6051921
49	0xbf07ddd8	-0.5307288
50	0x3dde00b5	0.108399786
51	0xbbb85e06	-0.005626443
52	0xbed7ed54	-0.42173254
53	0xbe116deb	-0.14202087
54	0xbe3e86e8	-0.1860615
55	0xbe61da05	-0.22055824
56	0x3f1cd9ac	0.6126964
57	0x3d8eed05	0.06978802
58	0x3f0e215b	0.55519646
59	0x3d8d9786	0.069136664
60	0x3f41aa52	0.75650513
61	0x3ecf27e6	0.40460128
62	0xbd55b540	-0.052174807
63	0x3e80ac12	0.2513128
64	0x3c99223e	0.018693086
65	0xbe53c9e1	-0.2068248
66	0x3eb82b65	0.35970607
67	0x3e864c1a	0.26229936
68	0x3d2b7619	0.041860674
69	0x3f5269fa	0.8219296
70	0x3f012b76	0.5045694
71	0xbf3682bf	-0.7129325
72	0x3e30358e	0.1720793
73	0x3db1a2bc	0.08673617
74	0xbf1cd103	-0.61256427
75	0x3e017223	0.12641196
76	0x3e636f95	0.22210534
77	0x3f4594bd	0.7718008
78	0xbe849641	-0.25895885
79	0xbebfd0ab	-0.3746389
80	0x3f1f7289	0.6228414
81	0xbe818e2b	-0.25303778
82	0x3e2606f8	0.16213596
83	0x3d052972	0.03251023
84	0xbe1092b4	-0.14118463
85	0xbd5d0c7d	-0.053966988
86	0x3e226bae	0.15861389
87	0xbe8e7bee	-0.27828926
88	0x3f397236	0.724399
89	0xbfb54b41	-1.4163591
90	0xbe5da359	-0.21644343
91	0xbce6dd6d	-0.028181756
92	0x3e8e0ae9	0.277427
93	0x3da5bac5	0.08092264
94	0x3f172866	0.5904602
95	0x3fcf1e5b	1.6181139
96	0x3d9f569a	0.0778019
97	0x3e9912f9	0.29897287
98	0x3e89846c	0.26858842
99	0xc0031896	-2.0483756
100	0x3e4c161c	0.19930309
101	0x3e9b623c	0.30348384
102	0x3d93e084	0.07220557
103	0x3ca4a80b	0.02009966
104	0x3ea61431	0.3243728
105	0x3f5c8776	0.86144197
106	0xbf21513a	-0.63014567
107	0x3f1d64f5	0.61482173
108	0xbe363371	-0.17793061
109	0xbd64d1f9	-0.055864308
110	0x3f6039b0	0.87588024
111	0x3e91669c	0.28398597
112	0x3ebaf256	0.36513013
113	0x3eadfb6b	0.3398088
114	0xbc8127b7	-0.015766008
115	0x3ea82af2	0.32845265
116	0x3e64f535	0.22359164
117	0x3f3fab2c	0.7487056
118	0x3edaa390	0.42702913
119	0xbd6f1c4e	-0.058376603
120	0x3f6b4140	0.9189644
121	0x3e2354a5	0.15950258
122	0xbe572f2f	-0.21014093
123	0x3fae333b	1.3609384
124	0x3dffd2aa	0.12491353
125	0x3e3695f7	0.17830645
126	0xbe305806	-0.17221078
127	0x3f8b57f4	1.0886216
128	0xbe0c1389	-0.13679327
129	0xbe071a6d	-0.13193674
130	0xbe0b0099	-0.13574447
131	0xbcce8543	-0.025210029
132	0xbd46a654	-0.048498467
133	0xbd97e52d	-0.07416759
134	0xbdf457ff	-0.119308464
135	0x3d7e3baf	0.062068637
136	0xbd624382	-0.05524016
137	0x3d45d222	0.0482961
138	0xbe080488	-0.13282979
139	0xbd66d920	-0.05635941
140	0xbcb5a057	-0.022171183
141	0xbdc5d4a8	-0.096597016
142	0x3d9b55b6	0.075847074
143	0xbcb79daf	-0.022414057
144	0x3948bdd9	0.0001914421
145	0xbddc4adf	-0.10756468
146	0xbd44dd08	-0.048062354
147	0xbd88e476	-0.066842005
148	0xbce4008b	-0.02783229
149	0x3c95423b	0.018220058
150	0xbcb6e48c	-0.022325777
151	0x3d357c49	0.04430798
152	0xb993d94f	-0.00028199932
153	0xbba77a6b	-0.005111029
154	0xbcbe83d3	-0.023256218
155	0x3cb3854b	0.021914145
156	0xbc5df775	-0.013547768
157	0xbe009747	-0.12557708
158	0xbcbd64ab	-0.023119291
159	0xbd60a53d	-0.054845084
160	0x3c3932e9	0.011303642
161	0xbbf02bca	-0.007329439
162	0xbd751c93	-0.059841704
163	0x3c0af648	0.00848157
164	0x3c904c10	0.017614394
165	0x3cc4b8ec	0.024013959
166	0xbd1eae62	-0.038740523
167	0xbe243865	-0.16037138
168	0xbe3c517e	-0.18390462
169	0xbb11d6f0	-0.0022253357
170	0x3ce9ab21	0.028523983
171	0xbdf69796	-0.120406315
172	0x3c73b9c7	0.014875836
173	0x3d9ace18	0.075588405
174	0xbdc4cf69	-0.09609873
175	0xbb0b689b	-0.0021272067
176	0x3d9a09eb	0.07521423
177	0xbe12b3c2	-0.14326385
178	0xbd6a419d	-0.05719148
179	0xbd6ee368	-0.05832234
180	0xbafe9dbf	-0.0019425674
181	0xbd4aee91	-0.04954392
182	0xbc2e5ffd	-0.010643003
183	0xbe1e91c4	-0.15485293
184	0xbc9f4d7d	-0.019446129
185	0x3d0361e3	0.032075774
186	0x3c40a330	0.011757657
187	0xbd8a7f42	-0.06762554
188	0xbdecd9fb	-0.11565014
189	0x3ce145a3	0.027499026
190	0xbcf48075	-0.02984641
191	0xbe05f817	-0.1308292
192	0x3f6caf4e	0.92454994
193	0x3f964f42	1.1742938
194	0x3e8a7966	0.27045745
195	0x3e65b3ae	0.22431824
196	0xbf162dbf	-0.58663553
197	0x3ff6d018	1.9282255
198	0x3f85ed4a	1.046304
199	0x401e2ca6	2.4714751
200	0x3f15f384	0.585747
201	0xbe923b7c	-0.28561008
202	0xbfc1ae6d	-1.5131356
203	0x3c9a9823	0.018871373
204	0xbe959fad	-0.29223385
205	0x3f07ec29	0.53094727
206	0xbfa22729	-1.2668201
207	0x3f07dfb2	0.53075707
208	0x3f902985	1.1262671
209	0x3d214357	0.03937086
210	0xbf02053b	-0.5078923
211	0xbdb76698	-0.08955115
212	0xbf660d79	-0.8986431
213	0xbd716b1d	-0.05894004
214	0xbf5b6b41	-0.8571053
215	0xbedba1d9	-0.42896917
216	0xbf8120ee	-1.0088174
217	0x3fef19e2	1.8679774
218	0xbf09351e	-0.53596675
219	0x3d69111f	0.056901094
220	0xbfbf3ca4	-1.4940381
221	0x3eeadcd2	0.45871598
222	0x3e8f1af0	0.2795024
223	0x3ec6c24c	0.38820112
224	0xbf324512	-0.6963664
225	0x3eeffcd0	0.46872568
226	0x3e9e95c9	0.30973652
227	0x4026ffe9	2.6093695
228	0xbecd697a	-0.40119535
229	0xbf0edf8d	-0.5580986
230	0xbf1b7c4e	-0.6073655
231	0x3d4cfb2d	0.050044227
232	0x3efea113	0.49732265
233	0xbdd494d4	-0.10379949
234	0xbf4f6b68	-0.81023264
235	0x3d471c53	0.048610996
236	0xbfb220ba	-1.3916237
237	0x3c9626eb	0.018329104
238	0xbf27aeec	-0.65501285
239	0xbf58d133	-0.8469421
240	0x3fcd0101	1.6015931
241	0x3f7bee98	0.9841094
242	0xbda095ea	-0.07841094
243	0xbdbfd4ea	-0.09366782
244	0x3fb048c5	1.3772207
245	0x3ddfddda	0.10930987
246	0xbf008ca8	-0.50214624
247	0xbd08cabb	-0.033396464
248	0x3f761873	0.96131057
249	0xbd291346	-0.041278146
250	0xbf7cc793	-0.98742026
251	0x3f91554f	1.1354159
252	0xbf5e6caf	-0.8688459
253	0xbe6b464c	-0.22976035
254	0x3f0381d0	0.51369953
255	0xc00a01d6	-2.156362

dl1.bias f4 [64]
0	0xbe4984fa	-0.19679633
1	0x3f024b73	0.50896376
2	0xbe2661c8	-0.16248238
3	0x3f208842	0.6270791
4	0xbe8d7e7c	-0.27635562
5	0xbe7b874e	-0.24563333
6	0xbe932ce6	-0.28745192
7	0xbf642fa2	-0.8913518
8	0x3f765ee8	0.96238565
9	0xbe12cfe9	-0.14337124
10	0x3eff408d	0.49853936
11	0x3f0229fc	0.50845313
12	0x3f7a3c25	0.97748023
13	0xbece63df	-0.4031057
14	0x3f4c2241	0.7973977
15	0x3ee0800c	0.43847692
16	0xbf5a96a5	-0.85386115
17	0xbeaf8c08	-0.34286523
18	0x3da11981	0.078661926
19	0xbe63b84d	-0.22238274
20	0xbe701408	-0.23445141
21	0xbe551303	-0.20808034
22	0xbe36ae1d	-0.17839856
23	0x3efff751	0.49993375
24	0x3fa6ff36	1.3046634
25	0xbe13fc8d	-0.14451809
26	0x3f37e09d	0.7182711
27	0xbe9794f6	-0.29605836
28	0xbf2b54e0	-0.66926384
29	0xbed93c47	-0.424288
30	0x3fba8ab4	1.4573579
31	0x3f858700	1.0431824
32	0xbea7407d	-0.32666388
33	0xbeb632c5	-0.3558561
34	0xbf9f00f2	-1.2422163
35	0x3f149710	0.58043003
36	0xbe1cc5dc	-0.15309852
37	0x3edaa1bd	0.42701522
38	0xbd171258	-0.03688273
39	0xbea2e761	-0.31817153
40	0x3d3a699e	0.04551088
41	0x3ea5fef5	0.3242108
42	0x3f0b6233	0.54446715
43	0xbe414169	-0.18872608
44	0x3e114e7c	0.14190096
45	0xbf1dea47	-0.61685604
46	0xbe31a38c	-0.17347544
47	0x3fd2db9c	1.647327
48	0x3f0bbe1c	0.5458696
49	0xbf04ce44	-0.51877236
50	0x3fbc5e3d	1.4716259
51	0x3f9f795a	1.2458909
52	0x3ec90802	0.39263922
53	0xbe818909	-0.25299862
54	0xbea7e35e	-0.32790655
55	0x3ea5ff33	0.32421264
56	0x3debf1c3	0.11520722
57	0x3f135ce8	0.5756364
58	0xbe8ed5e7	-0.2789757
59	0x3d6bce98	0.05757007
60	0x3da948b5	0.08265821
61	0x3f807567	1.0035828
62	0xbf0daa85	-0.5533832
63	0xbe3c8369	-0.18409504

output_layer.weight f4 [45, 64]
0	0x3da5ed7d	0.08101938
1	0xbe998342	-0.29982954
2	0x3cafe65f	0.021472154
3	0x3f9e9a40	1.2390823
4	0x3eacf021	0.33776954
5	0xbc29385e	-0.01032838
6	0x3d6ecf76	0.05830332
7	0xbddf618e	-0.10907279
8	0x3f76a09c	0.9633882
9	0x3c7960f0	0.015220866
10	0x3f9381f7	1.1524037
11	0xbe06142a	-0.1309363
12	0x3d1f8f6a	0.03895513
13	0x3d2abcdb	0.041684013
14	0x3fb101d1	1.3828679
15	0x3f91911a	1.1372406
16	0xbe436a75	-0.19083579
17	0x3e3a92df	0.1822009
18	0xbd8990e2	-0.06717087
19	0x3d650db9	0.05592129
20	0x3d25c25d	0.040468562
21	0x3f6e9607	0.93197674
22	0xbd9c884f	-0.07643186
23	0x3f26736e	0.6501988
24	0x3fb41768	1.4069643
25	0xbd76f0e4	-0.060288325
26	0x3f6bb7a6	0.920771
27	0xbcb1b652	-0.021693382
28	0xbe2b250e	-0.16713354
29	0xbe1bbe24	-0.15209252
30	0xbe6234b2	-0.22090414
31	0x3f155c50	0.5834398
32	0xbe8a4ed1	-0.27013257
33	0xbe413963	-0.18869548
34	0xbdb7c3a5	-0.08972863
35	0x3fb49949	1.4109279
36	0x3c84db9a	0.016217995
37	0x3f2772da	0.65409625
38	0x3c9dd36e	0.019265857
39	0x3caac09f	0.020843802
40	0x3fa43ed4	1.2831674
41	0xbdf0a097	-0.1174938
42	0x3f9dd0b1	1.2329313
43	0xbd68c559	-0.05682883
44	0x3e97e73a	0.296686
45	0x3dbac0f0	0.09118831
46	0xbd7d0b44	-0.06177832
47	0xbe309b4e	-0.17246744
48	0x3f700737	0.9376101
49	0xbe9587c8	-0.29205155
50	0x3fb12144	1.3838277
51	0x3fa02b16	1.2513149
52	0x3f323ee1	0.69627196
53	0xbead75a5	-0.33878818
54	0x3dbd8a0b	0.09254845
55	0x3f8cd260	1.1001701
56	0xbd23eac8	-0.040018827
57	0x3f34ea42	0.7066995
58	0x3e2d3a07	0.16916667
59	0xbe5a521d	-0.21320386
60	0x3e77176d	0.2413003
61	0x3f95f7d2	1.1716254
62	0xbc817b0c	-0.015805744
63	0x3e32809e	0.17431876
64	0xbe8fb76b	-0.28069624
65	0x3eacdfe2	0.3376456
66	0xbb225aef	-0.002477344
67	0x3f39ffb7	0.72655815
68	0x3dea8501	0.1145115
69	0xbd964423	-0.07337215
70	0xbd8e0fc7	-0.06936603
71	0xbe93ae81	-0.28844073
72	0x3f174362	0.59087193
73	0x3deb3636	0.11484949
74	0x3f6027a0	0.8756046
75	0xbd860eaa	-0.06545766
76	0xbd55685e	-0.052101485
77	0xbe9458eb	-0.2897409
78	0x3f005190	0.50124454
79	0x3f654b37	0.89567894
80	0x3d08f114	0.033433035
81	0x3e27494d	0.16336556
82	0xbe20e0ea	-0.15710798
83	0xbd82d220	-0.063877344
84	0xbe0f4950	-0.1399281
85	0x3f1404cb	0.57819813
86	0xbd46e232	-0.04855556
87	0x3f4cbb8e	0.79973686
88	0x3f9cba24	1.2244306
89	0x3de5a2e6	0.11212711
90	0x3f8b09d2	1.0862372
91	0x3e6e0978	0.232458
92	0x3e02f7a7	0.12789784
93	0xbe25bdfa	-0.16185752
94	0xbe9bb7e7	-0.30413744
95	0x3f46a14a	0.7758986
96	0x3debf61f	0.11521553
97	0x3d820855	0.063492455
98	0x3dfc61b8	0.12323326
99	0x3f49dfd5	0.78857166
100	0x3e0e1539	0.13875283
101	0x3f2241fd	0.6338194
102	0x3e1cc60c	0.15309924
103	0xbd18c68e	-0.03729873
104	0x3f81c02d	1.0136772
105	0x3f308106	0.68946874
106	0x3f58eaa1	0.84733015
107	0xbdf93c22	-0.121696725
108	0x3f11ae5c	0.56906676
109	0xbcecb4a4	-0.02889473
110	0xbdb7def5	-0.089780726
111	0xbd3c4fa7	-0.0459744
112	0x3f1833a1	0.5945378
113	0xbddee053	-0.1088263
114	0x3eb69378	0.35659385
115	0x3f7750fa	0.96607935
116	0x3f63d1de	0.88992107
117	0xbe822535	-0.25419012
118	0x3d46e450	0.04855758
119	0x3f7990cd	0.97486573
120	0xbddae545	-0.10688261
121	0x3f99e6e0	1.2023582
122	0xbe5dd709	-0.2166406
123	0xbd911d75	-0.070856966
124	0xbe9becc7	-0.30454084
125	0x3f35ebb1	0.7106276
126	0xbedac60d	-0.42729226
127	0x3e3e9828	0.1861273
128	0xbd055852	-0.032554932
129	0xbd11062e	-0.035406284
130	0x3d7e2425	0.06204619
131	0x3fbd197e	1.4773405
132	0xbebadae7	-0.36495134
133	0x3c00b3c1	0.007855357
134	0x3e1dbb68	0.15403521
135	0x3e81716e	0.25281852
136	0x3fc82810	1.5637226
137	0xbcd3a33f	-0.025834678
138	0x3f8c7bc2	1.0975268
139	0xbdfd9cee	-0.123834476
140	0x3f8eef2d	1.1166741
141	0xbe94dbfa	-0.2907408
142	0x3f9643d9	1.1739455
143	0x3fa33cc5	1.275292
144	0xbee038db	-0.43793377
145	0xbdd147ff	-0.1021881
146	0xbc76b8be	-0.015058694
147	0xbcbfc9ad	-0.023411596
148	0xbd9cda0d	-0.076587774
149	0x3de4f4a9	0.11179478
150	0x3d23866c	0.039923117
151	0x3f8756d1	1.0573369
152	0x3f7906c8	0.9727597
153	0x3c98229e	0.018571194
154	0x3fb83cfc	1.4393611
155	0xbe8e326c	-0.27772844
156	0xbf1a3832	-0.60242
157	0xbd483773	-0.048881005
158	0x3e81bb2c	0.25338113
159	0x3f4ba752	0.79552186
160	0xbe1dac97	-0.15397869
161	0xbf174abc	-0.5909841
162	0xbe5eb351	-0.21748091
163	0x3f96c6ff	1.1779479
164	0xbd861ebe	-0.06548832
165	0xbe383bd4	-0.17991573
166	0x3dca997d	0.09892557
167	0xbd4b84ff	-0.04968738
168	0x3f9ab53e	1.2086561
169	0x3c13a983	0.009012583
170	0x3fe0aa18	1.7551908
171	0xbd77e45a	-0.060520507
172	0x3f0b2c11	0.54364115
173	0xbed439b5	-0.41450277
174	0xbc07164a	-0.00824506
175	0xbdc2d344	-0.09512952
176	0x3dce6753	0.10078301
177	0xbeeddbd7	-0.46456787
178	0x3fa937f5	1.3220202
179	0x3fa682cd	1.3008667
180	0x3f9d6729	1.2297107
181	0xbdf7bd37	-0.12096637
182	0x3e10c0b3	0.14136009
183	0x3f9bef5b	1.218242
184	0xbd9335e6	-0.07188015
185	0x3f61200b	0.8793952
186	0xbe4e3df4	-0.2014082
187	0xbe2882d4	-0.16456157
188	0x3b0e9010	0.0021753348
189	0x3f9fe463	1.2491573
190	0x3dcda929	0.1004203
191	0x3e920cbf	0.2852535
192	0x3d3c62be	0.045992605
193	0x3e16d79b	0.14730684
194	0xbcfe37cb	-0.031032464
195	0x3fa3d31e	1.2798803
196	0xbeba3c27	-0.36374018
197	0xbe364a18	-0.17801702
198	0x3e17d1d5	0.14826138
199	0xbe479995	-0.1949218
200	0x3f2e5f34	0.6811402
201	0xbd6af6c5	-0.057364244
202	0x3fa2e688	1.2726603
203	0x3e49f7a1	0.19723369
204	0xbd4f22d6	-0.05057033
205	0xbf0a75fe	-0.5408629
206	0x3ef7b541	0.48380473
207	0x3e78fab4	0.24314386
208	0x3d884d34	0.0665535
209	0xbc57c06e	-0.013168437
210	0xba08f0b8	-0.0005223858
211	0x3d989afd	0.07451437
212	0xbd00207c	-0.03128098
213	0x3fc98f1e	1.5746801
214	0x3d132fe7	0.035934355
215	0xbdf231c9	-0.11825902
216	0x3df2856c	0.118418545
217	0xbd0fb75e	-0.035086982
218	0x3f781a23	0.9691488
219	0xbe81be88	-0.25340676
220	0xbd196610	-0.03745085
221	0xbbffe1d7	-0.0078089046
222	0xbe819c06	-0.2531435
223	0xbdb51f1a	-0.08843823
224	0x3b1b7f22	0.00237269
225	0xbe53e5b8	-0.206931
226	0xbef2fab0	-0.47456884
227	0x3fb6eeff	1.4291686
228	0xbd898924	-0.067156106
229	0xbccaab41	-0.024739863
230	0x3e278584	0.16359526
231	0xbdb70d6b	-0.08938106
232	0x3fa4bedc	1.2870746
233	0x3f171cb6	0.59028184
234	0x3f9b3c8e	1.2127855
235	0x3caa484f	0.020786433
236	0x3f295965	0.6615203
237	0xbda18e55	-0.07888476
238	0xbe177633	-0.14791183
239	0xbe3d9e3d	-0.18517394
240	0x3e6a4db0	0.22881198
241	0xbd9970f0	-0.07492244
242	0x3e337126	0.17523631
243	0x3ef39cd5	0.4758059
244	0xbd4da876	-0.050209485
245	0xbd8fd406	-0.07022862
246	0xbe6afc78	-0.22947872
247	0x3f47fca0	0.7811985
248	0x3d742b86	0.05961182
249	0xbe32686e	-0.1742265
250	0xbeb77beb	-0.3583673
251	0xbd18ad9e	-0.03727495
252	0x3e890d76	0.26768082
253	0x3ecb75e7	0.3973839
254	0xbe8caa98	-0.27473903
255	0xbdefb118	-0.117037

output_layer.bias f4 [45]
0	0x3fa33fac	1.2753806
1	0x3f15e103	0.58546466
2	0x3f646ad6	0.8922552
3	0x3f2883c3	0.6582605
4	0x3f4691dd	0.7756632
5	0x3fb424f1	1.4073774
6	0x3fcb4ece	1.5883424
7	0x3f4640db	0.7744271
8	0x3f54d6ed	0.8314045
9	0x3fd8e25c	1.6944079
10	0x3eadf6e8	0.33977437
11	0x3f9b2513	1.2120689
12	0x3f7d7a94	0.99015164
13	0x3fba5b8f	1.4559191
14	0x3f83f056	1.030772
15	0x3fc7266b	1.5558599
16	0x3f2d7341	0.6775399
17	0x3ed84490	0.4223981
18	0x3ffaf4d5	1.9605967
19	0x3f5fb880	0.873909
20	0x3fa7ee05	1.3119513
21	0x3f68b443	0.9090006
22	0x3fba513a	1.4556038
23	0x3fbdffbb	1.4843668
24	0x3fa9921f	1.3247718
25	0x3f446b9d	0.76726705
26	0x3e853b21	0.26021674
27	0x3fc49f6a	1.5361149
28	0x3f5384b8	0.8262439
29	0x3f92580d	1.1433121
30	0x3f582b75	0.8444131
31	0x3fae0cfd	1.3597714
32	0x3f93705c	1.1518664
33	0x3f96f6f0	1.1794109
34	0x3f1bef24	0.60911775
35	0x3eb4776f	0.3524737
36	0x3f20137e	0.6252974
37	0x3f17c953	0.5929157
38	0x3f9efb42	1.2420428
39	0x3f741279	0.9534069
40	0x3fa2c056	1.2714946
41	0x3f62888b	0.884896
42	0x3fa18a83	1.2620395
43	0x3f5b5c37	0.85687584
44	0xbd80398b	-0.062609755
