model/model_player2.pth (torch, 37655 bytes, 6 tensors)

input_layer.weight f4 [64, 28]
0	0xbee94c58	-0.45566058
1	0x3eaa9acb	0.33321223
2	0x3e23a3dc	0.15980476
3	0xbdb6e1db	-0.08929797
4	0xbf1da535	-0.6158021
5	0x3d6c077c	0.057624325
6	0xbe0de998	-0.1385864
7	0xbc76f98b	-0.015074144
8	0xbcda3f7a	-0.026641596
9	0x3d37b0f8	0.044846505
10	0xbe0c42ba	-0.13697329
11	0x3dd1b333	0.10239258
12	0xbbfcbb10	-0.0077127293
13	0xbd3ecab9	-0.04658005
14	0x4013c51c	2.3089056
15	0x3e03dad5	0.12876447
16	0xbcf99682	-0.030467276
17	0xbc7ad233	-0.015308904
18	0xbf21d924	-0.63221955
19	0xbe4edf16	-0.20202288
20	0xbdc6e7f9	-0.09712214
21	0xbec8794a	-0.39155036
22	0xbef6323a	-0.48085195
23	0xbfe2b929	-1.7712756
24	0xbfd1442f	-1.6348933
25	0xbfb86403	-1.4405521
26	0xbfc5e507	-1.5460519
27	0xbfab0cca	-1.3363278
28	0xbe0a7f87	-0.1352521
29	0x3e356d88	0.17717564
30	0x3da46efe	0.080289826
31	0xbebb03fb	-0.36526474
32	0xbe055d59	-0.1302389
33	0xbec578b9	-0.38568667
34	0x3d2e7d6c	0.04260008
35	0xbe98cfc3	-0.2984601
36	0xbda10b35	-0.07863466
37	0xbe97a6cd	-0.29619446
38	0xbc3433b6	-0.010998657
39	0xbe4d19b7	-0.2002934
40	0xbd60047d	-0.05469178
41	0xbec8afdb	-0.39196667
42	0x3ebac990	0.36481905
43	0xbf306a3c	-0.689121
44	0xbdad8ab3	-0.084737204
45	0xbe046db1	-0.12932469
46	0xbf65f1e2	-0.8982221
47	0xbf4e7751	-0.8065081
48	0xbf3b23e6	-0.7310165
49	0xbf589ae2	-0.8461133
50	0xbf6592f6	-0.8967737
51	0x3f97d0b5	1.1860567
52	0x3faead8e	1.3646715
53	0x3f6c6bc5	0.92351943
54	0x3f8f2451	1.1182958
55	0x3f578ddf	0.84200853
56	0xbeab82f7	-0.33498356
57	0x3de4ebd0	0.1117779
58	0xbec0e588	-0.37675118
59	0x3ce3b184	0.027794607
60	0xbd804a88	-0.06264216
61	0xbec9ae69	-0.39390877
62	0x3eaa84c9	0.33304432
63	0x3ed20af8	0.41023993
64	0xbe21f2df	-0.15815304
65	0x3dfd0bdf	0.1235578
66	0xbe892e7b	-0.26793274
67	0xbe450ab4	-0.19242364
68	0xbea6839a	-0.3252228
69	0xbe099ad0	-0.13437963
70	0x3de91264	0.11380461
71	0xbf241ee1	-0.6410962
72	0x3deb5f4a	0.11492784
73	0x3f2d0413	0.6758434
74	0xbe86782b	-0.26263556
75	0xbe7906ad	-0.24318953
76	0xbf50344a	-0.81329787
77	0xbe5bdf78	-0.21471965
78	0xbee8a23e	-0.4543628
79	0xbfe65a40	-1.7996292
80	0xbfe1e558	-1.7648115
81	0xbfb56b97	-1.4173459
82	0xbfde51b3	-1.7368683
83	0xbfc3921e	-1.5278966
84	0xbc8716d2	-0.016490374
85	0xbf190bb5	-0.5978349
86	0xbea2617e	-0.31715006
87	0x3ee642de	0.4497289
88	0xbe9e61b8	-0.30933928
89	0x3f0fc60f	0.5616159
90	0x3d942441	0.072334774
91	0x3e9edbc4	0.31027043
92	0xbddf3e6f	-0.1090058
93	0x3f27a63e	0.6548804
94	0x3eb4570d	0.35222664
95	0x3f4a6a48	0.7906842
96	0xbe8785fd	-0.26469412
97	0x3f5ce42c	0.8628566
98	0xbe71d61f	-0.23616837
99	0x3f653509	0.8953405
100	0xbe0eff91	-0.13964678
101	0x3eb9edb7	0.36314175
102	0xbf2cd4d0	-0.67512226
103	0xbf3e41c9	-0.7431913
104	0xbf25585c	-0.6458795
105	0xbf69f6c9	-0.9139219
106	0xbeee9af0	-0.46602583
107	0x3f5b8a0e	0.8575753
108	0x3f993e05	1.1972052
109	0x3f94adc4	1.1615529
110	0x3f9786e3	1.1838039
111	0x3fda74bc	1.7066875
112	0x3eb3de7f	0.3513069
113	0x3eb1a617	0.3469703
114	0xbd6bdb52	-0.057582207
115	0xbef8625e	-0.48512548
116	0xbdf49a2f	-0.11943471
117	0x3e32f9bc	0.17478079
118	0xbe535f69	-0.20641865
119	0x3d8e63e8	0.06952649
120	0xbe07c516	-0.13258776
121	0x3e830fbb	0.2559794
122	0x3ecdca32	0.40193325
123	0xbd0eac2a	-0.034832157
124	0x3ecd0579	0.40043238
125	0xbed7b595	-0.42130724
126	0x3e8f5fe6	0.28002852
127	0xbeb227de	-0.3479604
128	0xbe99b829	-0.30023316
129	0xbf1abdc6	-0.6044582
130	0xbe81dfd0	-0.25366068
131	0xbd97914f	-0.07400762
132	0xbe699bbb	-0.22813313
133	0xbf26462d	-0.6495083
134	0xbeb24dc3	-0.34824952
135	0xbf846001	-1.0341798
136	0xbfad09c8	-1.351861
137	0xbf51dc12	-0.81976426
138	0xbf85a584	-1.0441136
139	0xbf753a2a	-0.95791876
140	0xbf91cc4a	-1.1390469
141	0xbd7c0d6b	-0.061536234
142	0xbe65bc1f	-0.22435044
143	0xbdca9162	-0.09891011
144	0x3f001bd3	0.50042456
145	0x3d653d7c	0.05596684
146	0xbe8bbe64	-0.27293694
147	0xbde4bad3	-0.111684464
148	0xbc795b14	-0.015219469
149	0x3cbd9d32	0.023146246
150	0x3f04266b	0.5162112
151	0x3e59f9e1	0.21286727
152	0xbe672bd3	-0.22575311
153	0xbd3cdee5	-0.046111006
154	0x3f1e2ab4	0.6178391
155	0x3e1ddd3e	0.15416428
156	0x3f6aba0d	0.9169014
157	0x3e4d37a7	0.20040761
158	0xbec9c6c5	-0.39409462
159	0xbf166d32	-0.5876037
160	0xbe08545b	-0.13313429
161	0xbf01ca34	-0.5069916
162	0xbef12507	-0.47098562
163	0x3fb279c1	1.3943406
164	0x3f9d43c3	1.2286304
165	0x3f6bfe26	0.92184675
166	0x3f78bb57	0.9716086
167	0x3f3375e3	0.70101756
168	0xbef97e58	-0.48729205
169	0xbe39cc4e	-0.18144342
170	0xbe0c93d9	-0.13728274
171	0xbd2afe6f	-0.041746553
172	0xbeaf2d0e	-0.34214061
173	0x3eb9f60f	0.3632054
174	0x3f9185f5	1.1369005
175	0x3c45a034	0.012062121
176	0x3e1e23aa	0.15443292
177	0xbe3222a2	-0.17396024
178	0x3f8750b0	1.0571499
179	0x3e54cbfd	0.2078094
180	0xbe26e19f	-0.16297005
181	0xbdaeddd4	-0.08538404
182	0xbe661e11	-0.22472407
183	0xbebe5764	-0.3717605
184	0xbf17895c	-0.5919397
185	0xbe2254aa	-0.1585261
186	0xbebbe9a9	-0.36701706
187	0xbee8ff87	-0.45507452
188	0xbf2d7da6	-0.6776985
189	0xbf83f775	-1.0309893
190	0xbf8ab79f	-1.0837287
191	0xbf1f5511	-0.62239176
192	0xbef04fc1	-0.46935847
193	0xbee2c261	-0.44288924
194	0xbefd02ac	-0.494161
195	0xbf0c411b	-0.54786843
196	0xbe82de56	-0.25560254
197	0xbb411da6	-0.0029467135
198	0x3d74e788	0.059791118
199	0x3f3bdb2e	0.73381317
200	0xbe2ecccb	-0.1707031
201	0x3f095b15	0.53654605
202	0x3c51452a	0.012772838
203	0xbda62eee	-0.0811442
204	0x3caae758	0.020862266
205	0x3c8c5473	0.017130112
206	0x3d35c17d	0.044373978
207	0x3e559ea4	0.20861298
208	0x3e833571	0.2562671
209	0xbd0af7a0	-0.03392756
210	0x3e77f25d	0.24213548
211	0x3e7ac1c0	0.24487972
212	0x3f3c2483	0.7349321
213	0x3e91a0b8	0.2844293
214	0xbf6672d8	-0.9001899
215	0xbf3366a2	-0.7007848
216	0xbf4eea1b	-0.80825967
217	0xbf4f76a7	-0.81040424
218	0xbf082993	-0.5318844
219	0x3f840ea6	1.031697
220	0x3f4bb1b6	0.7956804
221	0x3f600e90	0.8752222
222	0x3f69da64	0.9134886
223	0x3f55321c	0.83279586
224	0xbf0ecb92	-0.55779374
225	0x3ebccc17	0.36874458
226	0xbf4a0874	-0.7891915
227	0xbec28a6c	-0.37996233
228	0x3e4bc78f	0.19900344
229	0x3b809c2a	0.003924866
230	0xbd39b52b	-0.04533879
231	0x3e0b03e6	0.13575706
232	0xbe940cb7	-0.2891595
233	0x3de80cb2	0.113305464
234	0x3fb0962f	1.3795832
235	0x3ea23199	0.31678465
236	0xbeac2bd3	-0.33627185
237	0x3e8b8075	0.27246442
238	0xbe9be114	-0.30445158
239	0x3d6cf349	0.057849202
240	0x3f2b913e	0.67018497
241	0x3da4da96	0.080495045
242	0xbf2d6140	-0.67726517
243	0xbea53df0	-0.32273817
244	0xbf06e363	-0.52690715
245	0xbf691a1c	-0.91055465
246	0xbfa1a034	-1.2627015
247	0xbea32313	-0.31862697
248	0xbe5a3a11	-0.21311213
249	0x3de8c185	0.11365036
250	0xbeb65fdf	-0.3562002
251	0xbed523e1	-0.41628936
252	0x40027e27	2.0389497
253	0xbf9cd1a5	-1.2251478
254	0x3e494102	0.19653705
255	0x3e83d4e0	0.25748348

input_layer.bias f4 [64]
0	0xbf08134e	-0.53154457
1	0xbde865dd	-0.11347554
2	0xbf33f321	-0.7029286
3	0xbf1ce1e2	-0.6128217
4	0xbf262876	-0.6490549
5	0xbefa6677	-0.489063
6	0xbf992df3	-1.1967148
7	0xbf3977df	-0.72448534
8	0xbf584ba8	-0.8449044
9	0xbf808ca9	-1.0042926
10	0xbd943653	-0.07236924
11	0xbea9d0f2	-0.33167225
12	0xbf90d7e7	-1.1315888
13	0xbf28ec20	-0.659853
14	0xbe27ea25	-0.16397913
15	0x3ea97f5e	0.33104986
16	0xbf45b344	-0.7722666
17	0xbf20e7f2	-0.6285392
18	0xbe38fd0f	-0.18065284
19	0x3ed275bd	0.41105452
20	0xbf106265	-0.5640014
21	0xbf2f552b	-0.6848933
22	0xbeed0861	-0.46295455
23	0xbf5d6171	-0.8647681
24	0xbf3c8a23	-0.7364828
25	0xbebd7aa0	-0.37007618
26	0xbf9d2f76	-1.2280109
27	0x3e4f5e84	0.20250899
28	0xbef7c455	-0.48391977
29	0xbf458cc0	-0.7716789
30	0xbe3e59c9	-0.18588938
31	0xbe4c0b5f	-0.19926213
32	0xbf928f7a	-1.1450036
33	0xbf859470	-1.0435925
34	0xbe4c889e	-0.1997399
35	0xbd959626	-0.07304029
36	0x3e156243	0.14588265
37	0xbe758cfb	-0.23979561
38	0xbf406599	-0.75155026
39	0xbf060dd2	-0.5236484
40	0xbe928feb	-0.28625426
41	0xbf79933b	-0.9749028
42	0xbf4c45b9	-0.7979389
43	0xbeb5a631	-0.35478356
44	0xbf6e0084	-0.92969537
45	0xbf404905	-0.7511142
46	0xbf315b89	-0.69280297
47	0xbf52c18e	-0.8232659
48	0xbe901d65	-0.28147426
49	0x3f043a67	0.51651615
50	0xbed838f2	-0.42230946
51	0xbf34f6b9	-0.7068897
52	0x3f3e5cb4	0.74360204
53	0xbf545d1f	-0.8295459
54	0xbf9a072a	-1.2033436
55	0xbf978216	-1.1836574
56	0x3ea08941	0.31354716
57	0xbee15ca8	-0.44016004
58	0x3e3dd989	0.18540014
59	0xbf5c794c	-0.86122584
60	0xbed149e0	-0.40876675
61	0x3f5025c2	0.81307614
62	0x3f98cd43	1.1937641
63	0xbdbe85d2	-0.09302868

dl1.weight f4 [64, 64]
0	0xbec190e9	-0.3780587
1	0xbf017f9d	-0.5058535
2	0xbf06d8e5	-0.52674705
3	0xbf69b83e	-0.91296756
4	0x3d084e5d	0.033277858
5	0xbe34860d	-0.17629261
6	0xbef302cf	-0.4746308
7	0xbec24a73	-0.37947425
8	0xbeb3f200	-0.3514557
9	0xbf069fc8	-0.52587557
10	0x3e6b1e87	0.22960864
11	0x3d972ab2	0.0738119
12	0xbe49641c	-0.19667095
13	0xbee3333e	-0.44375032
14	0x3e4993b1	0.19685246
15	0xbeddcfbf	-0.4332256
16	0x3d3a0675	0.045416314
17	0xbe4d215d	-0.20032258
18	0xbe50a13d	-0.20374008
19	0xbf10c125	-0.56544715
20	0xbf308952	-0.68959534
21	0x3f1d8161	0.6152554
22	0xbe08c523	-0.13356452
23	0xbee111d8	-0.43958926
24	0xbe5664f0	-0.20936942
25	0xbe43c516	-0.19118151
26	0x3e61c5fa	0.22048178
27	0xbe8f8301	-0.28029636
28	0x3ca69cf5	0.020338515
29	0xbefcd08b	-0.49377856
30	0xbce3bb17	-0.027799172
31	0x3ef6bfbf	0.48193166
32	0xbe3d9538	-0.18513954
33	0xbe1df185	-0.15424164
34	0xbe13838f	-0.14405654
35	0xbd9fc527	-0.07801276
36	0x3dc4579f	0.09587025
37	0xbf0aa40e	-0.5415658
38	0xbedc6706	-0.4304735
39	0xbf2191aa	-0.6311289
40	0xbe619d15	-0.22032578
41	0xbe8290ac	-0.25501
42	0xbd6fa1ac	-0.05850379
43	0xbef74eff	-0.48302457
44	0xbf04af29	-0.51829773
45	0x3e6d78df	0.2319064
46	0xbeb4864b	-0.35258707
47	0xbecc62c9	-0.39919117
48	0xbec13508	-0.37735772
49	0xbebeacb4	-0.37241137
50	0xbeaa6596	-0.3328063
51	0xbee518ad	-0.4474539
52	0xbf153572	-0.58284676
53	0xbe5cf552	-0.21577957
54	0x3e3e345d	0.18574663
55	0xbf100fab	-0.5627391
56	0xbec531b3	-0.3851448
57	0xbea8aebc	-0.32945812
58	0xbf480c2d	-0.7814358
59	0x3cc6ab9d	0.024251753
60	0xbe07067f	-0.13186072
61	0xbede79ae	-0.4345221
62	0x3d92bae7	0.07164555
63	0xbf1b0b68	-0.6056428
64	0xbf0e08c4	-0.55482125
65	0x3f7db719	0.9910751
66	0xbf1bb507	-0.608231
67	0x3f9756b6	1.1823337
68	0xbf02010a	-0.50782835
69	0x3f158217	0.58401626
70	0x3cc335d5	0.02382938
71	0x3ebcf172	0.36902958
72	0x3f03a51c	0.5142381
73	0x3f2940b7	0.6611437
74	0x3e9a6f04	0.30162823
75	0x3f731698	0.9495635
76	0xbe327cb7	-0.17430387
77	0x3f8ac7ae	1.0842187
78	0x3e359d29	0.17735733
79	0xbeeb2e23	-0.45933637
80	0xbea5fd46	-0.32419795
81	0xbf548322	-0.8301259
82	0x3e672f8c	0.22576731
83	0x3f565ff4	0.8374016
84	0x3fadc13e	1.3574598
85	0x3e7b1891	0.2452109
86	0x3f1cca45	0.6124614
87	0x3dc817c1	0.09770156
88	0x3e8821c4	0.2658826
89	0xbe089b52	-0.133405
90	0xbe515b44	-0.20444971
91	0xbf8c645c	-1.0968127
92	0xbe57a3d3	-0.21058588
93	0xbae5cf10	-0.0017533023
94	0x3daa99bb	0.08330103
95	0xbf588be3	-0.8458845
96	0x3f91022e	1.132879
97	0xbd378924	-0.044808522
98	0x3d922e83	0.07137778
99	0xbed5f2cc	-0.41786802
100	0xbf2536c2	-0.6453668
101	0x3ea9efee	0.33190864
102	0xbea32786	-0.3186609
103	0x3f942c9b	1.1576113
104	0xbecd7bdf	-0.4013357
105	0xbf1f8e76	-0.62326753
106	0xbe79c14c	-0.24390143
107	0x3f3d6eb1	0.73997027
108	0x3f270c85	0.6525348
109	0x3d146e23	0.036237847
110	0x3ef82be1	0.48470977
111	0x3dc15685	0.094403304
112	0xbf955fd3	-1.1669868
113	0xbfa71680	-1.3053741
114	0x3f106a92	0.56412613
115	0x3f70bd8a	0.94039214
116	0xbf801a3d	-1.0008007
117	0x3ec244e2	0.37943178
118	0x3ee33f1a	0.4438408
119	0x3fb5087a	1.4143212
120	0xbee01b96	-0.43771046
121	0x3f0035a8	0.5008187
122	0xbf25d06d	-0.6477116
123	0xbe0ef904	-0.1396218
124	0x3e8269e3	0.2547141
125	0x3f5381c0	0.8261986
126	0xbf691876	-0.9105295
127	0xbe962f34	-0.29332888
128	0xbea867b5	-0.32891622
129	0x3fea77d7	1.8317822
130	0xbd2f484e	-0.042793564
131	0x3f7a7e79	0.9784923
132	0xbe0104a8	-0.12599432
133	0xbe808ad1	-0.2510591
134	0xbe05fb4c	-0.13084143
135	0x3f6d8ae8	0.9279008
136	0x3f14b3e8	0.58087015
137	0x3f016e7e	0.5055922
138	0x3e61e924	0.22061592
139	0x3fb81778	1.4382162
140	0xbea9151c	-0.33023918
141	0x3fb253b7	1.3931798
142	0xbe5105f6	-0.2041243
143	0xbf464b01	-0.77458197
144	0xbb20f042	-0.0024557267
145	0xbe87bf6d	-0.26513234
146	0x3f87c321	1.0606424
147	0x3fb841e2	1.4395106
148	0x3fa44f78	1.2836752
149	0x3d28b733	0.041190337
150	0x3f8c770b	1.0973829
151	0xbd7c6372	-0.061618276
152	0x3e85aa9c	0.26106727
153	0x3dd10f14	0.10207954
154	0x3eb4e734	0.35332644
155	0xbe719af7	-0.2359427
156	0xbe2073d6	-0.15669188
157	0x3eabf11c	0.3358239
158	0xbf002406	-0.5005497
159	0x3f100d0d	0.56269914
160	0x3f8f5532	1.1197875
161	0x3e83c5c1	0.25736812
162	0x3d25fe90	0.040525973
163	0x3d0e69e3	0.03476895
164	0xbe77e047	-0.24206649
165	0x3e6df4a7	0.23237859
166	0x3ebdf181	0.37098315
167	0x3fe851d9	1.8149978
168	0x3ebd910f	0.37024733
169	0xbe16830c	-0.14698428
170	0xbeeb7cd7	-0.45993683
171	0x3fa8ec7e	1.3197172
172	0xbe8675bb	-0.26261696
173	0x3da3afd6	0.079925224
174	0x3e4e7182	0.20160487
175	0x3e96b6ff	0.2943649
176	0xbdc474b3	-0.09592571
177	0xbedf0f94	-0.43566573
178	0x3f33592e	0.7005795
179	0x3f9f81b1	1.2461454
180	0xbeb9fa44	-0.3632375
181	0x3e86ba40	0.26313972
182	0x3e9efe6d	0.31053486
183	0x3f14dd3e	0.5815009
184	0xbdd67abc	-0.104726285
185	0x3fa040dd	1.2519795
186	0x3f28368c	0.6570823
187	0x3e44011d	0.1914105
188	0x3eaeabf0	0.34115553
189	0x403f3f42	2.988236
190	0xbf4efd1d	-0.8085497
191	0xbe570d9c	-0.21001285
192	0x3d67e90f	0.056618746
193	0x3d87a8d9	0.06624002
194	0xbd51a2d4	-0.051180676
195	0x3d66b993	0.05632932
196	0xbb04b658	-0.0020250287
197	0xbe358295	-0.17725594
198	0xbdb18193	-0.086672924
199	0xbde08513	-0.10962882
200	0x3d059fa6	0.032622956
201	0x3dbc680b	0.09199532
202	0xbe43350d	-0.19063206
203	0xbdb7fad6	-0.0898339
204	0xbdf7da8f	-0.121022336
205	0x3cddb20c	0.027062438
206	0xbcd8cfe2	-0.026466314
207	0xbe568888	-0.2095052
208	0x3d2a808e	0.041626506
209	0xbdbf62ac	-0.09344992
210	0xbdf6c52c	-0.12049326
211	0xbd7e3622	-0.062063344
212	0xbde8aec8	-0.11361462
213	0xbd35572d	-0.04427259
214	0x3d9785d9	0.07398576
215	0x3b8ba1a5	0.004261213
216	0x3d09eda0	0.033673882
217	0xbd84f67a	-0.06492324
218	0x3ba497a3	0.0050229593
219	0x3ba6a47b	0.0050855256
220	0xbe1c2eaf	-0.15252183
221	0xbdfc620c	-0.123233885
222	0xbd45591d	-0.04818069
223	0xbdf336c5	-0.11875681
224	0xbd80e792	-0.062941685
225	0xbc993344	-0.018701203
226	0xbcb40a29	-0.021977501
227	0xbdfeb729	-0.12437279
228	0xbdee920e	-0.116489515
229	0xbd187baf	-0.03722733
230	0xbdabcce3	-0.083886884
231	0xbd880a78	-0.06642622
232	0xbbfee60e	-0.0077788895
233	0xbd235b91	-0.039882246
234	0xbced5acc	-0.02897396
235	0xbe287f1b	-0.16454737
236	0xbd945948	-0.072435915
237	0xbd907d75	-0.07055179
238	0x3d1aa5cd	0.037755776
239	0xbc030b3b	-0.007998283
240	0xbde8d989	-0.113696165
241	0x3d32de6d	0.043669153
242	0x3d318253	0.043337177
243	0x3d263c54	0.040584877
244	0x3cc9e8ff	0.024647234
245	0xbcc1c358	-0.023652717
246	0x3d4650d5	0.04841693
247	0xbe0373b0	-0.128371
248	0xbe17ba48	-0.14817154
249	0xbd0aa31d	-0.033846963
250	0xbe20166f	-0.15633558
251	0xbdb22b7e	-0.08699702
252	0x3cfb2596	0.03065757
253	0xbd747f74	-0.05969186
254	0xbdc815b4	-0.097697645
255	0xbda4bf1b	-0.08044263

dl1.bias f4 [64]
0	0xbe68a27f	-0.22718237
1	0xbf519a9a	-0.8187653
2	0x3e217a07	0.15769206
3	0xbd57ec1c	-0.052715406
4	0xbf01d648	-0.5071759
5	0xbf038192	-0.51369584
6	0x3df061cc	0.11737403
7	0x3cdb0c60	0.0267393
8	0xbf8a62df	-1.0811423
9	0xbd569dd7	-0.05239662
10	0x3e8d96d8	0.27654147
11	0xbf6d1743	-0.9261362
12	0x3e4807a3	0.19534163
13	0xbe7c934f	-0.24665569
14	0x3eb6fde9	0.35740593
15	0xbf49b6bd	-0.7879446
16	0xbdddcb02	-0.10829736
17	0xbdd0a925	-0.10188512
18	0xbe8e3a7e	-0.27779
19	0xbe14cee6	-0.1453205
20	0xbecdf409	-0.40225247
21	0xbe96a69a	-0.29423982
22	0x3e394c77	0.18095575
23	0xbdb8fcf3	-0.09032621
24	0x3c155fce	0.00911708
25	0xbf33102f	-0.6994657
26	0xbcf8387a	-0.030300368
27	0xbed314d5	-0.4122683
28	0xbe7fa19f	-0.24963997
29	0xbc82e677	-0.015979035
30	0xbe428e24	-0.18999535
31	0xbef21a70	-0.47285795
32	0xbdeefd72	-0.116694346
33	0xbf864d8e	-1.0492418
34	0x3e9febe2	0.31234652
35	0xbe1cfe64	-0.15331417
36	0x3c0cd80f	0.008596434
37	0xbe9661e3	-0.29371557
38	0x3c9bf615	0.01903824
39	0xbe503bd5	-0.20335324
40	0xbefb5216	-0.49086064
41	0xbdc4530a	-0.09586151
42	0xbddb9120	-0.1072104
43	0xbdf3db77	-0.11907094
44	0xbe48768c	-0.19576472
45	0xbe9460b1	-0.2898002
46	0xbe42cfa0	-0.19024515
47	0xbece3352	-0.4027353
48	0xbee6cae2	-0.45076662
49	0xbe9dd6cd	-0.30827942
50	0x3dc3d0a2	0.09561278
51	0xbec8a3a1	-0.3918734
52	0x3e5e3657	0.21700417
53	0xbdf1c571	-0.11805237
54	0xbe83eb88	-0.25765634
55	0x3ea330e3	0.31873235
56	0xbd76a851	-0.060219113
57	0xbf41ab8e	-0.75652397
58	0xbcb8b6a8	-0.022548035
59	0x3eb27d8f	0.3486142
60	0xbe195ac8	-0.14976037
61	0x3f8f43a6	1.119252
62	0x3cd1bc46	0.025602471
63	0xbe689ec8	-0.2271682

output_layer.weight f4 [45, 64]
0	0xbe0037fe	-0.1252136
1	0xbfdd87aa	-1.7307026
2	0xbff17a60	-1.8865471
3	0x3d994cd9	0.07485361
4	0xbf161a04	-0.58633447
5	0xbf2be734	-0.6714966
6	0xbed39e2b	-0.4133161
7	0x3e1a0e6a	0.15044561
8	0xbea4ef4c	-0.3221382
9	0x3de38a83	0.111104034
10	0xbea52983	-0.32258233
11	0xbe0ce328	-0.13758528
12	0xbf6c5a35	-0.92325145
13	0xbcf98e1f	-0.030463276
14	0x3e9e7ad6	0.3095309
15	0x3e2f6765	0.17129286
16	0xbd727a9f	-0.05919897
17	0xbdece1b0	-0.11566484
18	0xbf9733a9	-1.181264
19	0x3d935711	0.07194341
20	0xbe9607db	-0.29302868
21	0xbe913d44	-0.28367054
22	0xbef19212	-0.47181755
23	0xbed6c241	-0.4194508
24	0xbf59a6e8	-0.85020304
25	0x3c927aa0	0.017880738
26	0x3c832ee6	0.016013574
27	0xbda840c6	-0.082154796
28	0xbed559df	-0.4167013
29	0xbfea379c	-1.8298221
30	0x3c3f9f20	0.011695653
31	0xbf3c815e	-0.736349
32	0xbee0ef67	-0.4393265
33	0xc00a9d77	-2.165861
34	0xbf93a98f	-1.153612
35	0xbf8f2141	-1.1182023
36	0x3da78c6d	0.08181081
37	0xbfd4092b	-1.6565298
38	0xbe9e802b	-0.3095716
39	0xbda17a34	-0.078846365
40	0x3e835035	0.2564713
41	0xbf369d3a	-0.7133366
42	0xbee41695	-0.4454848
43	0x3ec7d31b	0.39028248
44	0x3e067628	0.1313101
45	0x3e2a6e35	0.16643603
46	0x3cd7abcb	0.026327034
47	0xbe34926c	-0.1763398
48	0x3c86c740	0.016452432
49	0x3dbbe528	0.091745675
50	0xbe63f270	-0.22260451
51	0x3e9de912	0.3084188
52	0xbf4dbb43	-0.80363864
53	0xbdd72f5e	-0.105070814
54	0xbf460906	-0.7735752
55	0xbf6ee0aa	-0.9331156
56	0xbf8861e4	-1.0654874
57	0xbeccdc50	-0.40011835
58	0xbe080399	-0.13282622
59	0xbf2e60ee	-0.6811665
60	0xbe517bf8	-0.20457447
61	0x3e302da4	0.1720491
62	0xbf27f446	-0.65607107
63	0xbdd07e74	-0.10180369
64	0x3bf7c016	0.00756074
65	0xc005e642	-2.0921788
66	0xc00c379b	-2.190894
67	0x3b70b79b	0.003673053
68	0xbf887463	-1.0660518
69	0xbf65fbd9	-0.89837414
70	0xbda0ec5c	-0.07857582
71	0xbf26a7bb	-0.65099686
72	0xbe8e0574	-0.27738535
73	0x3c9e1ea6	0.019301724
74	0xbf238748	-0.638783
75	0xbc1c2ecf	-0.009532644
76	0xbf574057	-0.8408255
77	0x3d9e64f4	0.07734099
78	0x3e6ed40a	0.23323074
79	0xbec1b4d0	-0.3783326
80	0xbe1ca5e6	-0.1529766
81	0xbeaa68ba	-0.33283025
82	0xbfa2e249	-1.2725307
83	0xbe135fc5	-0.14392002
84	0xbdc816fb	-0.09770008
85	0xbedfd365	-0.4371597
86	0xbdcb09c6	-0.099139735
87	0xbe80f61b	-0.25187764
88	0x3e327bc8	0.17430031
89	0x3ebaf8e9	0.36518028
90	0xbee72af8	-0.4514997
91	0x3e0471bd	0.12934013
92	0xbafd5a26	-0.0019329234
93	0xc0050ae9	-2.078791
94	0xbedb4bea	-0.42831355
95	0xbd08b9cb	-0.03338031
96	0xbf3f37cc	-0.74694514
97	0xc00238b6	-2.0347114
98	0x3db09c0f	0.08623516
99	0xbf643f5f	-0.89159197
100	0xbe910e38	-0.2833116
101	0xbfb2d357	-1.3970746
102	0xbf24672a	-0.64219916
103	0xbf72164b	-0.94565266
104	0x3e764445	0.2404948
105	0xbf6bda38	-0.9212985
106	0xbef0b147	-0.47010252
107	0x3e801e5c	0.25023162
108	0x3ced43b2	0.028962944
109	0x3e5d8590	0.21632981
110	0x3cf0070d	0.029300237
111	0xbe6f401f	-0.23364304
112	0x3d389711	0.045065943
113	0xbf0c3756	-0.54771936
114	0xbee377d6	-0.44427365
115	0xbcb8909a	-0.022529889
116	0xbf036639	-0.51327854
117	0xbe06c657	-0.13161598
118	0xbf4eb865	-0.80750114
119	0x3db647e3	0.0890043
120	0xbfa2b32a	-1.2710927
121	0x3de9c2e9	0.11414129
122	0x3ddb80a0	0.10717893
123	0x3e2bef16	0.16790423
124	0x3da07fe1	0.07836891
125	0x3e5e89d2	0.21732262
126	0xbf0e3cf7	-0.55561775
127	0xbd082b84	-0.033244625
128	0xbef1a966	-0.47199553
129	0xbfba84df	-1.4571799
130	0xc0173e28	-2.3631687
131	0xbda47622	-0.080303445
132	0xbe76c68b	-0.24099176
133	0xbf47726d	-0.77908975
134	0xbf6f3097	-0.9343352
135	0xbdfe46d8	-0.12415856
136	0xbf166dcb	-0.5876128
137	0xbd76cf6d	-0.06025641
138	0x3e4f5126	0.202458
139	0xbeccd490	-0.40005922
140	0x3d922596	0.07136075
141	0xbd7ca880	-0.06168413
142	0x3e832c35	0.25619665
143	0x3e5db5d2	0.2165139
144	0xbf27a910	-0.65492344
145	0x3d04ce1f	0.032423135
146	0xbfa2109f	-1.2661322
147	0xbe8f98e1	-0.28046325
148	0x3dafc573	0.08582582
149	0xbe5f1bb3	-0.2178791
150	0xbda316cb	-0.07963332
151	0xbf0a9be5	-0.54144126
152	0xbf6ca4a8	-0.92438745
153	0x3e6ea509	0.23305143
154	0xbe9e3d81	-0.309063
155	0xbe0d39c7	-0.13791572
156	0xbec268b3	-0.37970504
157	0xbfe8317a	-1.8140099
158	0xbf420cd3	-0.7580082
159	0xbf739a1a	-0.95157015
160	0xbf4066a1	-0.751566
161	0xc0035347	-2.0519578
162	0xbefb863a	-0.49125844
163	0xbf47490a	-0.77845824
164	0xbefeb2b1	-0.49745706
165	0xbfd4d2dc	-1.6626849
166	0xbf3e4709	-0.7432714
167	0xbf592de3	-0.8483564
168	0xbebe6f58	-0.37194324
169	0xbe6bdd3d	-0.23033614
170	0xbc458b1d	-0.012057093
171	0x3e8903be	0.26760668
172	0x3d9d65a8	0.07685405
173	0x3e2c5ff4	0.16833478
174	0x3dd0e77d	0.10200403
175	0xbec8a5c2	-0.39188963
176	0xbdb2f137	-0.08737414
177	0xbe154611	-0.1457751
178	0x3d285d1c	0.04110442
179	0xbe8c17d1	-0.2736192
180	0xbf6adf3e	-0.9174689
181	0x3e5b2887	0.21402179
182	0x3e79d593	0.24397878
183	0xbf11c810	-0.56945896
184	0xbf5c2b58	-0.8600364
185	0x3d7c63b0	0.061618507
186	0x3b11008b	0.0022125568
187	0xbf690c64	-0.9103453
188	0xbb487042	-0.003058449
189	0x3e2eeac9	0.17081751
190	0xbf34e3f8	-0.7066035
191	0x3c2ba6c2	0.01047677
192	0xbe22caca	-0.1589767
193	0xbfe8f1c1	-1.8198777
194	0xc00cc993	-2.199803
195	0x3dcd7abb	0.100331746
196	0xbf33d269	-0.70242935
197	0xbf9a192b	-1.2038931
198	0xbece20f6	-0.40259522
199	0xbf4e3dfd	-0.80563337
200	0xbef3e4f2	-0.4763561
201	0x3de38ff8	0.11111444
202	0x3d0228bc	0.03177713
203	0xbdca771f	-0.09886002
204	0xbe242f55	-0.1603368
205	0xbdbd89ac	-0.092547745
206	0x3e9c9f86	0.30590457
207	0xbc7ca08d	-0.015419138
208	0xbf14720e	-0.57986534
209	0xbe032e9c	-0.12810749
210	0xbfb0b9f5	-1.380675
211	0x3e929f58	0.28637195
212	0x3d8abff5	0.06774894
213	0xbf0212a1	-0.50809675
214	0xbf0abc66	-0.54193723
215	0xbe9983a2	-0.2998324
216	0xbf5bdc1d	-0.8588274
217	0xbeaad24e	-0.33363575
218	0xbed80fe2	-0.42199618
219	0x3e45a143	0.19299798
220	0x3d67d4b9	0.056599353
221	0xbfe805a2	-1.8126719
222	0xbe72b0a2	-0.23700193
223	0xbf59c027	-0.85058826
224	0xbf5dc485	-0.8662799
225	0xc0010fc5	-2.0165875
226	0xbc86b534	-0.016443826
227	0xbf24dd55	-0.64400226
228	0xbeb936a1	-0.3617449
229	0xbfa0bb08	-1.2557077
230	0xbf846652	-1.0343726
231	0xbf68e699	-0.90976864
232	0xba389e59	-0.00070426386
233	0xbf4b954a	-0.7952467
234	0xbea6b354	-0.32558692
235	0x3e14b2ff	0.14521407
236	0xbda48f1e	-0.0803511
237	0xbe116b1c	-0.14201015
238	0x3dd4e877	0.10395902
239	0xbeada070	-0.33911467
240	0xbe0880bd	-0.1333036
241	0x3ea499b9	0.3214853
242	0x3dbdefea	0.092742756
243	0xbea5d339	-0.32387713
244	0xbed4f4f6	-0.4159314
245	0xbd36d5f9	-0.044637654
246	0xbef94551	-0.48685697
247	0xbdf4bc8f	-0.11950027
248	0xbf89d632	-1.0768492
249	0xbdafd865	-0.08586196
250	0xbd143fd3	-0.03619368
251	0xbf030884	-0.5118487
252	0x3d07df39	0.033171866
253	0x3e654e2a	0.22393098
254	0xbf9fe817	-1.2492703
255	0xbd851aa4	-0.06499222

output_layer.bias f4 [45]
0	0x3eaafcc3	0.33395967
1	0x3ed9c905	0.42536178
2	0x3f0efb68	0.55852365
3	0x3e9fdf4a	0.31225044
4	0x3f42b42f	0.7605619
5	0x3f058081	0.52149206
6	0x3f11509c	0.56763625
7	0x3ec43c54	0.38327277
8	0x3f013022	0.5046407
9	0x3ed7f03c	0.42175472
10	0x3f0b2566	0.5435394
11	0x3e96e9f3	0.29475364
12	0x3ea7cc76	0.3277318
13	0x3f48872c	0.78331256
14	0x3ed6dc87	0.41965124
15	0x3f2305df	0.63680834
16	0x3ea14bdc	0.3150319
17	0x3f44846e	0.7676457
18	0x3e8d8625	0.27641407
19	0x3f055659	0.5208488
20	0x3f443f14	0.7665875
21	0x3f0b2f35	0.5436891
22	0x3f7fc287	0.999062
23	0x3f21e43b	0.6323888
24	0x3f1ac90b	0.6046302
25	0x3eda9aff	0.42696378
26	0x3f03f6df	0.5154857
27	0x3f0efb4b	0.5585219
28	0x3f288966	0.65834653
29	0x3f01ff08	0.5077977
30	0x3f15bc62	0.58490574
31	0x3f86c514	1.0528893
32	0x3f324371	0.6963416
33	0x3f4f6226	0.8100914
34	0x3f12369e	0.5711459
35	0x3f6c282b	0.9224879
36	0x3ed71296	0.42006367
37	0x3f277c91	0.6542445
38	0x3f19cfe2	0.6008283
39	0x3f221b4c	0.633229
40	0x3f21b2a0	0.63163185
41	0x3f4be35f	0.79643816
42	0x3f4bb88d	0.7957848
43	0x3f24a50d	0.6431435
44	0x3f5727e7	0.8404526
