model/model_player1_backup.pth (torch, 153807 bytes, 8 tensors)

linear1.weight f4 [64, 28]
000000 38 73 ab 3c a5 10 a7 bd 56 f3 a7 bd 38 21 8c bd
       0.020928964 -0.081574716 -0.082007095 -0.068422735
000010 26 df ee 3d b5 f2 ae bd e0 f8 19 3c 94 1c c5 3c
       0.11663656 -0.085423864 0.009397715 0.024061479
000020 32 94 b4 3d 02 f5 92 bd c0 c6 ac 3b 94 35 4b be
       0.088173285 -0.07175638 0.0052727163 -0.19844657
000030 fa d9 bd 3d 76 1f 7f bd 6d 6e 35 3e ee 31 1d be
       0.09270091 -0.062285863 0.17717905 -0.15351078
000040 50 3c 3f be e3 a0 e3 bd 74 df 43 3e ba 94 67 3e
       -0.18675351 -0.11114671 0.1912821 0.22615328
000050 e5 82 6c 3d 6b e5 b2 3c e5 78 3a bd a9 9a a8 3c
       0.05774202 0.02183791 -0.04552545 0.02058156
000060 67 a3 06 be cf 18 92 3c 78 e1 2e be b3 a0 d6 be
       -0.1314827 0.017834095 -0.17078197 -0.4191948
000070 90 c4 2e be 57 8a 6b bd 8a 64 a7 3d 91 c9 f3 bc
       -0.1706717 -0.057504978 0.08173473 -0.0297592
000080 f6 9c 1e be 32 93 8e be fb d1 1a 3e 7b 6e 95 bd
       -0.15489563 -0.27846676 0.15119164 -0.07296463
000090 69 29 41 3e 62 a6 c0 bd fe 4d d5 3d ab 9e b9 be
       0.18863453 -0.09406735 0.104152665 -0.36253867
0000a0 7e bd 89 3d b3 6d 24 bd a7 1f 96 bd d8 a2 e9 be
       0.06725596 -0.04014368 -0.07330256 -0.45632052
0000b0 51 3a 21 be d4 de 5c be bb 56 34 bf 78 8e 8f bf
       -0.15744902 -0.21569377 -0.7044484 -1.1215353
0000c0 4a 94 07 bf 51 92 41 bf 7c df 3e bf c9 de 09 3f
       -0.52960646 -0.75613886 -0.7455976 0.5385557
0000d0 ab 87 50 3e 8a 5d d8 3e ad 57 15 3f cd c5 57 3e
       0.20364253 0.42258865 0.5833691 0.21071549
0000e0 f0 1f f3 3c e0 b9 9c bb 85 5c 1d 3e 7c 1a b2 be
       0.029678315 -0.0047829 0.15367325 -0.3478583
0000f0 a0 0c 64 bd a4 d9 56 bc 7a 8c 3b be a0 bf 64 be
       -0.055676103 -0.013113413 -0.18315306 -0.22338724
000100 4a b8 d2 3d ee 68 a2 bd 1f 50 31 3e 4e 84 b4 be
       0.102890566 -0.0793017 0.1731572 -0.3525719
000110 a6 12 c5 bd 88 95 2a bd 65 2f 1f 3e 2f 9d 50 be
       -0.096226975 -0.04164651 0.15545423 -0.20372461
000120 4c 7e b4 bd c3 71 29 bd 2e 8c 07 bf 91 6a 79 be
       -0.08813152 -0.041368257 -0.5294827 -0.24357058
000130 91 7d 69 be 47 41 cb be 9b 33 e0 bd c9 3b 0a bb
       -0.22801806 -0.3969824 -0.10947343 -0.0021092764
000140 31 76 2e bf ec 56 e8 3d 8f 91 21 3e b8 28 f1 3e
       -0.68149096 0.11344704 0.15778182 0.47101378
000150 88 f5 cb bc a7 ce 47 3d 70 46 fb bc c5 9e 72 bd
       -0.024897352 0.048781063 -0.030673236 -0.059233446
000160 86 d3 ba 3d 63 ad d2 bc 07 87 09 3e 50 20 b1 bd
       0.09122376 -0.025717443 0.13430415 -0.08648741
000170 ed 3e 3b 3e e9 54 6c be 47 35 2d 3e 82 5b 78 bd
       0.18285723 -0.23079266 0.16914855 -0.060634144
000180 55 31 23 3e 89 10 7f bd ef b2 1c be 5d e2 81 bd
       0.15936787 -0.06227163 -0.15302633 -0.063420035
000190 e2 d4 cb 3d 90 b1 ab bd f0 1a ad 3e e3 3d de 3d
       0.099527135 -0.08383477 0.33809614 0.10851648
0001a0 e1 0a 21 3e d5 b0 ff 3d 6d 2e 1a 3e c1 5e db be
       0.15726806 0.124849 0.15056773 -0.4284573
0001b0 ce b8 ac be b0 ea 3d be e7 88 a5 be 0e 03 96 be
       -0.33734745 -0.18546557 -0.3233101 -0.29299206
0001c0 8a 3b 3d be 7d 97 82 be 07 bc 00 3e 1c 86 2e bc
       -0.18479744 -0.255062 0.12571727 -0.010652091
0001d0 18 7e 74 3d ca 98 41 bd 55 84 ad bd 4c 1a 52 be
       0.059690565 -0.04726485 -0.08472506 -0.20517844
0001e0 40 99 61 3c 6d 1a 25 be a8 ec 25 be 14 97 05 be
       0.013769448 -0.16123362 -0.16203558 -0.13045913
0001f0 74 80 42 3d 96 bb 95 3c 1c 85 58 bd 41 0f 8b bd
       0.047485784 0.018277925 -0.052861318 -0.06790019
000200 c8 b0 75 bd b9 82 3c bd eb 9b 3f be 88 4b 61 3c
       -0.059983045 -0.046023104 -0.18711822 0.013750918
000210 41 4f 0c 3c 73 21 21 be 4c 8d e7 bc 1b 38 41 be
       0.0085638175 -0.15735416 -0.028265618 -0.18869059
000220 9b 7d 98 be 6f 2f 31 3a 96 23 bc bd 9a 46 62 be
       -0.2978333 0.00067590823 -0.09186475 -0.22097245
000230 59 aa 0d 3e bd 45 5e be 94 99 29 bd a8 30 c9 ba
       0.13834514 -0.2170629 -0.04140623 -0.0015349584
000240 14 75 01 be d0 82 8f bd ff 97 22 3e 8a 19 0c be
       -0.12642318 -0.070073724 0.15878294 -0.13681617
000250 2b 66 01 3e 2c 5e e9 3d 35 c5 2f 3e b4 13 42 be
       0.1263663 0.11394915 0.17165072 -0.18952829
000260 be 87 33 be c5 df b9 be 16 b7 a1 bd 57 75 9b bd
       -0.1753225 -0.36303535 -0.07896249 -0.0759074
000270 2b 1a 39 3e 3c e3 93 be 5d 46 3a bf 94 59 80 bf
       0.18076389 -0.28884304 -0.72763616 -1.0027337
000280 3f 56 39 bf 8a 79 28 bf f4 52 ca be 6c 89 24 be
       -0.72397226 -0.65810454 -0.39516413 -0.16068047
000290 13 c1 08 3d 92 f4 7c 3d 7f ab bf 3e 04 39 c9 3d
       0.033387255 0.061756678 0.3743553 0.09825328
0002a0 6b 8e 1a be e1 91 1d be 3f f6 fa bd a2 d7 06 be
       -0.1509339 -0.1538768 -0.12253999 -0.13168195
0002b0 45 f0 09 3e 87 bd 98 be 7f ed 2c be 61 76 fc bd
       0.13470562 -0.29832098 -0.16887473 -0.123272665
0002c0 a6 0b 98 3d ae e9 d4 bd 82 2f 10 be d6 20 8d bd
       0.07424097 -0.10396133 -0.14080623 -0.068910286
0002d0 62 2e c4 bd bc 99 62 bd 20 89 ef bb 82 a0 83 be
       -0.09579159 -0.055322394 -0.0073100477 -0.25708395
0002e0 2a fc 9a 3d 53 29 dd bc f8 b8 3e be 57 c9 8a be
       0.07567628 -0.026997244 -0.18625247 -0.27106735
0002f0 1a 05 1e 3d ae 73 9b bd 2e 09 12 be 93 d0 3f bd
       0.038579084 -0.075904235 -0.14261314 -0.04682977
000300 31 b0 1b be 03 d1 d7 bc 8a 54 ec bc bf f8 f8 3d
       -0.1520393 -0.026344782 -0.028848905 0.121568196
000310 92 6b c1 3d c8 01 98 bd 1d 98 32 3e 40 7a b5 bd
       0.094443455 -0.07422215 0.17440839 -0.08861208
000320 b5 61 10 3e a2 eb 94 bd d4 2b 4c bd 57 bd cd bc
       0.14099772 -0.07271506 -0.049846485 -0.025114698
000330 7a 6b ff 3d f7 00 95 bd 60 42 13 be bb 98 2b bd
       0.124716714 -0.07275575 -0.14380789 -0.041893702
000340 e1 04 e3 bd 63 d7 3f 3c 42 df ca 3d d7 40 8d bd
       -0.11084915 0.011709067 0.09905864 -0.06897133
000350 0e c1 f4 3d 0f 99 06 be c6 51 b1 be 38 bf 29 be
       0.11950885 -0.13144325 -0.346327 -0.1657685
000360 35 07 7a be 11 ef 25 be 92 f8 65 3d 41 2b e3 b9
       -0.24416812 -0.16204478 0.05614526 -0.0004332904
000370 bd b9 30 3c e5 db 1d 3d 29 4f 21 be d7 61 97 3c
       0.010786471 0.038539786 -0.15752853 0.01847927
000380 e3 46 11 3e 10 f4 e3 3c fa 25 13 be 3f bb d2 bc
       0.14187197 0.027826339 -0.14369956 -0.025724052
000390 d7 ad b2 bd a1 9f 6b bd ff 48 32 3e f6 bf fc bd
       -0.087245636 -0.05752528 0.17410658 -0.12341301
0003a0 14 a9 73 bd 7d 5a b0 bd 3b f6 24 be ce d6 af be
       -0.059487417 -0.08611009 -0.16109554 -0.3434357
0003b0 2c db 29 be af c9 36 be 0c 36 8b bd ac e5 2a bd
       -0.16587514 -0.17850374 -0.06797418 -0.04172294
0003c0 30 97 c1 bc f2 d2 6f be 8d 9b c8 bb d8 57 9d 3d
       -0.023631662 -0.23420313 -0.0061220587 0.076827705
0003d0 51 63 28 be 04 21 91 bd 2c fd b0 bd 60 4c 07 bf
       -0.16444136 -0.07086375 -0.08642039 -0.52850914
0003e0 99 59 05 be 75 03 16 be 49 58 00 be 48 f2 65 be
       -0.1302246 -0.14649756 -0.12533678 -0.22455704
0003f0 1c 0a 11 be a8 f5 1d be 6d d1 3b be d4 e5 15 be
       -0.14164013 -0.15425742 -0.18341608 -0.14638454

linear1.bias f4 [64]
000000 5d 63 a6 be c3 90 2e be 35 58 e8 be fd fe 8c be
       -0.32497683 -0.1704741 -0.45379797 -0.2753829
000010 7a 01 6e be ce 97 9e be 2e 09 b5 3c cb d3 8f bc
       -0.23242751 -0.30975193 0.022099104 -0.017557045
000020 3a 7c 45 be f9 db d1 3d 43 38 4e 3f 1f 10 62 be
       -0.1928567 0.102470346 0.805546 -0.22076462
000030 d0 c1 72 be 87 7b 1f be 90 bd 57 be 89 bd a3 be
       -0.23706746 -0.15574466 -0.21068406 -0.3198054
000040 4b e7 b7 bc 6f 4f 1e 3f 51 66 ac be f3 f9 e1 be
       -0.022449156 0.61839956 -0.3367181 -0.4413601
000050 74 37 75 be 1c 10 2b be ad 3f f8 bd 28 da b9 bd
       -0.23946935 -0.16705364 -0.1212152 -0.09074813
000060 d4 e9 3f be a6 5c 2e bf 66 37 84 3d 46 0e bc bd
       -0.18741542 -0.6811012 0.06455879 -0.0918241
000070 82 45 d2 be 4b da 7a 3c f1 5f 7e be cb f6 0c be
       -0.41068655 0.015310834 -0.24841286 -0.13766019
000080 f4 3a de 3e ab 1d 1b be 44 06 44 3d fc 73 87 bd
       0.43404353 -0.15148036 0.047857538 -0.06613919
000090 ed 28 6b be 76 64 7a be c4 af de bd eb 56 94 be
       -0.2296483 -0.24452385 -0.108733684 -0.28972563
0000a0 e8 65 76 bd 90 c6 02 be 59 65 0f be fd 40 e4 be
       -0.06015578 -0.12771058 -0.14003505 -0.44580832
0000b0 99 e9 2b be 10 ae ed bd d3 e0 43 be c5 1c fa 3c
       -0.16788329 -0.116054654 -0.19128732 0.030531297
0000c0 20 85 83 be 24 a9 28 be c9 7f 59 be 63 d0 15 c1
       -0.25687504 -0.16470772 -0.21240152 -9.363376
0000d0 9b 09 49 bd 2e 2e fd 3d ce 13 8d be 17 f8 0b be
       -0.049081426 0.12362324 -0.27554172 -0.13668858
0000e0 f9 30 8d be 38 84 5f be d9 86 d1 3f ab 93 65 be
       -0.27576426 -0.21827781 1.6369277 -0.22419612
0000f0 41 d7 8a bd 31 f1 a0 bd 4f e7 a0 bd a1 a3 af bf
       -0.06779338 -0.078585036 -0.078566186 -1.372181

linear2.weight f4 [256, 64]
000000 ee 76 3a bd dd f1 a5 3c 02 9b 0f 3d a2 36 4b 3e
       -0.045523576 0.020256931 0.035059936 0.1984506
000010 ac 88 8a 3d 6f 4c 6c 3d 22 24 4a 3d b0 59 da bd
       0.06764349 0.05769008 0.049350865 -0.10661638
000020 96 f8 78 bd 3c 98 ed 3d 3d 51 45 be bc b2 3e bc
       -0.060783945 0.11601302 -0.19269271 -0.011639293
000030 02 07 d6 bd 54 9e c3 3d bb d4 33 3d 85 3b 58 bd
       -0.104505554 0.09551683 0.043904047 -0.052791137
000040 0b 47 1c be f5 be a9 3c ce 51 dc 3c 99 6c e7 bd
       -0.15261476 0.020720938 0.026894476 -0.1130001
000050 79 ba fa 3c 3f 87 56 be bc da e3 3c 22 06 d3 3d
       0.030606495 -0.2095003 0.027814262 0.10303904
000060 ef 7e 18 bd 5c d3 08 be bb e2 be bd 12 43 09 bd
       -0.03723043 -0.13361877 -0.09320589 -0.03351123
000070 cd fc 94 3d c5 32 3a be 08 7d a6 3d de 98 c4 3d
       0.072747804 -0.1818343 0.081293166 0.095994696
000080 f3 49 a9 3c a2 5b b5 3d 23 c4 13 be 41 59 ff bc
       0.020665145 0.08855368 -0.14430289 -0.03117049
000090 16 99 d4 bd 7b cb 81 3c ef f0 cf 3c ad 94 4c bd
       -0.10380761 0.015844097 0.02538344 -0.049946476
0000a0 12 4b 14 be df 37 d1 3c f7 65 69 3d 71 cd 30 3d
       -0.14481762 0.025539337 0.056982007 0.043164674
0000b0 0a 70 3d bc 1d b0 2a be bc 50 45 bc 4e 30 ca bd
       -0.011562357 -0.16668744 -0.012043174 -0.09872495
0000c0 d2 22 45 be 8d 11 04 be 0c b1 50 bd 86 77 68 bd
       -0.19251564 -0.1289732 -0.050950095 -0.05675461
0000d0 03 db 17 3d 9e dc 8d 3c 09 73 9d 3d fb 4e de 3b
       0.0370741 0.017317113 0.07687957 0.0067843175
0000e0 90 d9 63 bd 34 2c 25 3c 2c 15 07 3c b8 28 ec bd
       -0.055627406 0.01008134 0.008244794 -0.11531204
0000f0 8e 07 f4 bb 15 1d a1 3c 16 ed 5a 3d 0e a9 73 bd
       -0.0074471897 0.019667188 0.05344876 -0.059487395
000100 0a 3d ac 3d 8b 26 e8 bd 41 88 3a 3d fc cb b0 3c
       0.0841008 -0.113354765 0.045540098 0.021581642
000110 25 2c 90 bd f8 a4 92 bd 74 cc 97 bb d4 c9 d8 3c
       -0.0703967 -0.071603715 -0.004632527 0.026463427
000120 46 a5 c5 bd f2 26 ca 3d 70 df 01 be 75 f9 e7 3d
       -0.09650664 0.098707095 -0.12682891 0.11326877
000130 38 42 cc bd b2 b9 4b 3d 89 60 18 bd 85 4c dc 3b
       -0.09973568 0.04973764 -0.037201438 0.006722989
000140 69 d9 1d be 93 8f 24 bd 62 3e c4 bd 4e 3b ac 3d
       -0.15414967 -0.040175986 -0.09582211 0.08409749
000150 f7 bf c2 bc 25 d9 9f 3d 66 f7 7e bd f9 f5 95 bd
       -0.023773177 0.07805089 -0.062247656 -0.07322306
000160 4a 71 fd bd 02 f6 e4 bd 3f f6 b9 bd 7c 6e cb bd
       -0.12375124 -0.11179735 -0.09080171 -0.099331826
000170 1e f3 81 bd 54 ef eb bd 2e ee 9d 3c b0 79 ce bc
       -0.06345199 -0.115202576 0.019278612 -0.02520451
000180 70 e5 70 bd 97 c0 6e 3d 45 ca 9b 3d 0b a2 b4 bd
       -0.05881256 0.058289137 0.07606939 -0.0881997
000190 f0 ab d0 3d d7 12 03 be e7 ec 6e 3d 57 7c 78 3d
       0.101890445 -0.12800156 0.058331396 0.060665455
0001a0 09 9c a8 bd 4e 08 30 3d 68 24 08 bd 9e 59 d8 bc
       -0.08232886 0.04297667 -0.033237845 -0.02640992
0001b0 e8 be c3 3d e2 75 81 bd ad 7c 0d 3d cb 00 8c bc
       0.09557897 -0.063213125 0.03454273 -0.017090222
0001c0 da 59 92 3c a6 df be 3b 6f a1 50 bd 68 2b 28 bd
       0.01786511 0.005825001 -0.050935205 -0.04105702
0001d0 08 1a 23 bd 3a 6e ca bd e6 9e e4 bd f1 fb 87 bc
       -0.039819747 -0.09884305 -0.1116312 -0.016599627
0001e0 7b e7 4d 3d 52 e2 9c bc 2d e3 56 3c c9 a2 68 bb
       0.050269585 -0.019150887 0.013115686 -0.0035497418
0001f0 48 f4 82 bc 32 9a 36 bc 32 60 09 bd 91 2f c2 3c
       -0.015985623 -0.011145161 -0.033539005 0.023704322
000200 5c 23 c0 be 4e 80 a1 3c d9 6b af bd 36 32 04 3d
       -0.37526977 0.0197145 -0.08565492 0.032274447
000210 8d eb 22 3d a6 28 f5 3d f0 02 b6 3d 41 5f 62 3c
       0.03977542 0.11970644 0.08887279 0.013816656
000220 a8 e6 84 3d 66 89 a2 bd 2c ea a9 be 8c 9b 23 3e
       0.06489307 -0.07936363 -0.3318647 0.15977305
000230 94 e5 75 3d 4f 1a 98 3d 96 59 f1 bc f4 2a 27 be
       0.060033396 0.07426893 -0.029461663 -0.16324979
000240 81 04 ac 3c 09 e0 37 be 9d b0 e8 bd 7b ee 9c 3d
       0.020998241 -0.17956556 -0.11361811 0.07662674
000250 43 a8 a6 bd a5 dc e5 bd 0d 2f 74 bd 06 2f b4 3d
       -0.08137562 -0.11223725 -0.059615184 0.087980315
000260 e2 b4 c0 3d 0e 25 83 bd 53 2f da be 72 1b 27 bd
       0.09409501 -0.06403552 -0.4261423 -0.04079766
000270 ef a6 7c be af 9d 7c 3e 94 50 01 3c 70 49 73 3d
       -0.24673055 0.24669527 0.0078927465 0.059396207
000280 fe 9f 8b bd fe 81 ed bb dd bd 16 be 18 c0 0d 3e
       -0.068176255 -0.0072481623 -0.14720865 0.13842809
000290 06 63 af bc dc 4a c2 3c 51 9b a6 be d8 91 f5 bd
       -0.021409523 0.023717336 -0.32540372 -0.11990708
0002a0 a8 9b 09 be c5 a1 32 38 36 b0 a1 bc bc 30 ba bd
       -0.13438284 4.2589167e-05 -0.019737344 -0.090913266
0002b0 78 78 a0 bc 1c cc af 3d dd bc 89 bc f7 7f 43 be
       -0.019588694 0.08583853 -0.01681369 -0.19091783
0002c0 0d bc 25 3d fc 3e 80 3d 48 8e 07 3e 78 12 85 3c
       0.040462542 0.06262013 0.1323787 0.016244158
0002d0 41 f1 0c 3d 8c 8d cd bd cc 9e 8a b8 2b af c6 bd
       0.034409765 -0.100367635 -6.609931e-05 -0.097013794
0002e0 a3 50 c0 3d 6d ee c5 be ba a5 84 bc 75 f4 23 bb
       0.0939038 -0.38658467 -0.016192306 -0.0025017534
0002f0 2a 61 54 bd 07 83 3d 3d 78 1f 94 bc c4 b6 3d bf
       -0.051850475 0.046267536 -0.018081412 -0.74107003
000300 08 99 1c 3d 59 e5 9a 3d 43 bc b6 3d 44 2d fe 3a
       0.03823188 0.07563276 0.08922627 0.0019392152
000310 2c ec 2e 3d f4 07 39 3d a8 5f 7a 3d 19 33 8b bd
       0.0427057 0.0451736 0.06112638 -0.067968555
000320 d3 5b aa 3b ea f4 8a 3d 95 c8 06 bd 05 1e 01 3d
       0.0051989346 0.06784995 -0.032906134 0.03152277
000330 62 cc d6 3d 8e 48 12 bd 5b dc 08 be 4f 70 ec bb
       0.10488202 -0.035713725 -0.13365309 -0.0072155367
000340 ba f5 5d bd 6d 1a ee bc 70 cf b5 bc 9a 75 78 bd
       -0.05418942 -0.029065335 -0.02219364 -0.06065903
000350 43 93 cc bc cb b2 c3 bd 95 d0 36 bd f0 fd fa bd
       -0.024972564 -0.095555864 -0.044632513 -0.12255466
000360 e5 09 ec 3c de 5b d2 bd 74 cd 65 bd a1 af 5b 3c
       0.028813312 -0.102714285 -0.05610414 0.013408572
000370 06 01 5e bd 7e 28 81 bd a3 1e d2 bd f8 22 a1 3c
       -0.054200195 -0.063065514 -0.1025975 0.019669995
000380 39 ea 24 bd 3d 41 93 3b b2 ea ec bd 5c 9c d1 3c
       -0.040262435 0.004493861 -0.11568202 0.025587253
000390 4c 38 6e 3d 9a 3c b9 bd 1a 47 fc 3d 97 56 42 3d
       0.058159158 -0.09044762 0.12318249 0.04744586
0003a0 59 ec cc 3c 94 4b 86 3d 07 94 ce 3d cc a3 90 bd
       0.025015043 0.06557384 0.10086828 -0.07062492
0003b0 42 30 eb 3d cd 87 d7 bd b7 6d 61 3d de 57 40 bd
       0.11483814 -0.10523949 0.055036273 -0.046958797
0003c0 6a 09 c1 bd 2d ca 84 bd 59 66 f2 3c cd 2a ab bd
       -0.09425624 -0.064838745 0.029589819 -0.08357773
0003d0 48 09 64 bd 87 92 8e bd bc 35 13 3d 17 1e d5 bd
       -0.055672914 -0.069615416 0.035939917 -0.1040613
0003e0 6c 0c 1a bd 4a 10 8f bc bd 9d 00 3d 83 1e 13 bc
       -0.037609503 -0.017463822 0.03140043 -0.0089794425
0003f0 72 07 94 3c 0f 20 c9 bd dc fd f9 3c 13 33 ac bd
       0.018069956 -0.09820568 0.030516557 -0.08408179

linear2.bias f4 [256]
000000 48 73 59 be 39 e2 d2 bd 88 23 78 be 14 ad 30 be
       -0.21235383 -0.10297055 -0.24232304 -0.17253524
000010 38 a5 e9 bd 61 52 37 be 2d 64 7c bd b1 4d 4f be
       -0.11408466 -0.17902519 -0.061618973 -0.2024448
000020 30 19 32 be bb df 1f be 53 46 2c be b1 ff 7f be
       -0.17392421 -0.1561269 -0.16823702 -0.24999882
000030 2f 13 18 be 19 bd 35 be 29 cc 11 be 28 98 bf bd
       -0.14851068 -0.17747916 -0.14238037 -0.093551934
000040 41 7e cb bd f1 97 ee bd 05 46 8d be 83 51 75 be
       -0.099361904 -0.11650074 -0.27592483 -0.23956876
000050 1c f0 5e bd 80 1a 72 be 09 64 78 be 11 a2 e3 bd
       -0.054428205 -0.23642921 -0.2425691 -0.11114896
000060 0b f2 a5 bd 11 92 33 be 4d 78 f9 bd 52 bb 3d be
       -0.08102807 -0.17536189 -0.12181149 -0.18528488
000070 be 44 27 bd 4a dc 5e be e8 08 4d be a2 78 41 be
       -0.040837042 -0.21763721 -0.20022929 -0.18893674
000080 26 f5 52 be 76 3d 85 be 05 70 7e be 64 e8 d7 bd
       -0.20601329 -0.26023453 -0.2484742 -0.10542372
000090 bc 40 1f be 79 37 20 be cc 81 6a bb 0c 75 68 be
       -0.15552038 -0.15646161 -0.0035782931 -0.227009
0000a0 61 f6 3f be 06 53 df bd cf aa 16 be b8 2b 21 be
       -0.1874633 -0.10904507 -0.14713596 -0.15739334
0000b0 10 7c b4 bd 46 c8 15 3f 21 f9 d0 bd ff ee 09 be
       -0.088127255 0.5850872 -0.102037676 -0.13470076
0000c0 27 06 2e be 07 d4 14 be 33 97 17 be e9 f0 88 bd
       -0.16994534 -0.14534007 -0.14803772 -0.06686575
0000d0 7c a2 34 be 8d 15 41 be 93 f9 34 bd 3f 3f 40 be
       -0.17640108 -0.18855877 -0.044183325 -0.18774126
0000e0 c3 df 17 be 5e 58 3b be 7f 66 f9 3e d4 82 2f be
       -0.14831452 -0.18295428 0.4871101 -0.1713975
0000f0 90 63 82 be 29 a3 a0 bb f6 d9 ad bd 2e ed 76 bd
       -0.25466585 -0.0049022627 -0.084888384 -0.060284786
000100 e7 5f 41 be 8a 0d 08 be bd e7 06 be a1 e9 12 bd
       -0.1888424 -0.13286415 -0.13174339 -0.035867337
000110 6e f2 63 be a5 52 a3 bd f0 78 1a be 83 3c ea bd
       -0.22260448 -0.079747476 -0.15085196 -0.11437323
000120 6b 0e b2 bc 64 9d 61 bd fe 50 ca bd c1 9b bb bd
       -0.02173539 -0.05508174 -0.09878729 -0.09160567
000130 97 cb 26 be 4a e3 b5 bd 1d 88 f1 bd 27 7b d0 bd
       -0.16288601 -0.088812426 -0.1179354 -0.101797394
000140 cd 1b 0d bd 02 97 23 be 3c 1b 42 be 1c 48 32 be
       -0.03445034 -0.15975574 -0.18955702 -0.1741032
000150 ad f3 92 bc 90 54 ab bd 83 ac 86 bd c7 3a 27 be
       -0.01793846 -0.083657384 -0.06575873 -0.16331016
000160 c0 20 88 be 95 6b 23 be da d1 0d be bc 49 42 be
       -0.26587486 -0.15959008 -0.13849583 -0.1897344
000170 4e 9c 8b be ff 03 d5 bd 88 da e1 be 6c 46 f2 bd
       -0.2726769 -0.10401153 -0.4411204 -0.11829838
000180 6c c4 00 be b8 7b b8 3e f7 78 f7 bd 50 31 29 be
       -0.12574929 0.3603189 -0.12083619 -0.16522717
000190 ba 12 dd bd 0a 9e 7b be b8 14 2c be 8d 46 ec be
       -0.107945874 -0.24572006 -0.16804779 -0.46147576
0001a0 75 97 22 bc 20 ae 51 bd 15 2f 0f be 1b 2a fc bd
       -0.0099238055 -0.05119145 -0.13982804 -0.123127185
0001b0 f7 0c 4e be b8 f9 38 be c3 cb 63 be 7d a3 0e be
       -0.20122133 -0.1806401 -0.22245698 -0.13929553
0001c0 ce 0a a8 bb 58 65 30 be 0c ba 47 be dd f4 17 bb
       -0.005128241 -0.1722616 -0.19504565 -0.0023186721
0001d0 3a cc 34 be c2 12 b6 bd e0 28 3a be e5 bb 9a bd
       -0.17656031 -0.088902965 -0.18179655 -0.07555369
0001e0 88 66 cf bd 28 93 17 be 4d 42 f7 be fb 56 13 be
       -0.10126978 -0.1480223 -0.4829277 -0.14388649
0001f0 cc 20 40 be 2a ab f0 bd 8d 30 22 be 30 fa c6 bd
       -0.18762511 -0.11751397 -0.15838833 -0.09715688
000200 c1 65 1e be bd ee 05 bd 1c 23 20 bd a9 7d 69 be
       -0.15468504 -0.03269838 -0.039095983 -0.22801842
000210 73 86 0a be f0 65 09 be 64 94 91 bc cd a8 dd bd
       -0.13527851 -0.13417792 -0.017770953 -0.10823212
000220 3d 56 83 be 8d fa 2a be 81 4b 0c be d0 17 1c bd
       -0.25651732 -0.1669714 -0.13700677 -0.038108647
000230 fa ab fb bd 1d 09 7c bd 47 05 03 be b7 92 4a be
       -0.12288661 -0.06153213 -0.12794982 -0.1978253
000240 c1 30 bd bd d7 0a 37 be 1f 18 fb bd 3b 18 a9 bd
       -0.09237815 -0.17875229 -0.1226046 -0.08256575
000250 11 08 d4 bd 31 46 49 be ea dc fa bd 6a c6 15 be
       -0.10353101 -0.19655682 -0.12249167 -0.1462647
000260 a9 4d 46 be b4 f9 80 bd 93 9a 00 bd 72 69 0b be
       -0.19365562 -0.06297627 -0.031397413 -0.13614443
000270 fc 2f 00 bf c2 14 bf bd 98 56 73 be ec 0c 0b bd
       -0.5007322 -0.09330131 -0.23763502 -0.03394787
000280 6a 33 00 be 66 bd c2 bc 8c 85 ca bd c1 71 19 be
       -0.12519613 -0.023771953 -0.09888753 -0.149848
000290 9e 3a bf bd d3 78 b8 bd c8 f6 39 be 50 79 5a be
       -0.09337352 -0.090074204 -0.18160546 -0.2133534
0002a0 f0 03 90 be 90 4c 23 be b4 a9 2e be 8c 3f 89 bd
       -0.28128004 -0.15947175 -0.17056924 -0.06701574
0002b0 00 6b 12 bf 0b 2a cb bd 2e 86 8d be 0b 1c e0 bd
       -0.5719452 -0.099201284 -0.27641433 -0.10942849
0002c0 3a ad 25 be 65 a1 1a be 74 ab 4a bd ac d7 ae bd
       -0.16179362 -0.1510063 -0.049479917 -0.0853723
0002d0 41 4c 0e be ba b3 cb bd 53 04 44 be f7 43 89 bd
       -0.13896276 -0.099463895 -0.19142275 -0.067024164
0002e0 ef 55 46 be 8b 19 03 be fb 6f ff 3e 79 56 16 be
       -0.19368719 -0.12802713 0.49890122 -0.14681424
0002f0 3e d6 64 bd 2b 7d fa be a7 df 12 bd 93 35 20 bd
       -0.05586838 -0.4892362 -0.035857823 -0.039113592
000300 12 6f 44 be ed bc 32 be 54 75 7f be 94 f1 c7 be
       -0.19182995 -0.17454882 -0.24947101 -0.39051497
000310 70 b6 91 bd 1d 37 5a bd 21 8f 45 be 9b 78 1a bd
       -0.07114875 -0.053275216 -0.1929288 -0.037712675
000320 94 08 24 be 73 aa 54 be bf 83 1e be 3f a0 b8 bd
       -0.16018897 -0.20768146 -0.15479945 -0.090149395
000330 89 22 c9 3f c3 97 61 be 41 93 05 bd e5 9e 3e be
       1.5713664 -0.22030549 -0.032611135 -0.18615301
000340 49 5c b8 bd fc e7 3f be 1c 36 44 be 4d 3e 81 be
       -0.09001977 -0.18740839 -0.19161266 -0.25242844
000350 b8 6f 50 be 6a 7e b0 3e d9 e7 2e bd 40 55 48 be
       -0.20355117 0.34471446 -0.042701576 -0.1956377
000360 1d b7 8b be 95 77 34 be fd da b2 bd a2 fe 51 be
       -0.27288142 -0.17623742 -0.08733175 -0.20507291
000370 cc 02 18 be 59 9b c4 bd ce 2e 38 bd 72 32 d9 bd
       -0.14844817 -0.09599943 -0.04496651 -0.10605325
000380 44 9d 25 be 67 dc 3e be 76 8c 03 be 01 5a 0f be
       -0.16173273 -0.18638764 -0.1284655 -0.13999178
000390 e4 fd 3c be 29 04 9f be d5 1d 04 be 7e 0d 1e be
       -0.18456227 -0.3105786 -0.12902005 -0.15434834
0003a0 c2 61 16 be f3 af c8 be 9e 0b 58 be bb 8f 65 be
       -0.14685729 -0.3919674 -0.21098182 -0.2241811
0003b0 df 22 25 be 7e 50 3e be 30 aa 60 be c4 bd 50 bd
       -0.16126584 -0.18585393 -0.21939921 -0.050962225
0003c0 f4 ac f3 bd 39 4d 37 be d4 b2 4e bd 51 85 f1 bd
       -0.118982226 -0.17900552 -0.050463513 -0.11793006
0003d0 18 be 3e be 2e c3 ef bd 9c 75 53 bd 8f 76 43 be
       -0.18627203 -0.117071494 -0.051625833 -0.19088195
0003e0 09 e8 83 be a4 3c 2c be be 92 07 be ea 7d 83 be
       -0.25762966 -0.16820008 -0.13239571 -0.25682002
0003f0 35 9b 47 be 85 8d 12 bf 9f 44 ad bd f0 f3 2f be
       -0.194928 -0.5724719 -0.08460354 -0.17182899

linear3.weight f4 [64, 256]
000000 e4 37 fe 3c ec a2 8e 3c 94 de 09 bd 6c d7 44 3d
       0.03103251 0.017411672 -0.033659533 0.048057005
000010 7c d6 ec 3c 19 b5 20 3d 77 3f 8d 3a 44 2c 3d bc
       0.028910868 0.03923521 0.001077636 -0.011546198
000020 a8 c9 c0 bc 30 f6 c2 3c 28 c8 53 bd 88 3e 20 bd
       -0.023533657 0.023799032 -0.051704556 -0.039122134
000030 02 ca 49 bd fb f0 ca bd ca 2e 37 bd 76 c7 f9 bb
       -0.049264915 -0.099092446 -0.044722356 -0.0076226545
000040 fd 7b ae 3c e9 42 c1 bc e6 1c 32 bd ad f1 6d 3c
       0.021299357 -0.023591476 -0.04348459 0.014522952
000050 3f 65 20 bd d4 f2 39 bc af 2d f0 3c 34 02 2c bc
       -0.039159056 -0.011349399 0.029318659 -0.010498572
000060 27 7c 43 3d 62 e3 90 bd 74 71 f6 bc 16 40 21 3d
       0.047725823 -0.0707462 -0.030083396 0.039367758
000070 f8 86 f2 3b f0 f3 f2 bb 47 91 3f bd 7a a9 04 3d
       0.0074013434 -0.0074143335 -0.046769407 0.032388188
000080 ec 5f 61 bd a2 eb df bc d5 2d 16 bd 42 c9 8f 3b
       -0.05502312 -0.027334038 -0.036664803 0.0043880055
000090 00 cd 5b bd 45 2a 21 3d 82 28 00 bd 49 78 6c bc
       -0.0536623 0.039346952 -0.03128863 -0.014432975
0000a0 42 a0 0b bd 1a 08 9a 3c de 2a 4e bb 24 6b 13 bc
       -0.03408838 0.018802691 -0.0031458656 -0.008997712
0000b0 ff f3 87 bd c4 fc 72 bd c0 7a 1d 3c 56 73 3f bd
       -0.066383354 -0.059323087 0.009611785 -0.046740852
0000c0 f9 f9 cf bc b4 57 2b bd 0c 83 ec 3c b8 db 5b bd
       -0.025387751 -0.041831687 0.028871082 -0.053676337
0000d0 6b a5 78 bc 2f 3a d0 bc 35 e2 db 3c f7 61 c3 bc
       -0.0151761575 -0.02541837 0.026841262 -0.023850424
0000e0 9f be 08 3c bb 44 f8 bc 08 a8 3f bd bf 0b fa bb
       0.008346229 -0.03030621 -0.046791106 -0.007630795
0000f0 be f4 ce bd cb b5 4a bd 8f a8 ae bb f6 8b 30 bd
       -0.101052746 -0.049489778 -0.0053301523 -0.043102227
000100 73 66 6d bb 30 6f 4f bd 09 8b f7 bc fe d2 02 3c
       -0.0036224395 -0.050643146 -0.030217664 0.007984875
000110 2d 5e c2 3c 76 53 87 bd 1a 11 19 3d 16 be c9 bc
       0.023726547 -0.06607716 0.037369825 -0.024626773
000120 36 21 0c 3d b7 97 53 bd 6a 0f 12 bd 2a bd 17 bd
       0.03421136 -0.05165836 -0.03565923 -0.037045635
000130 3b cc 4e 3d 5b fd 27 bb 55 d4 4a bd 77 d4 3d 3d
       0.050487738 -0.002563319 -0.0495189 0.0463452
000140 4c d8 2e 3d a9 40 3c bd a3 98 d8 bc 9b cc 6e bc
       0.042686746 -0.045960102 -0.02643997 -0.014575149
000150 01 7a 5c 3d fd 10 54 3d 63 f6 28 bc 1c c0 0f 3d
       0.05382729 0.051774014 -0.010312649 0.03509532
000160 c2 11 9d bd 68 47 3c bd 4f c4 68 3c f4 95 18 bd
       -0.07669403 -0.045966536 0.01420696 -0.03725238
000170 86 4c 2a 3d 88 a1 b0 3c 7c d1 b1 bd 9a a3 64 bd
       0.041576885 0.0215614 -0.08682534 -0.055820085
000180 b4 a0 8b bc 8f b4 ed bd d2 23 e3 bb d9 2b 2a 3d
       -0.017044403 -0.116067044 -0.0069317603 0.041545723
000190 a4 c6 23 3d ac ba c9 bc 0d 89 be bc 1c 59 e4 bc
       0.03998436 -0.024625145 -0.02325871 -0.027874522
0001a0 f6 1d 86 bc 56 1d 2f 3d db c5 4a 3d 2b a5 0c bd
       -0.016371708 0.042752586 0.049505096 -0.034337204
0001b0 f1 8d f5 3c b3 ce 63 b9 14 8d 8a bc 03 30 3d bd
       0.02997491 -0.00021725408 -0.016912974 -0.046188366
0001c0 48 db 9a 3c f0 eb e1 3c 96 70 d8 3c e6 c5 ab 3b
       0.01890339 0.027578324 0.026420873 0.005242097
0001d0 69 17 79 bd 35 99 00 bd ab 84 53 bd d6 77 89 bd
       -0.06081334 -0.03139611 -0.051640194 -0.0671231
0001e0 c7 4b ac bb 40 2d 5f 3c 4a d8 75 bc fd e4 42 3c
       -0.005258057 0.013621628 -0.015005181 0.011895415
0001f0 00 92 ce bc b5 c3 d8 bc 61 3e 8c bc b7 7b c5 bc
       -0.025216103 -0.026460508 -0.017119588 -0.024106843
000200 69 da dd 3c f7 9d 32 3d 6b a4 a5 3c b7 79 07 3b
       0.027081685 0.04360768 0.020220002 0.0020671913
000210 b2 0e d0 3c e8 88 36 37 b7 d1 3c bd 29 73 49 bd
       0.025397632 1.0879921e-05 -0.046098437 -0.04918209
000220 d3 01 38 3d ec c6 b8 bd dd 1c b6 bc 5d f0 22 bb
       0.044923615 -0.09022316 -0.02223056 -0.0024862506
000230 b7 e8 71 3d 7a e9 97 bc 1a c5 92 bd 71 c5 f1 bc
       0.059059825 -0.018543947 -0.071665004 -0.029513093
000240 07 ea 2f bd 0e b2 92 bd 26 72 58 bc b8 95 e2 bc
       -0.042947795 -0.071628675 -0.013210809 -0.027659282
000250 64 a1 a7 3c 88 57 f9 3c 38 70 75 bd 94 7b 1e 3c
       0.0204627 0.030437246 -0.059921473 0.009673018
000260 cc ba 85 bd 92 86 b8 bd a0 a3 74 3b 0c 9e 54 bd
       -0.06529769 -0.09010042 0.0037328973 -0.051908538
000270 a7 57 62 bd 07 5f 00 3d 8b 4e 54 bd 50 75 44 bd
       -0.055259373 0.031340625 -0.051832717 -0.04796344
000280 ab b7 28 3d 71 67 2c 3d fb f6 92 bc cc 3c 0e bd
       0.041190784 0.042090837 -0.017940035 -0.03472595
000290 9f 92 19 3d 5c 7a 6f bd 50 61 8c 3b fb 66 89 bd
       0.037493344 -0.0584663 0.0042840615 -0.06709095
0002a0 0a d6 68 3d 0e 40 c1 bc 08 2b 36 3c b1 16 1c bd
       0.05684475 -0.023590114 0.011118658 -0.038107578
0002b0 71 dc 72 bc 97 8c 97 3c db 81 46 bd a2 50 d8 bc
       -0.014823065 0.018499656 -0.048463684 -0.026405636
0002c0 34 f2 50 3c b7 14 01 3d c4 ed e1 bc d6 61 c0 3c
       0.012753058 0.031513896 -0.027579196 0.023484152
0002d0 e9 09 da 3c d2 df 5a 3d 5d 42 11 bd 37 4d ea bc
       0.026616054 0.053436108 -0.03546368 -0.028601272
0002e0 46 eb 20 bb 82 48 94 bc 76 d9 15 bd 08 9f 2b 3d
       -0.0024554296 -0.01810098 -0.03658434 0.04189971
0002f0 d9 9b 8d bd eb 8f 55 bd 2e 94 4f 3d 5b b5 a0 bc
       -0.06914491 -0.052139204 0.050678425 -0.019617727
000300 d5 40 26 3c 50 a4 4b bd 87 bb 5e 3c 20 8b 88 3c
       0.010147293 -0.049717247 0.013594515 0.016667902
000310 cc a5 62 3d 6a f1 8c bd 60 88 b0 bc b6 05 f7 3c
       0.055333897 -0.068819836 -0.021549404 0.03015409
000320 94 38 af bc e9 d1 d2 bd 27 dd bd bb c9 9b b5 bd
       -0.021389283 -0.102939434 -0.0057941857 -0.08867604
000330 f9 32 f6 bb ba 31 53 3b 85 b4 2c 3c e0 68 ec bb
       -0.0075134006 0.0032225684 0.010541086 -0.0072146505
000340 2e 0e e9 b7 f6 14 28 3c 9c a3 62 bd 1f 96 a7 bc
       -2.7782367e-05 0.010258904 -0.05533181 -0.020457326
000350 ab 16 86 3d 79 97 da 3c 6b 6d a7 3c 88 45 fb bc
       0.06547292 0.026683556 0.020437917 -0.030672804
000360 b3 d5 b4 bc b4 30 aa bc f5 44 42 3d 2d 86 08 bc
       -0.022074556 -0.020775177 0.047429044 -0.008332771
000370 90 cc 5e 3c 4e 6d 54 3d d6 16 d2 bc 04 a2 06 3c
       0.013598576 0.051862054 -0.025645655 0.0082173385
000380 d3 5e 28 3d 63 cb 10 bc c3 3a b1 3c cb e9 eb bb
       0.041106056 -0.008837554 0.021634465 -0.007199501
000390 02 8f 70 3d 88 d4 f8 bc b0 6d ad bd c8 c0 ad bc
       0.058730133 -0.03037478 -0.08468187 -0.02121009
0003a0 3c 77 91 bc 75 fb e7 3c 29 db c4 bd 5e ce b7 bd
       -0.01775705 0.028318146 -0.09612114 -0.08974908
0003b0 98 96 28 bc cf a6 92 3a 74 b6 53 bd 9b ca 1e bd
       -0.010289811 0.0011188629 -0.051687673 -0.03876744
0003c0 a0 77 57 3c 69 21 45 3d cc c3 82 bb 3d 55 f3 bc
       0.013151079 0.048127566 -0.003990626 -0.02970373
0003d0 d8 e7 7d bb 91 d9 44 3d 83 74 31 3c e0 9c 2a 3d
       -0.0038742926 0.04805905 0.010831001 0.041653514
0003e0 4f 2e f8 3b 62 26 35 bd 92 04 14 bd 77 7b 7e bb
       0.00757388 -0.044226058 -0.03613717 -0.0038830915
0003f0 3a 4d 6e bd 3b ba 2a bd d5 82 c6 3b b5 b7 bd bc
       -0.058179118 -0.04168151 0.006058077 -0.023158887

linear3.bias f4 [64]
000000 d9 a5 a7 bd 54 29 c9 bd 7c 8f 92 bd 1a 09 bb bd
       -0.0818593 -0.09822336 -0.07156274 -0.09132595
000010 98 8f d9 bd c8 04 b0 bd 65 ae a1 bd 2c 58 ae bd
       -0.106230915 -0.08594662 -0.07894591 -0.08512911
000020 24 d6 ae bc 1d 4c 81 bd e5 1d 3a bd db 57 84 bd
       -0.021342345 -0.063133456 -0.045438666 -0.064620696
000030 ad ff 5e 40 5c 78 9f bd 07 1c b5 bd 21 aa 7a bd
       3.4843552 -0.077866286 -0.088432364 -0.061197404
000040 80 dd 8d bd de 7b 4a bd ed ac dc bd 19 61 15 be
       -0.069270134 -0.049434535 -0.107751705 -0.14587821
000050 18 77 ed bc b8 79 72 3f 58 64 99 bd 2f 53 ca bd
       -0.028987452 0.9471698 -0.07489842 -0.09879147
000060 3d 7f 8c bd 58 36 1c bd 58 ea 88 bd b9 b9 32 bd
       -0.06860206 -0.038137764 -0.066853225 -0.04363415
000070 e8 4b 4b bd 78 fc 96 bd 8c 7a c2 bd a3 6d 80 bc
       -0.049632937 -0.07372373 -0.0949603 -0.015677279
000080 21 6a af bc c1 9f 86 bd 53 5f 8b bd 75 06 8d bd
       -0.02141291 -0.065734394 -0.06805291 -0.06885997
000090 51 96 66 bb 1a f5 00 bd 7c 57 80 bd d4 51 55 bd
       -0.003518481 -0.031483747 -0.06266686 -0.05207999
0000a0 8d af 96 bd 5d 0a 83 bd 7c 4b df bd 46 ea 6d 3d
       -0.073577024 -0.06398461 -0.109030694 0.05808475
0000b0 3a fb 6d bd cf 17 c9 bd e5 86 28 be ab 46 55 bd
       -0.058100916 -0.09818994 -0.16457708 -0.052069347
0000c0 af 6d 82 bd 27 6f 6d bd 52 d1 cf bc 43 99 7d bc
       -0.06368577 -0.05796733 -0.025368366 -0.015478435
0000d0 6f 3a c7 bd 87 e7 c5 bc 19 60 eb bd 51 15 d1 bd
       -0.09727942 -0.024158252 -0.114929385 -0.10209144
0000e0 f9 ac ad bd 32 3d c7 bc 6e 7e 81 bd 2b 40 b4 bd
       -0.084802575 -0.024321172 -0.06322943 -0.088013016
0000f0 33 ce dd bc 77 31 65 bd 9d 62 d0 bd d9 6f 0f be
       -0.027075863 -0.055955376 -0.10175059 -0.1400751

linear4.weight f4 [45, 64]
000000 05 d3 e1 3b 6f 33 e9 bd 60 ca 9e 3d a0 f2 85 3c
       0.0068916106 -0.11386763 0.07753444 0.016351044
000010 a9 46 64 3d 5b 9f 68 bc 34 3d fd 3e 39 d0 8c bd
       0.05573145 -0.01419815 0.49460757 -0.06875653
000020 74 a9 39 3c 49 ad 57 bb bd 4b 2f 3c 4f 89 a2 3d
       0.011331905 -0.0032909682 0.01069921 0.07936346
000030 3b 27 9e be 46 21 da bd b6 08 ee bd 18 f4 03 bd
       -0.30889305 -0.10650878 -0.11622755 -0.032215208
000040 f5 3c 12 40 5f 4a 97 3f f4 8b 8c 3f a8 53 c3 bd
       2.2849705 1.1819571 1.098021 -0.095374405
000050 93 b8 d5 3d 86 32 99 be 13 2e ac bc 47 33 b1 bc
       0.10435595 -0.2992136 -0.021018064 -0.021630896
000060 0a df 67 bd bc 5a 8b bd c9 5a 5c 3d b2 49 cf bd
       -0.05660919 -0.068044156 0.053797517 -0.10121478
000070 19 69 75 3c 10 e4 bf 3c 33 5c c7 bd 2b 71 df bc
       0.0149786705 0.023424178 -0.097343825 -0.027275642
000080 66 2b db bc 1c e7 87 3d 3a 6f e0 3d 00 01 4d 3d
       -0.026754092 0.066358775 0.10958715 0.05004978
000090 ca 1d 21 bb 40 dc b2 3d 4f 16 82 3f 91 2e d1 3c
       -0.0024584406 0.087334156 1.0163058 0.0255349
0000a0 50 be 60 3d 15 1f f6 3d b2 42 08 3e d3 1e c1 40
       0.054868996 0.12017647 0.13306692 6.0350127
0000b0 75 1d 44 b7 0f 5f 78 3d e0 bf 7d 3f b7 f7 7a 3d
       -1.1689369e-05 0.06063753 0.99120903 0.061271396
0000c0 e4 5e b8 bc 48 7a 9f bd ef d0 03 3d b8 7e 07 3e
       -0.022506185 -0.07786995 0.032181676 0.13231933
0000d0 94 4d 69 3b d8 c8 1c 3c 7a 17 00 bd be 65 91 bd
       0.0035599219 0.009569369 -0.03127239 -0.07099484
0000e0 ec 6b da bd 5c d4 51 3d cc 0a 8c bd dd 5f 7f 3f
       -0.10665116 0.051227912 -0.06837997 0.9975565
0000f0 52 9b 96 bd 76 77 8e bd d7 10 a8 bb 09 6c 8a bc
       -0.07353844 -0.06956379 -0.0051289606 -0.016897218
000100 8c 39 04 bd 58 30 23 bd 60 d9 5e 3d b8 82 af 3c
       -0.032281443 -0.039841026 0.054406524 0.021424636
000110 87 ad 9d 3c 80 52 51 3b 71 06 d6 3e 64 86 82 3d
       0.019247783 0.0031940043 0.4180179 0.06373289
000120 59 89 8f bc 60 dd 1e 3d 06 aa be 3b ab 89 05 3e
       -0.017521547 0.03878534 0.005818608 0.13040797
000130 91 21 95 be d5 3c 9b bd 4a 31 a0 bd b4 ec 13 3d
       -0.29127172 -0.07579962 -0.07821901 0.03611441
000140 1f a0 2d 40 05 65 8f 3f 50 51 81 3f 40 e3 4e 3d
       2.712898 1.1202704 1.010294 0.05050969
000150 b3 b6 d2 3d e8 49 ff bd 7c d1 04 3d 00 ba d3 3d
       0.10288753 -0.124652684 0.032426342 0.10338211
000160 71 5d 80 bd f0 e0 60 bc 97 b8 6a 3e d0 c7 03 bd
       -0.062678225 -0.013725504 0.22921978 -0.032172978
000170 e6 a7 da bd 60 a5 8b bd 60 3e 28 bd f2 2b 18 bb
       -0.10676555 -0.06818652 -0.04107511 -0.0023219553
000180 fc 0c d0 3d aa e2 b0 bd 7c 5b b6 bd 08 4e c2 bc
       0.101587266 -0.08636983 -0.08904168 -0.023718849
000190 8f 32 f7 bb 64 8f 0b 3d 40 22 86 3f 28 a7 da 3c
       -0.007543869 0.034072295 1.0479202 0.026691034
0001a0 00 1d 5b bd 50 3c 11 bc 5e 11 7c bc e3 37 a7 40
       -0.053494453 -0.008864477 -0.015385 5.225572
0001b0 08 db a9 3c 08 42 b1 3d 09 b8 22 3f f4 88 e9 bd
       0.020734325 0.086551726 0.63562065 -0.11403075
0001c0 39 a2 1d 3c 34 c1 8c 3d c3 07 b2 3c 18 05 36 3e
       0.009621196 0.06872788 0.021732217 0.1777538
0001d0 64 88 00 3d 0e c9 fe bd df 8f 0f 3d ee eb ca 3d
       0.031380072 -0.12440692 0.035049316 0.09908281
0001e0 23 35 b5 3c 9e 74 e7 bd 72 9e a8 bd 9b 3c 60 3f
       0.022120064 -0.1130154 -0.08233346 0.87592477
0001f0 5c cb b2 bd 15 e9 d2 3d 6f 89 3d 3d f0 20 dc bd
       -0.08730194 0.10298363 0.046273645 -0.1074847
000200 c9 30 88 3c f0 34 83 bc fc d9 69 bd 00 84 a5 3c
       0.016624825 -0.016016454 -0.05709265 0.020204544
000210 eb 90 9e 3d 82 3d 77 bd d3 ae 2e 3f 06 ee 46 bd
       0.07742485 -0.060361393 0.6823551 -0.04856684
000220 af 0f ca 3c 85 02 53 3d d1 bb 52 bc ad 68 03 bd
       0.024665682 0.051516075 -0.012862162 -0.03208225
000230 be 11 90 be 41 4f c0 3d ca 45 7d 3d d5 fd eb bb
       -0.28138536 0.093901165 0.061834134 -0.00720189
000240 cb 3d 38 40 6b 2d 75 3f 09 dc 87 3f 8d 40 cf bc
       2.8787715 0.9577243 1.0614024 -0.025299335
000250 35 b5 b7 3d f2 49 06 3e d3 b8 a6 3d ff 43 83 bd
       0.089701094 0.13114145 0.08140721 -0.064094536
000260 1d d1 c2 3d e0 7d 13 3c e8 9b 95 3d e0 02 df bd
       0.095125414 0.009002179 0.073051274 -0.1088922
000270 d3 64 a9 bd cc f8 37 bd 44 b3 f2 bd 60 95 44 3e
       -0.08271184 -0.044915006 -0.118505985 0.19197607
000280 d6 15 dd bb 83 ee 94 ba 6f 35 15 bc 68 ec c7 bc
       -0.006746988 -0.0011362586 -0.009106978 -0.02440472
000290 5e 6f 6e bd 35 0a 9c bb 00 2d 9a 3f 6a 71 2d 3d
       -0.058211677 -0.004761959 1.2044983 0.04234449
0002a0 e0 f2 1a 3c fc 28 ae 3d 34 15 ac bd d4 73 ad 40
       0.00945732 0.08503911 -0.08402482 5.420389
0002b0 80 31 8a 3c 24 cf b7 3d ba 2b 7a 3f 56 49 77 bd
       0.016869307 0.08975056 0.9772297 -0.060372673
0002c0 aa 1d 98 3c df 6a c1 bd 7a b7 92 3d 1b 14 ad bb
       0.018568832 -0.09444212 0.071639016 -0.005281938
0002d0 63 57 03 3e 28 05 fd 3d 24 b5 0d 3e 68 de aa 3d
       0.12826304 0.12354499 0.13838631 0.08343202
0002e0 3c 05 69 bd 20 12 da bc 16 bd fb 3d 8f a2 2b 3f
       -0.056889758 -0.02661997 0.12291925 0.6704492
0002f0 00 9c cd bb 7e b6 bc 3d 87 b9 96 bc 93 29 d8 bd
       -0.0062747 0.09214495 -0.018399013 -0.10554805
000300 04 6f 98 bc 98 5f eb bd 00 f4 a7 39 56 dd 8e bd
       -0.018607624 -0.114928424 0.00032034516 -0.0697581
000310 e4 38 06 3e 2f 37 a6 3d 78 45 35 3f c0 b9 00 3c
       0.1310764 0.08115994 0.70809126 0.007856786
000320 4b a0 3a bd 98 92 ad 3c 78 e0 3a 3d b5 79 75 bd
       -0.045563024 0.021188065 0.045624226 -0.059930522
000330 56 8a 96 be c1 c5 10 3d 0e 2b c5 bd b8 ca 17 3e
       -0.29402417 0.035344843 -0.09627353 0.14823425
000340 71 64 34 40 12 a3 a9 3f 13 52 67 3f bc 76 c3 bd
       2.8186305 1.325289 0.9035961 -0.09544131
000350 98 93 56 bd b2 d7 53 3c 74 30 52 bd 67 1d 9f bc
       -0.05238685 0.012929844 -0.05131574 -0.0194232
000360 37 39 82 3c 1c d5 8b bd 3f 42 d1 3d cc 49 a9 bd
       0.015896423 -0.06827757 0.102177136 -0.08266029
000370 ec 01 99 bc b8 57 cc bc be 54 9f 3d 4f 8d a4 bc
       -0.018677674 -0.024944171 0.07779835 -0.020086912
000380 69 d5 09 be 24 c9 d2 3c cf 7d a1 bd 98 4f 97 3d
       -0.13460316 0.025730677 -0.07885324 0.07388228
000390 00 06 3f 3d 1c 76 c2 3a 15 a1 80 3f 59 5b 33 3c
       0.04663658 0.0014836225 1.0049158 0.010947072
0003a0 32 8a bc bd a2 8a be 3c 75 ff d4 3c 95 17 bb 40
       -0.09206046 0.023259465 0.026000718 5.8466287
0003b0 aa 31 a1 bd a2 f7 a5 3c c0 71 77 3f 0c 08 02 3d
       -0.07870801 0.020259682 0.96657944 0.031745955
0003c0 8d 4e a7 3c 64 4b cc 3d a8 9a 25 3e 6b 05 25 3e
       0.020423198 0.09975317 0.16172278 0.16115348
0003d0 3f 71 85 bd d4 07 ed 3d 60 53 e7 bc b0 f3 5f bc
       -0.065157406 0.11573759 -0.028237998 -0.0136689395
0003e0 81 fd 93 bd b4 a0 d9 3d 80 52 e4 3c f8 69 6c 3f
       -0.072260864 0.10626355 0.02787137 0.92349195
0003f0 f8 8c a1 3c 90 28 c5 bc b3 b4 00 be 5f a7 8f bd
       0.01972054 -0.024067193 -0.12568931 -0.070143454

linear4.bias f4 [45]
000000 44 5d ca 3f d1 56 d3 3f 63 ea d2 3f 52 44 cf 3f
       1.5809712 1.6510869 1.6477779 1.6192725
000010 2c 83 ce 3f 78 f7 ca 3f 83 95 ca 3f ba 84 cb 3f
       1.613378 1.5856771 1.5826877 1.589988
000020 42 21 d1 3f 91 e9 d2 3f 90 82 cd 3f f7 8e d4 3f
       1.6338274 1.6477529 1.605547 1.660613
000030 c3 8e cd 3f 45 39 d1 3f 13 41 ce 3f e8 80 d1 3f
       1.6059192 1.6345602 1.6113609 1.6367464
000040 e9 69 cb 3f 50 34 d2 3f 08 72 d3 3f b3 c6 d2 3f
       1.5891696 1.6422215 1.6519175 1.6466888
000050 b0 f8 cf 3f 7f 01 d1 3f 5a f2 d7 3f 92 7a cf 3f
       1.6247768 1.6328582 1.6870835 1.620928
000060 80 20 d2 3f d5 0b cd 3f 85 2b d2 3f 35 55 d6 3f
       1.6416168 1.6019236 1.6419531 1.6744753
000070 3b 69 ce 3f a8 1e d5 3f 2a f7 d2 3f 0b 0f 85 3f
       1.6125864 1.664998 1.6481678 1.0395216
000080 df 7e cf 3f 91 23 d3 3f c4 ac cc 3f 29 a4 d0 3f
       1.6210593 1.6495229 1.5990224 1.6300098
000090 82 56 d0 3f d5 b3 d0 3f 65 d3 d1 3f 73 fb d1 3f
       1.62764 1.630488 1.6392637 1.6404861
0000a0 df 9c d2 3f 72 49 cd 3f b0 36 cf 3f 02 f0 d0 3f
       1.6454123 1.6038039 1.6188564 1.6323245
0000b0 19 28 cb 3f
       1.5871612
